…
I0906 13:22:21.283393 46507 net.cpp:347] The NetState phase (1) differed from the phase (0) specified by a rule in layer data
I0906 13:22:21.283653 46507 net.cpp:82] Initializing net from parameters: 
name: "CaffeNet"
state {
  phase: TEST
  level: 0
  stage: ""
}
layer {
  name: "data"
  type: "Data"
  top: "data"
  top: "label"
  include {
    phase: TEST
  }
  transform_param {
    mirror: false
    crop_size: 227
    mean_file: "data/ilsvrc12/imagenet_mean.binaryproto"
  }
  data_param {
    source: "/mllib/imagenet/ilsvrc12/lmdb_resize/ilsvrc12_val_lmdb"
    batch_size: 50
    backend: LMDB
  }
}
layer {
  name: "conv1"
  type: "Convolution"
  bottom: "data"
  top: "conv1"
  param {
    lr_mult: 1
    decay_mult: 1
  }
  param {
    lr_mult: 2
    decay_mult: 0
  }
  convolution_param {
    num_output: 96
    kernel_size: 11
    stride: 4
    weight_filler {
      type: "gaussian"
      std: 0.01
    }
    bias_filler {
      type: "constant"
      value: 0
    }
  }
}
layer {
  name: "relu1"
  type: "ReLU"
  bottom: "conv1"
  top: "conv1"
}
layer {
  name: "pool1"
  type: "Pooling"
  bottom: "conv1"
  top: "pool1"
  pooling_param {
    pool: MAX
    kernel_size: 3
    stride: 2
  }
}
layer {
  name: "norm1"
  type: "LRNRistretto"
  bottom: "pool1"
  top: "norm1"
  lrn_param {
    local_size: 5
    alpha: 0.0001
    beta: 0.75
  }
  quantization_param {
    bw_layer_in: 8
    bw_layer_out: 8
    fl_layer_in: -5
    fl_layer_out: -1
  }
}
layer {
  name: "conv2"
  type: "Convolution"
  bottom: "norm1"
  top: "conv2"
  param {
    lr_mult: 1
    decay_mult: 1
  }
  param {
    lr_mult: 2
    decay_mult: 0
  }
  convolution_param {
    num_output: 256
    pad: 2
    kernel_size: 5
    group: 2
    weight_filler {
      type: "gaussian"
      std: 0.01
    }
    bias_filler {
      type: "constant"
      value: 1
    }
  }
}
layer {
  name: "relu2"
  type: "ReLU"
  bottom: "conv2"
  top: "conv2"
}
layer {
  name: "pool2"
  type: "Pooling"
  bottom: "conv2"
  top: "pool2"
  pooling_param {
    pool: MAX
    kernel_size: 3
    stride: 2
  }
}
layer {
  name: "norm2"
  type: "LRNRistretto"
  bottom: "pool2"
  top: "norm2"
  lrn_param {
    local_size: 5
    alpha: 0.0001
    beta: 0.75
  }
  quantization_param {
    bw_layer_in: 8
    bw_layer_out: 8
    fl_layer_in: -3
    fl_layer_out: -1
  }
}
layer {
  name: "conv3"
  type: "Convolution"
  bottom: "norm2"
  top: "conv3"
  param {
    lr_mult: 1
    decay_mult: 1
  }
  param {
    lr_mult: 2
    decay_mult: 0
  }
  convolution_param {
    num_output: 384
    pad: 1
    kernel_size: 3
    weight_filler {
      type: "gaussian"
      std: 0.01
    }
    bias_filler {
      type: "constant"
      value: 0
    }
  }
}
layer {
  name: "relu3"
  type: "ReLU"
  bottom: "conv3"
  top: "conv3"
}
layer {
  name: "conv4"
  type: "Convolution"
  bottom: "conv3"
  top: "conv4"
  param {
    lr_mult: 1
    decay_mult: 1
  }
  param {
    lr_mult: 2
    decay_mult: 0
  }
  convolution_param {
    num_output: 384
    pad: 1
    kernel_size: 3
    group: 2
    weight_filler {
      type: "gaussian"
      std: 0.01
    }
    bias_filler {
      type: "constant"
      value: 1
    }
  }
}
layer {
  name: "relu4"
  type: "ReLU"
  bottom: "conv4"
  top: "conv4"
}
layer {
  name: "conv5"
  type: "Convolution"
  bottom: "conv4"
  top: "conv5"
  param {
    lr_mult: 1
    decay_mult: 1
  }
  param {
    lr_mult: 2
    decay_mult: 0
  }
  convolution_param {
    num_output: 256
    pad: 1
    kernel_size: 3
    group: 2
    weight_filler {
      type: "gaussian"
      std: 0.01
    }
    bias_filler {
      type: "constant"
      value: 1
    }
  }
}
layer {
  name: "relu5"
  type: "ReLU"
  bottom: "conv5"
  top: "conv5"
}
layer {
  name: "pool5"
  type: "Pooling"
  bottom: "conv5"
  top: "pool5"
  pooling_param {
    pool: MAX
    kernel_size: 3
    stride: 2
  }
}
layer {
  name: "fc6"
  type: "InnerProduct"
  bottom: "pool5"
  top: "fc6"
  param {
    lr_mult: 1
    decay_mult: 1
  }
  param {
    lr_mult: 2
    decay_mult: 0
  }
  inner_product_param {
    num_output: 4096
    weight_filler {
      type: "gaussian"
      std: 0.005
    }
    bias_filler {
      type: "constant"
      value: 1
    }
  }
}
layer {
  name: "relu6"
  type: "ReLU"
  bottom: "fc6"
  top: "fc6"
}
layer {
  name: "drop6"
  type: "Dropout"
  bottom: "fc6"
  top: "fc6"
  dropout_param {
    dropout_ratio: 0.5
  }
}
layer {
  name: "fc7"
  type: "InnerProduct"
  bottom: "fc6"
  top: "fc7"
  param {
    lr_mult: 1
    decay_mult: 1
  }
  param {
    lr_mult: 2
    decay_mult: 0
  }
  inner_product_param {
    num_output: 4096
    weight_filler {
      type: "gaussian"
      std: 0.005
    }
    bias_filler {
      type: "constant"
      value: 1
    }
  }
}
layer {
  name: "relu7"
  type: "ReLU"
  bottom: "fc7"
  top: "fc7"
}
layer {
  name: "drop7"
  type: "Dropout"
  bottom: "fc7"
  top: "fc7"
  dropout_param {
    dropout_ratio: 0.5
  }
}
layer {
  name: "fc8"
  type: "InnerProduct"
  bottom: "fc7"
  top: "fc8"
  param {
    lr_mult: 1
    decay_mult: 1
  }
  param {
    lr_mult: 2
    decay_mult: 0
  }
  inner_product_param {
    num_output: 1000
    weight_filler {
      type: "gaussian"
      std: 0.01
    }
    bias_filler {
      type: "constant"
      value: 0
    }
  }
}
layer {
  name: "accuracy"
  type: "Accuracy"
  bottom: "fc8"
  bottom: "label"
  top: "accuracy"
  include {
    phase: TEST
  }
}
layer {
  name: "loss"
  type: "SoftmaxWithLoss"
  bottom: "fc8"
  bottom: "label"
  top: "loss"
}
I0906 13:22:21.283828 46507 layer_factory.hpp:77] Creating layer data
I0906 13:22:21.283958 46507 db_lmdb.cpp:35] Opened lmdb /mllib/imagenet/ilsvrc12/lmdb_resize/ilsvrc12_val_lmdb
I0906 13:22:21.283998 46507 net.cpp:115] Creating Layer data
I0906 13:22:21.284013 46507 net.cpp:490] data -> data
I0906 13:22:21.284049 46507 net.cpp:490] data -> label
I0906 13:22:21.284071 46507 data_transformer.cpp:25] Loading mean file from: data/ilsvrc12/imagenet_mean.binaryproto
I0906 13:22:21.311455 46507 data_layer.cpp:45] output data size: 50,3,227,227
I0906 13:22:21.406162 46507 net.cpp:153] Setting up data
I0906 13:22:21.406345 46507 net.cpp:160] Top shape: 50 3 227 227 (7729350)
I0906 13:22:21.406381 46507 net.cpp:160] Top shape: 50 (50)
I0906 13:22:21.406391 46507 net.cpp:168] Memory required for data: 30917600
I0906 13:22:21.406409 46507 layer_factory.hpp:77] Creating layer label_data_1_split
I0906 13:22:21.406433 46507 net.cpp:115] Creating Layer label_data_1_split
I0906 13:22:21.406445 46507 net.cpp:516] label_data_1_split <- label
I0906 13:22:21.406466 46507 net.cpp:490] label_data_1_split -> label_data_1_split_0
I0906 13:22:21.406481 46507 net.cpp:490] label_data_1_split -> label_data_1_split_1
I0906 13:22:21.406538 46507 net.cpp:153] Setting up label_data_1_split
I0906 13:22:21.406550 46507 net.cpp:160] Top shape: 50 (50)
I0906 13:22:21.406556 46507 net.cpp:160] Top shape: 50 (50)
I0906 13:22:21.406561 46507 net.cpp:168] Memory required for data: 30918000
I0906 13:22:21.406566 46507 layer_factory.hpp:77] Creating layer conv1
I0906 13:22:21.406592 46507 net.cpp:115] Creating Layer conv1
I0906 13:22:21.406599 46507 net.cpp:516] conv1 <- data
I0906 13:22:21.406607 46507 net.cpp:490] conv1 -> conv1
I0906 13:22:21.414229 46507 net.cpp:153] Setting up conv1
I0906 13:22:21.414250 46507 net.cpp:160] Top shape: 50 96 55 55 (14520000)
I0906 13:22:21.414258 46507 net.cpp:168] Memory required for data: 88998000
I0906 13:22:21.414279 46507 layer_factory.hpp:77] Creating layer relu1
I0906 13:22:21.414295 46507 net.cpp:115] Creating Layer relu1
I0906 13:22:21.414301 46507 net.cpp:516] relu1 <- conv1
I0906 13:22:21.414309 46507 net.cpp:477] relu1 -> conv1 (in-place)
I0906 13:22:21.414324 46507 net.cpp:153] Setting up relu1
I0906 13:22:21.414330 46507 net.cpp:160] Top shape: 50 96 55 55 (14520000)
I0906 13:22:21.414335 46507 net.cpp:168] Memory required for data: 147078000
I0906 13:22:21.414340 46507 layer_factory.hpp:77] Creating layer pool1
I0906 13:22:21.414350 46507 net.cpp:115] Creating Layer pool1
I0906 13:22:21.414356 46507 net.cpp:516] pool1 <- conv1
I0906 13:22:21.414363 46507 net.cpp:490] pool1 -> pool1
I0906 13:22:21.414441 46507 net.cpp:153] Setting up pool1
I0906 13:22:21.414454 46507 net.cpp:160] Top shape: 50 96 27 27 (3499200)
I0906 13:22:21.414459 46507 net.cpp:168] Memory required for data: 161074800
I0906 13:22:21.414465 46507 layer_factory.hpp:77] Creating layer norm1
I0906 13:22:21.414489 46507 net.cpp:115] Creating Layer norm1
I0906 13:22:21.414494 46507 net.cpp:516] norm1 <- pool1
I0906 13:22:21.414503 46507 net.cpp:490] norm1 -> norm1
I0906 13:22:21.414546 46507 net.cpp:153] Setting up norm1
I0906 13:22:21.414558 46507 net.cpp:160] Top shape: 50 96 27 27 (3499200)
I0906 13:22:21.414563 46507 net.cpp:168] Memory required for data: 175071600
I0906 13:22:21.414568 46507 layer_factory.hpp:77] Creating layer conv2
I0906 13:22:21.414582 46507 net.cpp:115] Creating Layer conv2
I0906 13:22:21.414587 46507 net.cpp:516] conv2 <- norm1
I0906 13:22:21.414595 46507 net.cpp:490] conv2 -> conv2
I0906 13:22:21.425024 46507 net.cpp:153] Setting up conv2
I0906 13:22:21.425055 46507 net.cpp:160] Top shape: 50 256 27 27 (9331200)
I0906 13:22:21.425061 46507 net.cpp:168] Memory required for data: 212396400
I0906 13:22:21.425078 46507 layer_factory.hpp:77] Creating layer relu2
I0906 13:22:21.425091 46507 net.cpp:115] Creating Layer relu2
I0906 13:22:21.425098 46507 net.cpp:516] relu2 <- conv2
I0906 13:22:21.425108 46507 net.cpp:477] relu2 -> conv2 (in-place)
I0906 13:22:21.425122 46507 net.cpp:153] Setting up relu2
I0906 13:22:21.425128 46507 net.cpp:160] Top shape: 50 256 27 27 (9331200)
I0906 13:22:21.425133 46507 net.cpp:168] Memory required for data: 249721200
I0906 13:22:21.425138 46507 layer_factory.hpp:77] Creating layer pool2
I0906 13:22:21.425150 46507 net.cpp:115] Creating Layer pool2
I0906 13:22:21.425158 46507 net.cpp:516] pool2 <- conv2
I0906 13:22:21.425166 46507 net.cpp:490] pool2 -> pool2
I0906 13:22:21.425212 46507 net.cpp:153] Setting up pool2
I0906 13:22:21.425223 46507 net.cpp:160] Top shape: 50 256 13 13 (2163200)
I0906 13:22:21.425228 46507 net.cpp:168] Memory required for data: 258374000
I0906 13:22:21.425233 46507 layer_factory.hpp:77] Creating layer norm2
I0906 13:22:21.425248 46507 net.cpp:115] Creating Layer norm2
I0906 13:22:21.425256 46507 net.cpp:516] norm2 <- pool2
I0906 13:22:21.425264 46507 net.cpp:490] norm2 -> norm2
I0906 13:22:21.425300 46507 net.cpp:153] Setting up norm2
I0906 13:22:21.425309 46507 net.cpp:160] Top shape: 50 256 13 13 (2163200)
I0906 13:22:21.425314 46507 net.cpp:168] Memory required for data: 267026800
I0906 13:22:21.425320 46507 layer_factory.hpp:77] Creating layer conv3
I0906 13:22:21.425335 46507 net.cpp:115] Creating Layer conv3
I0906 13:22:21.425343 46507 net.cpp:516] conv3 <- norm2
I0906 13:22:21.425353 46507 net.cpp:490] conv3 -> conv3
I0906 13:22:21.452776 46507 net.cpp:153] Setting up conv3
I0906 13:22:21.452811 46507 net.cpp:160] Top shape: 50 384 13 13 (3244800)
I0906 13:22:21.452818 46507 net.cpp:168] Memory required for data: 280006000
I0906 13:22:21.452836 46507 layer_factory.hpp:77] Creating layer relu3
I0906 13:22:21.452852 46507 net.cpp:115] Creating Layer relu3
I0906 13:22:21.452860 46507 net.cpp:516] relu3 <- conv3
I0906 13:22:21.452870 46507 net.cpp:477] relu3 -> conv3 (in-place)
I0906 13:22:21.452883 46507 net.cpp:153] Setting up relu3
I0906 13:22:21.452893 46507 net.cpp:160] Top shape: 50 384 13 13 (3244800)
I0906 13:22:21.452898 46507 net.cpp:168] Memory required for data: 292985200
I0906 13:22:21.452903 46507 layer_factory.hpp:77] Creating layer conv4
I0906 13:22:21.452919 46507 net.cpp:115] Creating Layer conv4
I0906 13:22:21.452924 46507 net.cpp:516] conv4 <- conv3
I0906 13:22:21.452932 46507 net.cpp:490] conv4 -> conv4
I0906 13:22:21.473224 46507 net.cpp:153] Setting up conv4
I0906 13:22:21.473249 46507 net.cpp:160] Top shape: 50 384 13 13 (3244800)
I0906 13:22:21.473259 46507 net.cpp:168] Memory required for data: 305964400
I0906 13:22:21.473268 46507 layer_factory.hpp:77] Creating layer relu4
I0906 13:22:21.473278 46507 net.cpp:115] Creating Layer relu4
I0906 13:22:21.473282 46507 net.cpp:516] relu4 <- conv4
I0906 13:22:21.473316 46507 net.cpp:477] relu4 -> conv4 (in-place)
I0906 13:22:21.473330 46507 net.cpp:153] Setting up relu4
I0906 13:22:21.473337 46507 net.cpp:160] Top shape: 50 384 13 13 (3244800)
I0906 13:22:21.473342 46507 net.cpp:168] Memory required for data: 318943600
I0906 13:22:21.473347 46507 layer_factory.hpp:77] Creating layer conv5
I0906 13:22:21.473359 46507 net.cpp:115] Creating Layer conv5
I0906 13:22:21.473366 46507 net.cpp:516] conv5 <- conv4
I0906 13:22:21.473374 46507 net.cpp:490] conv5 -> conv5
I0906 13:22:21.487110 46507 net.cpp:153] Setting up conv5
I0906 13:22:21.487133 46507 net.cpp:160] Top shape: 50 256 13 13 (2163200)
I0906 13:22:21.487139 46507 net.cpp:168] Memory required for data: 327596400
I0906 13:22:21.487151 46507 layer_factory.hpp:77] Creating layer relu5
I0906 13:22:21.487160 46507 net.cpp:115] Creating Layer relu5
I0906 13:22:21.487165 46507 net.cpp:516] relu5 <- conv5
I0906 13:22:21.487172 46507 net.cpp:477] relu5 -> conv5 (in-place)
I0906 13:22:21.487181 46507 net.cpp:153] Setting up relu5
I0906 13:22:21.487187 46507 net.cpp:160] Top shape: 50 256 13 13 (2163200)
I0906 13:22:21.487192 46507 net.cpp:168] Memory required for data: 336249200
I0906 13:22:21.487197 46507 layer_factory.hpp:77] Creating layer pool5
I0906 13:22:21.487210 46507 net.cpp:115] Creating Layer pool5
I0906 13:22:21.487215 46507 net.cpp:516] pool5 <- conv5
I0906 13:22:21.487222 46507 net.cpp:490] pool5 -> pool5
I0906 13:22:21.487267 46507 net.cpp:153] Setting up pool5
I0906 13:22:21.487277 46507 net.cpp:160] Top shape: 50 256 6 6 (460800)
I0906 13:22:21.487282 46507 net.cpp:168] Memory required for data: 338092400
I0906 13:22:21.487288 46507 layer_factory.hpp:77] Creating layer fc6
I0906 13:22:21.487304 46507 net.cpp:115] Creating Layer fc6
I0906 13:22:21.487314 46507 net.cpp:516] fc6 <- pool5
I0906 13:22:21.487323 46507 net.cpp:490] fc6 -> fc6
I0906 13:22:23.137434 46507 net.cpp:153] Setting up fc6
I0906 13:22:23.137615 46507 net.cpp:160] Top shape: 50 4096 (204800)
I0906 13:22:23.137706 46507 net.cpp:168] Memory required for data: 338911600
I0906 13:22:23.137776 46507 layer_factory.hpp:77] Creating layer relu6
I0906 13:22:23.137836 46507 net.cpp:115] Creating Layer relu6
I0906 13:22:23.137863 46507 net.cpp:516] relu6 <- fc6
I0906 13:22:23.137897 46507 net.cpp:477] relu6 -> fc6 (in-place)
I0906 13:22:23.137935 46507 net.cpp:153] Setting up relu6
I0906 13:22:23.137958 46507 net.cpp:160] Top shape: 50 4096 (204800)
I0906 13:22:23.137977 46507 net.cpp:168] Memory required for data: 339730800
I0906 13:22:23.137994 46507 layer_factory.hpp:77] Creating layer drop6
I0906 13:22:23.138043 46507 net.cpp:115] Creating Layer drop6
I0906 13:22:23.138061 46507 net.cpp:516] drop6 <- fc6
I0906 13:22:23.138082 46507 net.cpp:477] drop6 -> fc6 (in-place)
I0906 13:22:23.138172 46507 net.cpp:153] Setting up drop6
I0906 13:22:23.138190 46507 net.cpp:160] Top shape: 50 4096 (204800)
I0906 13:22:23.138200 46507 net.cpp:168] Memory required for data: 340550000
I0906 13:22:23.138209 46507 layer_factory.hpp:77] Creating layer fc7
I0906 13:22:23.138231 46507 net.cpp:115] Creating Layer fc7
I0906 13:22:23.138242 46507 net.cpp:516] fc7 <- fc6
I0906 13:22:23.138257 46507 net.cpp:490] fc7 -> fc7
I0906 13:22:23.799829 46507 net.cpp:153] Setting up fc7
I0906 13:22:23.799877 46507 net.cpp:160] Top shape: 50 4096 (204800)
I0906 13:22:23.799890 46507 net.cpp:168] Memory required for data: 341369200
I0906 13:22:23.799903 46507 layer_factory.hpp:77] Creating layer relu7
I0906 13:22:23.799918 46507 net.cpp:115] Creating Layer relu7
I0906 13:22:23.799927 46507 net.cpp:516] relu7 <- fc7
I0906 13:22:23.799937 46507 net.cpp:477] relu7 -> fc7 (in-place)
I0906 13:22:23.799953 46507 net.cpp:153] Setting up relu7
I0906 13:22:23.799960 46507 net.cpp:160] Top shape: 50 4096 (204800)
I0906 13:22:23.799965 46507 net.cpp:168] Memory required for data: 342188400
I0906 13:22:23.799970 46507 layer_factory.hpp:77] Creating layer drop7
I0906 13:22:23.799980 46507 net.cpp:115] Creating Layer drop7
I0906 13:22:23.799985 46507 net.cpp:516] drop7 <- fc7
I0906 13:22:23.799993 46507 net.cpp:477] drop7 -> fc7 (in-place)
I0906 13:22:23.800053 46507 net.cpp:153] Setting up drop7
I0906 13:22:23.800066 46507 net.cpp:160] Top shape: 50 4096 (204800)
I0906 13:22:23.800071 46507 net.cpp:168] Memory required for data: 343007600
I0906 13:22:23.800076 46507 layer_factory.hpp:77] Creating layer fc8
I0906 13:22:23.800089 46507 net.cpp:115] Creating Layer fc8
I0906 13:22:23.800096 46507 net.cpp:516] fc8 <- fc7
I0906 13:22:23.800106 46507 net.cpp:490] fc8 -> fc8
I0906 13:22:23.924206 46507 net.cpp:153] Setting up fc8
I0906 13:22:23.924255 46507 net.cpp:160] Top shape: 50 1000 (50000)
I0906 13:22:23.924263 46507 net.cpp:168] Memory required for data: 343207600
I0906 13:22:23.924274 46507 layer_factory.hpp:77] Creating layer fc8_fc8_0_split
I0906 13:22:23.924288 46507 net.cpp:115] Creating Layer fc8_fc8_0_split
I0906 13:22:23.924296 46507 net.cpp:516] fc8_fc8_0_split <- fc8
I0906 13:22:23.924307 46507 net.cpp:490] fc8_fc8_0_split -> fc8_fc8_0_split_0
I0906 13:22:23.924321 46507 net.cpp:490] fc8_fc8_0_split -> fc8_fc8_0_split_1
I0906 13:22:23.924362 46507 net.cpp:153] Setting up fc8_fc8_0_split
I0906 13:22:23.924374 46507 net.cpp:160] Top shape: 50 1000 (50000)
I0906 13:22:23.924381 46507 net.cpp:160] Top shape: 50 1000 (50000)
I0906 13:22:23.924386 46507 net.cpp:168] Memory required for data: 343607600
I0906 13:22:23.924391 46507 layer_factory.hpp:77] Creating layer accuracy
I0906 13:22:23.924412 46507 net.cpp:115] Creating Layer accuracy
I0906 13:22:23.924418 46507 net.cpp:516] accuracy <- fc8_fc8_0_split_0
I0906 13:22:23.924425 46507 net.cpp:516] accuracy <- label_data_1_split_0
I0906 13:22:23.924433 46507 net.cpp:490] accuracy -> accuracy
…
