…
I0909 17:15:14.520406  7315 net.cpp:347] The NetState phase (1) differed from the phase (0) specified by a rule in layer data
I0909 17:15:14.520675  7315 net.cpp:82] Initializing net from parameters: 
name: "CaffeNet"
state {
  phase: TEST
  level: 0
  stage: ""
}
layer {
  name: "data"
  type: "Data"
  top: "data"
  top: "label"
  include {
    phase: TEST
  }
  transform_param {
    mirror: false
    crop_size: 227
    mean_file: "data/ilsvrc12/imagenet_mean.binaryproto"
  }
  data_param {
    source: "/mllib/imagenet/ilsvrc12/lmdb_resize/ilsvrc12_val_lmdb"
    batch_size: 50
    backend: LMDB
  }
}
layer {
  name: "conv1"
  type: "Convolution"
  bottom: "data"
  top: "conv1"
  param {
    lr_mult: 1
    decay_mult: 1
  }
  param {
    lr_mult: 2
    decay_mult: 0
  }
  convolution_param {
    num_output: 96
    kernel_size: 11
    stride: 4
    weight_filler {
      type: "gaussian"
      std: 0.01
    }
    bias_filler {
      type: "constant"
      value: 0
    }
  }
}
layer {
  name: "relu1"
  type: "ReLU"
  bottom: "conv1"
  top: "conv1"
}
layer {
  name: "pool1"
  type: "Pooling"
  bottom: "conv1"
  top: "pool1"
  pooling_param {
    pool: MAX
    kernel_size: 3
    stride: 2
  }
}
layer {
  name: "norm1"
  type: "LRNRistretto"
  bottom: "pool1"
  top: "norm1"
  lrn_param {
    local_size: 5
    alpha: 0.0001
    beta: 0.75
  }
  quantization_param {
    bw_layer_in: 8
    bw_layer_out: 8
    fl_layer_in: -5
    fl_layer_out: -1
  }
}
layer {
  name: "conv2"
  type: "Convolution"
  bottom: "norm1"
  top: "conv2"
  param {
    lr_mult: 1
    decay_mult: 1
  }
  param {
    lr_mult: 2
    decay_mult: 0
  }
  convolution_param {
    num_output: 256
    pad: 2
    kernel_size: 5
    group: 2
    weight_filler {
      type: "gaussian"
      std: 0.01
    }
    bias_filler {
      type: "constant"
      value: 1
    }
  }
}
layer {
  name: "relu2"
  type: "ReLU"
  bottom: "conv2"
  top: "conv2"
}
layer {
  name: "pool2"
  type: "Pooling"
  bottom: "conv2"
  top: "pool2"
  pooling_param {
    pool: MAX
    kernel_size: 3
    stride: 2
  }
}
layer {
  name: "norm2"
  type: "LRNRistretto"
  bottom: "pool2"
  top: "norm2"
  lrn_param {
    local_size: 5
    alpha: 0.0001
    beta: 0.75
  }
  quantization_param {
    bw_layer_in: 8
    bw_layer_out: 8
    fl_layer_in: -3
    fl_layer_out: -1
  }
}
layer {
  name: "conv3"
  type: "Convolution"
  bottom: "norm2"
  top: "conv3"
  param {
    lr_mult: 1
    decay_mult: 1
  }
  param {
    lr_mult: 2
    decay_mult: 0
  }
  convolution_param {
    num_output: 384
    pad: 1
    kernel_size: 3
    weight_filler {
      type: "gaussian"
      std: 0.01
    }
    bias_filler {
      type: "constant"
      value: 0
    }
  }
}
layer {
  name: "relu3"
  type: "ReLU"
  bottom: "conv3"
  top: "conv3"
}
layer {
  name: "conv4"
  type: "Convolution"
  bottom: "conv3"
  top: "conv4"
  param {
    lr_mult: 1
    decay_mult: 1
  }
  param {
    lr_mult: 2
    decay_mult: 0
  }
  convolution_param {
    num_output: 384
    pad: 1
    kernel_size: 3
    group: 2
    weight_filler {
      type: "gaussian"
      std: 0.01
    }
    bias_filler {
      type: "constant"
      value: 1
    }
  }
}
layer {
  name: "relu4"
  type: "ReLU"
  bottom: "conv4"
  top: "conv4"
}
layer {
  name: "conv5"
  type: "Convolution"
  bottom: "conv4"
  top: "conv5"
  param {
    lr_mult: 1
    decay_mult: 1
  }
  param {
    lr_mult: 2
    decay_mult: 0
  }
  convolution_param {
    num_output: 256
    pad: 1
    kernel_size: 3
    group: 2
    weight_filler {
      type: "gaussian"
      std: 0.01
    }
    bias_filler {
      type: "constant"
      value: 1
    }
  }
}
layer {
  name: "relu5"
  type: "ReLU"
  bottom: "conv5"
  top: "conv5"
}
layer {
  name: "pool5"
  type: "Pooling"
  bottom: "conv5"
  top: "pool5"
  pooling_param {
    pool: MAX
    kernel_size: 3
    stride: 2
  }
}
layer {
  name: "fc6"
  type: "InnerProduct"
  bottom: "pool5"
  top: "fc6"
  param {
    lr_mult: 1
    decay_mult: 1
  }
  param {
    lr_mult: 2
    decay_mult: 0
  }
  inner_product_param {
    num_output: 4096
    weight_filler {
      type: "gaussian"
      std: 0.005
    }
    bias_filler {
      type: "constant"
      value: 1
    }
  }
}
layer {
  name: "relu6"
  type: "ReLU"
  bottom: "fc6"
  top: "fc6"
}
layer {
  name: "drop6"
  type: "Dropout"
  bottom: "fc6"
  top: "fc6"
  dropout_param {
    dropout_ratio: 0.5
  }
}
layer {
  name: "fc7"
  type: "InnerProduct"
  bottom: "fc6"
  top: "fc7"
  param {
    lr_mult: 1
    decay_mult: 1
  }
  param {
    lr_mult: 2
    decay_mult: 0
  }
  inner_product_param {
    num_output: 4096
    weight_filler {
      type: "gaussian"
      std: 0.005
    }
    bias_filler {
      type: "constant"
      value: 1
    }
  }
}
layer {
  name: "relu7"
  type: "ReLU"
  bottom: "fc7"
  top: "fc7"
}
layer {
  name: "drop7"
  type: "Dropout"
  bottom: "fc7"
  top: "fc7"
  dropout_param {
    dropout_ratio: 0.5
  }
}
layer {
  name: "fc8"
  type: "InnerProduct"
  bottom: "fc7"
  top: "fc8"
  param {
    lr_mult: 1
    decay_mult: 1
  }
  param {
    lr_mult: 2
    decay_mult: 0
  }
  inner_product_param {
    num_output: 1000
    weight_filler {
      type: "gaussian"
      std: 0.01
    }
    bias_filler {
      type: "constant"
      value: 0
    }
  }
}
layer {
  name: "accuracy"
  type: "Accuracy"
  bottom: "fc8"
  bottom: "label"
  top: "accuracy"
  include {
    phase: TEST
  }
}
layer {
  name: "loss"
  type: "SoftmaxWithLoss"
  bottom: "fc8"
  bottom: "label"
  top: "loss"
}
I0909 17:15:14.520898  7315 layer_factory.hpp:77] Creating layer data
I0909 17:15:14.521031  7315 db_lmdb.cpp:35] Opened lmdb /mllib/imagenet/ilsvrc12/lmdb_resize/ilsvrc12_val_lmdb
I0909 17:15:14.521072  7315 net.cpp:115] Creating Layer data
I0909 17:15:14.521090  7315 net.cpp:490] data -> data
I0909 17:15:14.521126  7315 net.cpp:490] data -> label
I0909 17:15:14.521152  7315 data_transformer.cpp:25] Loading mean file from: data/ilsvrc12/imagenet_mean.binaryproto
I0909 17:15:14.553236  7315 data_layer.cpp:45] output data size: 50,3,227,227
I0909 17:15:14.683037  7315 net.cpp:153] Setting up data
I0909 17:15:14.683245  7315 net.cpp:160] Top shape: 50 3 227 227 (7729350)
I0909 17:15:14.683293  7315 net.cpp:160] Top shape: 50 (50)
I0909 17:15:14.683336  7315 net.cpp:168] Memory required for data: 30917600
I0909 17:15:14.683398  7315 layer_factory.hpp:77] Creating layer label_data_1_split
I0909 17:15:14.683511  7315 net.cpp:115] Creating Layer label_data_1_split
I0909 17:15:14.683617  7315 net.cpp:516] label_data_1_split <- label
I0909 17:15:14.683688  7315 net.cpp:490] label_data_1_split -> label_data_1_split_0
I0909 17:15:14.683748  7315 net.cpp:490] label_data_1_split -> label_data_1_split_1
I0909 17:15:14.683923  7315 net.cpp:153] Setting up label_data_1_split
I0909 17:15:14.683984  7315 net.cpp:160] Top shape: 50 (50)
I0909 17:15:14.684031  7315 net.cpp:160] Top shape: 50 (50)
I0909 17:15:14.684077  7315 net.cpp:168] Memory required for data: 30918000
I0909 17:15:14.684118  7315 layer_factory.hpp:77] Creating layer conv1
I0909 17:15:14.684195  7315 net.cpp:115] Creating Layer conv1
I0909 17:15:14.684237  7315 net.cpp:516] conv1 <- data
I0909 17:15:14.684281  7315 net.cpp:490] conv1 -> conv1
I0909 17:15:14.697163  7315 net.cpp:153] Setting up conv1
I0909 17:15:14.697427  7315 net.cpp:160] Top shape: 50 96 55 55 (14520000)
I0909 17:15:14.697569  7315 net.cpp:168] Memory required for data: 88998000
I0909 17:15:14.697753  7315 layer_factory.hpp:77] Creating layer relu1
I0909 17:15:14.697815  7315 net.cpp:115] Creating Layer relu1
I0909 17:15:14.697865  7315 net.cpp:516] relu1 <- conv1
I0909 17:15:14.697919  7315 net.cpp:477] relu1 -> conv1 (in-place)
I0909 17:15:14.697958  7315 net.cpp:153] Setting up relu1
I0909 17:15:14.697973  7315 net.cpp:160] Top shape: 50 96 55 55 (14520000)
I0909 17:15:14.697983  7315 net.cpp:168] Memory required for data: 147078000
I0909 17:15:14.697993  7315 layer_factory.hpp:77] Creating layer pool1
I0909 17:15:14.698017  7315 net.cpp:115] Creating Layer pool1
I0909 17:15:14.698029  7315 net.cpp:516] pool1 <- conv1
I0909 17:15:14.698041  7315 net.cpp:490] pool1 -> pool1
I0909 17:15:14.698243  7315 net.cpp:153] Setting up pool1
I0909 17:15:14.698264  7315 net.cpp:160] Top shape: 50 96 27 27 (3499200)
I0909 17:15:14.698272  7315 net.cpp:168] Memory required for data: 161074800
I0909 17:15:14.698279  7315 layer_factory.hpp:77] Creating layer norm1
I0909 17:15:14.698385  7315 net.cpp:115] Creating Layer norm1
I0909 17:15:14.698503  7315 net.cpp:516] norm1 <- pool1
I0909 17:15:14.698546  7315 net.cpp:490] norm1 -> norm1
I0909 17:15:14.698644  7315 net.cpp:153] Setting up norm1
I0909 17:15:14.698683  7315 net.cpp:160] Top shape: 50 96 27 27 (3499200)
I0909 17:15:14.698705  7315 net.cpp:168] Memory required for data: 175071600
I0909 17:15:14.698722  7315 layer_factory.hpp:77] Creating layer conv2
I0909 17:15:14.698760  7315 net.cpp:115] Creating Layer conv2
I0909 17:15:14.698778  7315 net.cpp:516] conv2 <- norm1
I0909 17:15:14.698802  7315 net.cpp:490] conv2 -> conv2
I0909 17:15:14.715292  7315 net.cpp:153] Setting up conv2
I0909 17:15:14.715397  7315 net.cpp:160] Top shape: 50 256 27 27 (9331200)
I0909 17:15:14.715420  7315 net.cpp:168] Memory required for data: 212396400
I0909 17:15:14.715459  7315 layer_factory.hpp:77] Creating layer relu2
I0909 17:15:14.715492  7315 net.cpp:115] Creating Layer relu2
I0909 17:15:14.715577  7315 net.cpp:516] relu2 <- conv2
I0909 17:15:14.715657  7315 net.cpp:477] relu2 -> conv2 (in-place)
I0909 17:15:14.715759  7315 net.cpp:153] Setting up relu2
I0909 17:15:14.715816  7315 net.cpp:160] Top shape: 50 256 27 27 (9331200)
I0909 17:15:14.715893  7315 net.cpp:168] Memory required for data: 249721200
I0909 17:15:14.715934  7315 layer_factory.hpp:77] Creating layer pool2
I0909 17:15:14.715981  7315 net.cpp:115] Creating Layer pool2
I0909 17:15:14.716001  7315 net.cpp:516] pool2 <- conv2
I0909 17:15:14.716015  7315 net.cpp:490] pool2 -> pool2
I0909 17:15:14.716150  7315 net.cpp:153] Setting up pool2
I0909 17:15:14.716195  7315 net.cpp:160] Top shape: 50 256 13 13 (2163200)
I0909 17:15:14.716209  7315 net.cpp:168] Memory required for data: 258374000
I0909 17:15:14.716219  7315 layer_factory.hpp:77] Creating layer norm2
I0909 17:15:14.716243  7315 net.cpp:115] Creating Layer norm2
I0909 17:15:14.716259  7315 net.cpp:516] norm2 <- pool2
I0909 17:15:14.716274  7315 net.cpp:490] norm2 -> norm2
I0909 17:15:14.716361  7315 net.cpp:153] Setting up norm2
I0909 17:15:14.716395  7315 net.cpp:160] Top shape: 50 256 13 13 (2163200)
I0909 17:15:14.716406  7315 net.cpp:168] Memory required for data: 267026800
I0909 17:15:14.716418  7315 layer_factory.hpp:77] Creating layer conv3
I0909 17:15:14.716444  7315 net.cpp:115] Creating Layer conv3
I0909 17:15:14.716457  7315 net.cpp:516] conv3 <- norm2
I0909 17:15:14.716480  7315 net.cpp:490] conv3 -> conv3
I0909 17:15:14.758877  7315 net.cpp:153] Setting up conv3
I0909 17:15:14.759102  7315 net.cpp:160] Top shape: 50 384 13 13 (3244800)
I0909 17:15:14.759162  7315 net.cpp:168] Memory required for data: 280006000
I0909 17:15:14.759248  7315 layer_factory.hpp:77] Creating layer relu3
I0909 17:15:14.759305  7315 net.cpp:115] Creating Layer relu3
I0909 17:15:14.759347  7315 net.cpp:516] relu3 <- conv3
I0909 17:15:14.759397  7315 net.cpp:477] relu3 -> conv3 (in-place)
I0909 17:15:14.759451  7315 net.cpp:153] Setting up relu3
I0909 17:15:14.759506  7315 net.cpp:160] Top shape: 50 384 13 13 (3244800)
I0909 17:15:14.759567  7315 net.cpp:168] Memory required for data: 292985200
I0909 17:15:14.759620  7315 layer_factory.hpp:77] Creating layer conv4
I0909 17:15:14.759701  7315 net.cpp:115] Creating Layer conv4
I0909 17:15:14.759771  7315 net.cpp:516] conv4 <- conv3
I0909 17:15:14.759853  7315 net.cpp:490] conv4 -> conv4
I0909 17:15:14.793344  7315 net.cpp:153] Setting up conv4
I0909 17:15:14.793553  7315 net.cpp:160] Top shape: 50 384 13 13 (3244800)
I0909 17:15:14.793606  7315 net.cpp:168] Memory required for data: 305964400
I0909 17:15:14.793655  7315 layer_factory.hpp:77] Creating layer relu4
I0909 17:15:14.793709  7315 net.cpp:115] Creating Layer relu4
I0909 17:15:14.793824  7315 net.cpp:516] relu4 <- conv4
I0909 17:15:14.794023  7315 net.cpp:477] relu4 -> conv4 (in-place)
I0909 17:15:14.794116  7315 net.cpp:153] Setting up relu4
I0909 17:15:14.794188  7315 net.cpp:160] Top shape: 50 384 13 13 (3244800)
I0909 17:15:14.794255  7315 net.cpp:168] Memory required for data: 318943600
I0909 17:15:14.794323  7315 layer_factory.hpp:77] Creating layer conv5
I0909 17:15:14.794445  7315 net.cpp:115] Creating Layer conv5
I0909 17:15:14.794509  7315 net.cpp:516] conv5 <- conv4
I0909 17:15:14.794559  7315 net.cpp:490] conv5 -> conv5
I0909 17:15:14.810956  7315 net.cpp:153] Setting up conv5
I0909 17:15:14.811044  7315 net.cpp:160] Top shape: 50 256 13 13 (2163200)
I0909 17:15:14.811055  7315 net.cpp:168] Memory required for data: 327596400
I0909 17:15:14.811085  7315 layer_factory.hpp:77] Creating layer relu5
I0909 17:15:14.811110  7315 net.cpp:115] Creating Layer relu5
I0909 17:15:14.811158  7315 net.cpp:516] relu5 <- conv5
I0909 17:15:14.811179  7315 net.cpp:477] relu5 -> conv5 (in-place)
I0909 17:15:14.811233  7315 net.cpp:153] Setting up relu5
I0909 17:15:14.811249  7315 net.cpp:160] Top shape: 50 256 13 13 (2163200)
I0909 17:15:14.811259  7315 net.cpp:168] Memory required for data: 336249200
I0909 17:15:14.811269  7315 layer_factory.hpp:77] Creating layer pool5
I0909 17:15:14.811312  7315 net.cpp:115] Creating Layer pool5
I0909 17:15:14.811331  7315 net.cpp:516] pool5 <- conv5
I0909 17:15:14.811358  7315 net.cpp:490] pool5 -> pool5
I0909 17:15:14.811458  7315 net.cpp:153] Setting up pool5
I0909 17:15:14.811476  7315 net.cpp:160] Top shape: 50 256 6 6 (460800)
I0909 17:15:14.811486  7315 net.cpp:168] Memory required for data: 338092400
I0909 17:15:14.811522  7315 layer_factory.hpp:77] Creating layer fc6
I0909 17:15:14.811556  7315 net.cpp:115] Creating Layer fc6
I0909 17:15:14.811569  7315 net.cpp:516] fc6 <- pool5
I0909 17:15:14.811585  7315 net.cpp:490] fc6 -> fc6
I0909 17:15:16.188041  7315 net.cpp:153] Setting up fc6
I0909 17:15:16.188159  7315 net.cpp:160] Top shape: 50 4096 (204800)
I0909 17:15:16.188184  7315 net.cpp:168] Memory required for data: 338911600
I0909 17:15:16.188225  7315 layer_factory.hpp:77] Creating layer relu6
I0909 17:15:16.188264  7315 net.cpp:115] Creating Layer relu6
I0909 17:15:16.188299  7315 net.cpp:516] relu6 <- fc6
I0909 17:15:16.188330  7315 net.cpp:477] relu6 -> fc6 (in-place)
I0909 17:15:16.188380  7315 net.cpp:153] Setting up relu6
I0909 17:15:16.188395  7315 net.cpp:160] Top shape: 50 4096 (204800)
I0909 17:15:16.188402  7315 net.cpp:168] Memory required for data: 339730800
I0909 17:15:16.188410  7315 layer_factory.hpp:77] Creating layer drop6
I0909 17:15:16.188446  7315 net.cpp:115] Creating Layer drop6
I0909 17:15:16.188459  7315 net.cpp:516] drop6 <- fc6
I0909 17:15:16.188472  7315 net.cpp:477] drop6 -> fc6 (in-place)
I0909 17:15:16.188540  7315 net.cpp:153] Setting up drop6
I0909 17:15:16.188565  7315 net.cpp:160] Top shape: 50 4096 (204800)
I0909 17:15:16.188572  7315 net.cpp:168] Memory required for data: 340550000
I0909 17:15:16.188580  7315 layer_factory.hpp:77] Creating layer fc7
I0909 17:15:16.188601  7315 net.cpp:115] Creating Layer fc7
I0909 17:15:16.188608  7315 net.cpp:516] fc7 <- fc6
I0909 17:15:16.188622  7315 net.cpp:490] fc7 -> fc7
I0909 17:15:16.740959  7315 net.cpp:153] Setting up fc7
I0909 17:15:16.741008  7315 net.cpp:160] Top shape: 50 4096 (204800)
I0909 17:15:16.741014  7315 net.cpp:168] Memory required for data: 341369200
I0909 17:15:16.741027  7315 layer_factory.hpp:77] Creating layer relu7
I0909 17:15:16.741042  7315 net.cpp:115] Creating Layer relu7
I0909 17:15:16.741053  7315 net.cpp:516] relu7 <- fc7
I0909 17:15:16.741063  7315 net.cpp:477] relu7 -> fc7 (in-place)
I0909 17:15:16.741076  7315 net.cpp:153] Setting up relu7
I0909 17:15:16.741083  7315 net.cpp:160] Top shape: 50 4096 (204800)
I0909 17:15:16.741088  7315 net.cpp:168] Memory required for data: 342188400
I0909 17:15:16.741092  7315 layer_factory.hpp:77] Creating layer drop7
I0909 17:15:16.741103  7315 net.cpp:115] Creating Layer drop7
I0909 17:15:16.741109  7315 net.cpp:516] drop7 <- fc7
I0909 17:15:16.741116  7315 net.cpp:477] drop7 -> fc7 (in-place)
I0909 17:15:16.741173  7315 net.cpp:153] Setting up drop7
I0909 17:15:16.741184  7315 net.cpp:160] Top shape: 50 4096 (204800)
I0909 17:15:16.741190  7315 net.cpp:168] Memory required for data: 343007600
I0909 17:15:16.741195  7315 layer_factory.hpp:77] Creating layer fc8
I0909 17:15:16.741207  7315 net.cpp:115] Creating Layer fc8
I0909 17:15:16.741212  7315 net.cpp:516] fc8 <- fc7
I0909 17:15:16.741220  7315 net.cpp:490] fc8 -> fc8
I0909 17:15:16.889267  7315 net.cpp:153] Setting up fc8
I0909 17:15:16.889336  7315 net.cpp:160] Top shape: 50 1000 (50000)
I0909 17:15:16.889343  7315 net.cpp:168] Memory required for data: 343207600
I0909 17:15:16.889358  7315 layer_factory.hpp:77] Creating layer fc8_fc8_0_split
I0909 17:15:16.889371  7315 net.cpp:115] Creating Layer fc8_fc8_0_split
I0909 17:15:16.889408  7315 net.cpp:516] fc8_fc8_0_split <- fc8
I0909 17:15:16.889420  7315 net.cpp:490] fc8_fc8_0_split -> fc8_fc8_0_split_0
I0909 17:15:16.889433  7315 net.cpp:490] fc8_fc8_0_split -> fc8_fc8_0_split_1
I0909 17:15:16.889526  7315 net.cpp:153] Setting up fc8_fc8_0_split
I0909 17:15:16.889550  7315 net.cpp:160] Top shape: 50 1000 (50000)
I0909 17:15:16.889556  7315 net.cpp:160] Top shape: 50 1000 (50000)
I0909 17:15:16.889561  7315 net.cpp:168] Memory required for data: 343607600
I0909 17:15:16.889567  7315 layer_factory.hpp:77] Creating layer accuracy
I0909 17:15:16.889586  7315 net.cpp:115] Creating Layer accuracy
I0909 17:15:16.889595  7315 net.cpp:516] accuracy <- fc8_fc8_0_split_0
I0909 17:15:16.889601  7315 net.cpp:516] accuracy <- label_data_1_split_0
I0909 17:15:16.889609  7315 net.cpp:490] accuracy -> accuracy
…
