…
I0909 16:10:19.891468 57261 net.cpp:347] The NetState phase (1) differed from the phase (0) specified by a rule in layer data
I0909 16:10:19.891733 57261 net.cpp:82] Initializing net from parameters: 
name: "AlexNet"
state {
  phase: TEST
  level: 0
  stage: ""
}
layer {
  name: "data"
  type: "Data"
  top: "data"
  top: "label"
  include {
    phase: TEST
  }
  transform_param {
    mirror: false
    crop_size: 227
    mean_file: "data/ilsvrc12/imagenet_mean.binaryproto"
  }
  data_param {
    source: "/mllib/imagenet/ilsvrc12/lmdb_resize/ilsvrc12_val_lmdb"
    batch_size: 50
    backend: LMDB
  }
}
layer {
  name: "conv1"
  type: "Convolution"
  bottom: "data"
  top: "conv1"
  param {
    lr_mult: 1
    decay_mult: 1
  }
  param {
    lr_mult: 2
    decay_mult: 0
  }
  convolution_param {
    num_output: 96
    kernel_size: 11
    stride: 4
    weight_filler {
      type: "gaussian"
      std: 0.01
    }
    bias_filler {
      type: "constant"
      value: 0
    }
  }
}
layer {
  name: "relu1"
  type: "ReLU"
  bottom: "conv1"
  top: "conv1"
}
layer {
  name: "norm1"
  type: "LRNRistretto"
  bottom: "conv1"
  top: "norm1"
  lrn_param {
    local_size: 5
    alpha: 0.0001
    beta: 0.75
  }
  quantization_param {
    bw_layer_in: 8
    bw_layer_out: 8
    fl_layer_in: -5
    fl_layer_out: -1
  }
}
layer {
  name: "pool1"
  type: "Pooling"
  bottom: "norm1"
  top: "pool1"
  pooling_param {
    pool: MAX
    kernel_size: 3
    stride: 2
  }
}
layer {
  name: "conv2"
  type: "Convolution"
  bottom: "pool1"
  top: "conv2"
  param {
    lr_mult: 1
    decay_mult: 1
  }
  param {
    lr_mult: 2
    decay_mult: 0
  }
  convolution_param {
    num_output: 256
    pad: 2
    kernel_size: 5
    group: 2
    weight_filler {
      type: "gaussian"
      std: 0.01
    }
    bias_filler {
      type: "constant"
      value: 0.1
    }
  }
}
layer {
  name: "relu2"
  type: "ReLU"
  bottom: "conv2"
  top: "conv2"
}
layer {
  name: "norm2"
  type: "LRNRistretto"
  bottom: "conv2"
  top: "norm2"
  lrn_param {
    local_size: 5
    alpha: 0.0001
    beta: 0.75
  }
  quantization_param {
    bw_layer_in: 8
    bw_layer_out: 8
    fl_layer_in: -3
    fl_layer_out: -1
  }
}
layer {
  name: "pool2"
  type: "Pooling"
  bottom: "norm2"
  top: "pool2"
  pooling_param {
    pool: MAX
    kernel_size: 3
    stride: 2
  }
}
layer {
  name: "conv3"
  type: "Convolution"
  bottom: "pool2"
  top: "conv3"
  param {
    lr_mult: 1
    decay_mult: 1
  }
  param {
    lr_mult: 2
    decay_mult: 0
  }
  convolution_param {
    num_output: 384
    pad: 1
    kernel_size: 3
    weight_filler {
      type: "gaussian"
      std: 0.01
    }
    bias_filler {
      type: "constant"
      value: 0
    }
  }
}
layer {
  name: "relu3"
  type: "ReLU"
  bottom: "conv3"
  top: "conv3"
}
layer {
  name: "conv4"
  type: "Convolution"
  bottom: "conv3"
  top: "conv4"
  param {
    lr_mult: 1
    decay_mult: 1
  }
  param {
    lr_mult: 2
    decay_mult: 0
  }
  convolution_param {
    num_output: 384
    pad: 1
    kernel_size: 3
    group: 2
    weight_filler {
      type: "gaussian"
      std: 0.01
    }
    bias_filler {
      type: "constant"
      value: 0.1
    }
  }
}
layer {
  name: "relu4"
  type: "ReLU"
  bottom: "conv4"
  top: "conv4"
}
layer {
  name: "conv5"
  type: "Convolution"
  bottom: "conv4"
  top: "conv5"
  param {
    lr_mult: 1
    decay_mult: 1
  }
  param {
    lr_mult: 2
    decay_mult: 0
  }
  convolution_param {
    num_output: 256
    pad: 1
    kernel_size: 3
    group: 2
    weight_filler {
      type: "gaussian"
      std: 0.01
    }
    bias_filler {
      type: "constant"
      value: 0.1
    }
  }
}
layer {
  name: "relu5"
  type: "ReLU"
  bottom: "conv5"
  top: "conv5"
}
layer {
  name: "pool5"
  type: "Pooling"
  bottom: "conv5"
  top: "pool5"
  pooling_param {
    pool: MAX
    kernel_size: 3
    stride: 2
  }
}
layer {
  name: "fc6"
  type: "InnerProduct"
  bottom: "pool5"
  top: "fc6"
  param {
    lr_mult: 1
    decay_mult: 1
  }
  param {
    lr_mult: 2
    decay_mult: 0
  }
  inner_product_param {
    num_output: 4096
    weight_filler {
      type: "gaussian"
      std: 0.005
    }
    bias_filler {
      type: "constant"
      value: 0.1
    }
  }
}
layer {
  name: "relu6"
  type: "ReLU"
  bottom: "fc6"
  top: "fc6"
}
layer {
  name: "drop6"
  type: "Dropout"
  bottom: "fc6"
  top: "fc6"
  dropout_param {
    dropout_ratio: 0.5
  }
}
layer {
  name: "fc7"
  type: "InnerProduct"
  bottom: "fc6"
  top: "fc7"
  param {
    lr_mult: 1
    decay_mult: 1
  }
  param {
    lr_mult: 2
    decay_mult: 0
  }
  inner_product_param {
    num_output: 4096
    weight_filler {
      type: "gaussian"
      std: 0.005
    }
    bias_filler {
      type: "constant"
      value: 0.1
    }
  }
}
layer {
  name: "relu7"
  type: "ReLU"
  bottom: "fc7"
  top: "fc7"
}
layer {
  name: "drop7"
  type: "Dropout"
  bottom: "fc7"
  top: "fc7"
  dropout_param {
    dropout_ratio: 0.5
  }
}
layer {
  name: "fc8"
  type: "InnerProduct"
  bottom: "fc7"
  top: "fc8"
  param {
    lr_mult: 1
    decay_mult: 1
  }
  param {
    lr_mult: 2
    decay_mult: 0
  }
  inner_product_param {
    num_output: 1000
    weight_filler {
      type: "gaussian"
      std: 0.01
    }
    bias_filler {
      type: "constant"
      value: 0
    }
  }
}
layer {
  name: "accuracy"
  type: "Accuracy"
  bottom: "fc8"
  bottom: "label"
  top: "accuracy"
  include {
    phase: TEST
  }
}
layer {
  name: "loss"
  type: "SoftmaxWithLoss"
  bottom: "fc8"
  bottom: "label"
  top: "loss"
}
I0909 16:10:19.891911 57261 layer_factory.hpp:77] Creating layer data
I0909 16:10:19.892043 57261 db_lmdb.cpp:35] Opened lmdb /mllib/imagenet/ilsvrc12/lmdb_resize/ilsvrc12_val_lmdb
I0909 16:10:19.892083 57261 net.cpp:115] Creating Layer data
I0909 16:10:19.892099 57261 net.cpp:490] data -> data
I0909 16:10:19.892133 57261 net.cpp:490] data -> label
I0909 16:10:19.892160 57261 data_transformer.cpp:25] Loading mean file from: data/ilsvrc12/imagenet_mean.binaryproto
I0909 16:10:19.921771 57261 data_layer.cpp:45] output data size: 50,3,227,227
I0909 16:10:20.016669 57261 net.cpp:153] Setting up data
I0909 16:10:20.016716 57261 net.cpp:160] Top shape: 50 3 227 227 (7729350)
I0909 16:10:20.016726 57261 net.cpp:160] Top shape: 50 (50)
I0909 16:10:20.016731 57261 net.cpp:168] Memory required for data: 30917600
I0909 16:10:20.016744 57261 layer_factory.hpp:77] Creating layer label_data_1_split
I0909 16:10:20.016763 57261 net.cpp:115] Creating Layer label_data_1_split
I0909 16:10:20.016775 57261 net.cpp:516] label_data_1_split <- label
I0909 16:10:20.016811 57261 net.cpp:490] label_data_1_split -> label_data_1_split_0
I0909 16:10:20.016829 57261 net.cpp:490] label_data_1_split -> label_data_1_split_1
I0909 16:10:20.016881 57261 net.cpp:153] Setting up label_data_1_split
I0909 16:10:20.016894 57261 net.cpp:160] Top shape: 50 (50)
I0909 16:10:20.016901 57261 net.cpp:160] Top shape: 50 (50)
I0909 16:10:20.016906 57261 net.cpp:168] Memory required for data: 30918000
I0909 16:10:20.016911 57261 layer_factory.hpp:77] Creating layer conv1
I0909 16:10:20.016937 57261 net.cpp:115] Creating Layer conv1
I0909 16:10:20.016943 57261 net.cpp:516] conv1 <- data
I0909 16:10:20.016952 57261 net.cpp:490] conv1 -> conv1
I0909 16:10:20.024637 57261 net.cpp:153] Setting up conv1
I0909 16:10:20.024667 57261 net.cpp:160] Top shape: 50 96 55 55 (14520000)
I0909 16:10:20.024673 57261 net.cpp:168] Memory required for data: 88998000
I0909 16:10:20.024698 57261 layer_factory.hpp:77] Creating layer relu1
I0909 16:10:20.024713 57261 net.cpp:115] Creating Layer relu1
I0909 16:10:20.024719 57261 net.cpp:516] relu1 <- conv1
I0909 16:10:20.024729 57261 net.cpp:477] relu1 -> conv1 (in-place)
I0909 16:10:20.024740 57261 net.cpp:153] Setting up relu1
I0909 16:10:20.024749 57261 net.cpp:160] Top shape: 50 96 55 55 (14520000)
I0909 16:10:20.024754 57261 net.cpp:168] Memory required for data: 147078000
I0909 16:10:20.024758 57261 layer_factory.hpp:77] Creating layer norm1
I0909 16:10:20.024785 57261 net.cpp:115] Creating Layer norm1
I0909 16:10:20.024811 57261 net.cpp:516] norm1 <- conv1
I0909 16:10:20.024821 57261 net.cpp:490] norm1 -> norm1
I0909 16:10:20.024900 57261 net.cpp:153] Setting up norm1
I0909 16:10:20.024914 57261 net.cpp:160] Top shape: 50 96 55 55 (14520000)
I0909 16:10:20.024920 57261 net.cpp:168] Memory required for data: 205158000
I0909 16:10:20.024925 57261 layer_factory.hpp:77] Creating layer pool1
I0909 16:10:20.024935 57261 net.cpp:115] Creating Layer pool1
I0909 16:10:20.024941 57261 net.cpp:516] pool1 <- norm1
I0909 16:10:20.024950 57261 net.cpp:490] pool1 -> pool1
I0909 16:10:20.025002 57261 net.cpp:153] Setting up pool1
I0909 16:10:20.025013 57261 net.cpp:160] Top shape: 50 96 27 27 (3499200)
I0909 16:10:20.025019 57261 net.cpp:168] Memory required for data: 219154800
I0909 16:10:20.025024 57261 layer_factory.hpp:77] Creating layer conv2
I0909 16:10:20.025038 57261 net.cpp:115] Creating Layer conv2
I0909 16:10:20.025044 57261 net.cpp:516] conv2 <- pool1
I0909 16:10:20.025053 57261 net.cpp:490] conv2 -> conv2
I0909 16:10:20.035822 57261 net.cpp:153] Setting up conv2
I0909 16:10:20.035857 57261 net.cpp:160] Top shape: 50 256 27 27 (9331200)
I0909 16:10:20.035864 57261 net.cpp:168] Memory required for data: 256479600
I0909 16:10:20.035882 57261 layer_factory.hpp:77] Creating layer relu2
I0909 16:10:20.035897 57261 net.cpp:115] Creating Layer relu2
I0909 16:10:20.035905 57261 net.cpp:516] relu2 <- conv2
I0909 16:10:20.035915 57261 net.cpp:477] relu2 -> conv2 (in-place)
I0909 16:10:20.035929 57261 net.cpp:153] Setting up relu2
I0909 16:10:20.035936 57261 net.cpp:160] Top shape: 50 256 27 27 (9331200)
I0909 16:10:20.035941 57261 net.cpp:168] Memory required for data: 293804400
I0909 16:10:20.035946 57261 layer_factory.hpp:77] Creating layer norm2
I0909 16:10:20.035964 57261 net.cpp:115] Creating Layer norm2
I0909 16:10:20.035971 57261 net.cpp:516] norm2 <- conv2
I0909 16:10:20.035980 57261 net.cpp:490] norm2 -> norm2
I0909 16:10:20.036027 57261 net.cpp:153] Setting up norm2
I0909 16:10:20.036041 57261 net.cpp:160] Top shape: 50 256 27 27 (9331200)
I0909 16:10:20.036047 57261 net.cpp:168] Memory required for data: 331129200
I0909 16:10:20.036053 57261 layer_factory.hpp:77] Creating layer pool2
I0909 16:10:20.036065 57261 net.cpp:115] Creating Layer pool2
I0909 16:10:20.036072 57261 net.cpp:516] pool2 <- norm2
I0909 16:10:20.036079 57261 net.cpp:490] pool2 -> pool2
I0909 16:10:20.036119 57261 net.cpp:153] Setting up pool2
I0909 16:10:20.036129 57261 net.cpp:160] Top shape: 50 256 13 13 (2163200)
I0909 16:10:20.036134 57261 net.cpp:168] Memory required for data: 339782000
I0909 16:10:20.036140 57261 layer_factory.hpp:77] Creating layer conv3
I0909 16:10:20.036156 57261 net.cpp:115] Creating Layer conv3
I0909 16:10:20.036164 57261 net.cpp:516] conv3 <- pool2
I0909 16:10:20.036173 57261 net.cpp:490] conv3 -> conv3
I0909 16:10:20.064800 57261 net.cpp:153] Setting up conv3
I0909 16:10:20.064834 57261 net.cpp:160] Top shape: 50 384 13 13 (3244800)
I0909 16:10:20.064841 57261 net.cpp:168] Memory required for data: 352761200
I0909 16:10:20.064857 57261 layer_factory.hpp:77] Creating layer relu3
I0909 16:10:20.064872 57261 net.cpp:115] Creating Layer relu3
I0909 16:10:20.064879 57261 net.cpp:516] relu3 <- conv3
I0909 16:10:20.064889 57261 net.cpp:477] relu3 -> conv3 (in-place)
I0909 16:10:20.064901 57261 net.cpp:153] Setting up relu3
I0909 16:10:20.064908 57261 net.cpp:160] Top shape: 50 384 13 13 (3244800)
I0909 16:10:20.064913 57261 net.cpp:168] Memory required for data: 365740400
I0909 16:10:20.064918 57261 layer_factory.hpp:77] Creating layer conv4
I0909 16:10:20.064934 57261 net.cpp:115] Creating Layer conv4
I0909 16:10:20.064941 57261 net.cpp:516] conv4 <- conv3
I0909 16:10:20.064951 57261 net.cpp:490] conv4 -> conv4
I0909 16:10:20.086233 57261 net.cpp:153] Setting up conv4
I0909 16:10:20.086274 57261 net.cpp:160] Top shape: 50 384 13 13 (3244800)
I0909 16:10:20.086282 57261 net.cpp:168] Memory required for data: 378719600
I0909 16:10:20.086293 57261 layer_factory.hpp:77] Creating layer relu4
I0909 16:10:20.086308 57261 net.cpp:115] Creating Layer relu4
I0909 16:10:20.086318 57261 net.cpp:516] relu4 <- conv4
I0909 16:10:20.086369 57261 net.cpp:477] relu4 -> conv4 (in-place)
I0909 16:10:20.086387 57261 net.cpp:153] Setting up relu4
I0909 16:10:20.086395 57261 net.cpp:160] Top shape: 50 384 13 13 (3244800)
I0909 16:10:20.086400 57261 net.cpp:168] Memory required for data: 391698800
I0909 16:10:20.086405 57261 layer_factory.hpp:77] Creating layer conv5
I0909 16:10:20.086423 57261 net.cpp:115] Creating Layer conv5
I0909 16:10:20.086431 57261 net.cpp:516] conv5 <- conv4
I0909 16:10:20.086439 57261 net.cpp:490] conv5 -> conv5
I0909 16:10:20.104544 57261 net.cpp:153] Setting up conv5
I0909 16:10:20.104578 57261 net.cpp:160] Top shape: 50 256 13 13 (2163200)
I0909 16:10:20.104584 57261 net.cpp:168] Memory required for data: 400351600
I0909 16:10:20.104602 57261 layer_factory.hpp:77] Creating layer relu5
I0909 16:10:20.104617 57261 net.cpp:115] Creating Layer relu5
I0909 16:10:20.104624 57261 net.cpp:516] relu5 <- conv5
I0909 16:10:20.104635 57261 net.cpp:477] relu5 -> conv5 (in-place)
I0909 16:10:20.104648 57261 net.cpp:153] Setting up relu5
I0909 16:10:20.104655 57261 net.cpp:160] Top shape: 50 256 13 13 (2163200)
I0909 16:10:20.104660 57261 net.cpp:168] Memory required for data: 409004400
I0909 16:10:20.104665 57261 layer_factory.hpp:77] Creating layer pool5
I0909 16:10:20.104677 57261 net.cpp:115] Creating Layer pool5
I0909 16:10:20.104686 57261 net.cpp:516] pool5 <- conv5
I0909 16:10:20.104696 57261 net.cpp:490] pool5 -> pool5
I0909 16:10:20.104740 57261 net.cpp:153] Setting up pool5
I0909 16:10:20.104753 57261 net.cpp:160] Top shape: 50 256 6 6 (460800)
I0909 16:10:20.104758 57261 net.cpp:168] Memory required for data: 410847600
I0909 16:10:20.104765 57261 layer_factory.hpp:77] Creating layer fc6
I0909 16:10:20.104785 57261 net.cpp:115] Creating Layer fc6
I0909 16:10:20.104799 57261 net.cpp:516] fc6 <- pool5
I0909 16:10:20.104807 57261 net.cpp:490] fc6 -> fc6
I0909 16:10:21.308933 57261 net.cpp:153] Setting up fc6
I0909 16:10:21.308976 57261 net.cpp:160] Top shape: 50 4096 (204800)
I0909 16:10:21.308984 57261 net.cpp:168] Memory required for data: 411666800
I0909 16:10:21.308997 57261 layer_factory.hpp:77] Creating layer relu6
I0909 16:10:21.309012 57261 net.cpp:115] Creating Layer relu6
I0909 16:10:21.309020 57261 net.cpp:516] relu6 <- fc6
I0909 16:10:21.309031 57261 net.cpp:477] relu6 -> fc6 (in-place)
I0909 16:10:21.309046 57261 net.cpp:153] Setting up relu6
I0909 16:10:21.309052 57261 net.cpp:160] Top shape: 50 4096 (204800)
I0909 16:10:21.309057 57261 net.cpp:168] Memory required for data: 412486000
I0909 16:10:21.309062 57261 layer_factory.hpp:77] Creating layer drop6
I0909 16:10:21.309083 57261 net.cpp:115] Creating Layer drop6
I0909 16:10:21.309092 57261 net.cpp:516] drop6 <- fc6
I0909 16:10:21.309098 57261 net.cpp:477] drop6 -> fc6 (in-place)
I0909 16:10:21.309137 57261 net.cpp:153] Setting up drop6
I0909 16:10:21.309147 57261 net.cpp:160] Top shape: 50 4096 (204800)
I0909 16:10:21.309152 57261 net.cpp:168] Memory required for data: 413305200
I0909 16:10:21.309159 57261 layer_factory.hpp:77] Creating layer fc7
I0909 16:10:21.309170 57261 net.cpp:115] Creating Layer fc7
I0909 16:10:21.309176 57261 net.cpp:516] fc7 <- fc6
I0909 16:10:21.309185 57261 net.cpp:490] fc7 -> fc7
I0909 16:10:21.833539 57261 net.cpp:153] Setting up fc7
I0909 16:10:21.833590 57261 net.cpp:160] Top shape: 50 4096 (204800)
I0909 16:10:21.833596 57261 net.cpp:168] Memory required for data: 414124400
I0909 16:10:21.833611 57261 layer_factory.hpp:77] Creating layer relu7
I0909 16:10:21.833626 57261 net.cpp:115] Creating Layer relu7
I0909 16:10:21.833634 57261 net.cpp:516] relu7 <- fc7
I0909 16:10:21.833647 57261 net.cpp:477] relu7 -> fc7 (in-place)
I0909 16:10:21.833659 57261 net.cpp:153] Setting up relu7
I0909 16:10:21.833667 57261 net.cpp:160] Top shape: 50 4096 (204800)
I0909 16:10:21.833672 57261 net.cpp:168] Memory required for data: 414943600
I0909 16:10:21.833676 57261 layer_factory.hpp:77] Creating layer drop7
I0909 16:10:21.833686 57261 net.cpp:115] Creating Layer drop7
I0909 16:10:21.833694 57261 net.cpp:516] drop7 <- fc7
I0909 16:10:21.833701 57261 net.cpp:477] drop7 -> fc7 (in-place)
I0909 16:10:21.833765 57261 net.cpp:153] Setting up drop7
I0909 16:10:21.833776 57261 net.cpp:160] Top shape: 50 4096 (204800)
I0909 16:10:21.833781 57261 net.cpp:168] Memory required for data: 415762800
I0909 16:10:21.833787 57261 layer_factory.hpp:77] Creating layer fc8
I0909 16:10:21.833801 57261 net.cpp:115] Creating Layer fc8
I0909 16:10:21.833806 57261 net.cpp:516] fc8 <- fc7
I0909 16:10:21.833814 57261 net.cpp:490] fc8 -> fc8
I0909 16:10:21.961891 57261 net.cpp:153] Setting up fc8
I0909 16:10:21.961941 57261 net.cpp:160] Top shape: 50 1000 (50000)
I0909 16:10:21.961948 57261 net.cpp:168] Memory required for data: 415962800
I0909 16:10:21.961962 57261 layer_factory.hpp:77] Creating layer fc8_fc8_0_split
I0909 16:10:21.961977 57261 net.cpp:115] Creating Layer fc8_fc8_0_split
I0909 16:10:21.961984 57261 net.cpp:516] fc8_fc8_0_split <- fc8
I0909 16:10:21.961997 57261 net.cpp:490] fc8_fc8_0_split -> fc8_fc8_0_split_0
I0909 16:10:21.962010 57261 net.cpp:490] fc8_fc8_0_split -> fc8_fc8_0_split_1
I0909 16:10:21.962051 57261 net.cpp:153] Setting up fc8_fc8_0_split
I0909 16:10:21.962064 57261 net.cpp:160] Top shape: 50 1000 (50000)
I0909 16:10:21.962069 57261 net.cpp:160] Top shape: 50 1000 (50000)
I0909 16:10:21.962074 57261 net.cpp:168] Memory required for data: 416362800
I0909 16:10:21.962080 57261 layer_factory.hpp:77] Creating layer accuracy
I0909 16:10:21.962100 57261 net.cpp:115] Creating Layer accuracy
I0909 16:10:21.962108 57261 net.cpp:516] accuracy <- fc8_fc8_0_split_0
I0909 16:10:21.962116 57261 net.cpp:516] accuracy <- label_data_1_split_0
I0909 16:10:21.962122 57261 net.cpp:490] accuracy -> accuracy
…
