…
I0906 15:40:55.561838 34497 net.cpp:347] The NetState phase (1) differed from the phase (0) specified by a rule in layer data
I0906 15:40:55.563987 34497 net.cpp:82] Initializing net from parameters: 
name: "GoogleNet"
state {
  phase: TEST
  level: 0
  stage: ""
}
layer {
  name: "data"
  type: "Data"
  top: "data"
  top: "label"
  include {
    phase: TEST
  }
  transform_param {
    mirror: false
    crop_size: 224
    mean_value: 104
    mean_value: 117
    mean_value: 123
  }
  data_param {
    source: "/mllib/imagenet/ilsvrc12/lmdb_resize/ilsvrc12_val_lmdb"
    batch_size: 50
    backend: LMDB
  }
}
layer {
  name: "conv1/7x7_s2"
  type: "Convolution"
  bottom: "data"
  top: "conv1/7x7_s2"
  param {
    lr_mult: 1
    decay_mult: 1
  }
  param {
    lr_mult: 2
    decay_mult: 0
  }
  convolution_param {
    num_output: 64
    pad: 3
    kernel_size: 7
    stride: 2
    weight_filler {
      type: "xavier"
    }
    bias_filler {
      type: "constant"
      value: 0.2
    }
  }
}
layer {
  name: "conv1/relu_7x7"
  type: "ReLU"
  bottom: "conv1/7x7_s2"
  top: "conv1/7x7_s2"
}
layer {
  name: "pool1/3x3_s2"
  type: "Pooling"
  bottom: "conv1/7x7_s2"
  top: "pool1/3x3_s2"
  pooling_param {
    pool: MAX
    kernel_size: 3
    stride: 2
  }
}
layer {
  name: "pool1/norm1"
  type: "LRNRistretto"
  bottom: "pool1/3x3_s2"
  top: "pool1/norm1"
  lrn_param {
    local_size: 5
    alpha: 0.0001
    beta: 0.75
  }
  quantization_param {
    bw_layer_in: 8
    bw_layer_out: 8
    fl_layer_in: -6
    fl_layer_out: -1
  }
}
layer {
  name: "conv2/3x3_reduce"
  type: "Convolution"
  bottom: "pool1/norm1"
  top: "conv2/3x3_reduce"
  param {
    lr_mult: 1
    decay_mult: 1
  }
  param {
    lr_mult: 2
    decay_mult: 0
  }
  convolution_param {
    num_output: 64
    kernel_size: 1
    weight_filler {
      type: "xavier"
    }
    bias_filler {
      type: "constant"
      value: 0.2
    }
  }
}
layer {
  name: "conv2/relu_3x3_reduce"
  type: "ReLU"
  bottom: "conv2/3x3_reduce"
  top: "conv2/3x3_reduce"
}
layer {
  name: "conv2/3x3"
  type: "Convolution"
  bottom: "conv2/3x3_reduce"
  top: "conv2/3x3"
  param {
    lr_mult: 1
    decay_mult: 1
  }
  param {
    lr_mult: 2
    decay_mult: 0
  }
  convolution_param {
    num_output: 192
    pad: 1
    kernel_size: 3
    weight_filler {
      type: "xavier"
    }
    bias_filler {
      type: "constant"
      value: 0.2
    }
  }
}
layer {
  name: "conv2/relu_3x3"
  type: "ReLU"
  bottom: "conv2/3x3"
  top: "conv2/3x3"
}
layer {
  name: "conv2/norm2"
  type: "LRNRistretto"
  bottom: "conv2/3x3"
  top: "conv2/norm2"
  lrn_param {
    local_size: 5
    alpha: 0.0001
    beta: 0.75
  }
  quantization_param {
    bw_layer_in: 8
    bw_layer_out: 8
    fl_layer_in: -3
    fl_layer_out: -1
  }
}
layer {
  name: "pool2/3x3_s2"
  type: "Pooling"
  bottom: "conv2/norm2"
  top: "pool2/3x3_s2"
  pooling_param {
    pool: MAX
    kernel_size: 3
    stride: 2
  }
}
layer {
  name: "inception_3a/1x1"
  type: "Convolution"
  bottom: "pool2/3x3_s2"
  top: "inception_3a/1x1"
  param {
    lr_mult: 1
    decay_mult: 1
  }
  param {
    lr_mult: 2
    decay_mult: 0
  }
  convolution_param {
    num_output: 64
    kernel_size: 1
    weight_filler {
      type: "xavier"
    }
    bias_filler {
      type: "constant"
      value: 0.2
    }
  }
}
layer {
  name: "inception_3a/relu_1x1"
  type: "ReLU"
  bottom: "inception_3a/1x1"
  top: "inception_3a/1x1"
}
layer {
  name: "inception_3a/3x3_reduce"
  type: "Convolution"
  bottom: "pool2/3x3_s2"
  top: "inception_3a/3x3_reduce"
  param {
    lr_mult: 1
    decay_mult: 1
  }
  param {
    lr_mult: 2
    decay_mult: 0
  }
  convolution_param {
    num_output: 96
    kernel_size: 1
    weight_filler {
      type: "xavier"
    }
    bias_filler {
      type: "constant"
      value: 0.2
    }
  }
}
layer {
  name: "inception_3a/relu_3x3_reduce"
  type: "ReLU"
  bottom: "inception_3a/3x3_reduce"
  top: "inception_3a/3x3_reduce"
}
layer {
  name: "inception_3a/3x3"
  type: "Convolution"
  bottom: "inception_3a/3x3_reduce"
  top: "inception_3a/3x3"
  param {
    lr_mult: 1
    decay_mult: 1
  }
  param {
    lr_mult: 2
    decay_mult: 0
  }
  convolution_param {
    num_output: 128
    pad: 1
    kernel_size: 3
    weight_filler {
      type: "xavier"
    }
    bias_filler {
      type: "constant"
      value: 0.2
    }
  }
}
layer {
  name: "inception_3a/relu_3x3"
  type: "ReLU"
  bottom: "inception_3a/3x3"
  top: "inception_3a/3x3"
}
layer {
  name: "inception_3a/5x5_reduce"
  type: "Convolution"
  bottom: "pool2/3x3_s2"
  top: "inception_3a/5x5_reduce"
  param {
    lr_mult: 1
    decay_mult: 1
  }
  param {
    lr_mult: 2
    decay_mult: 0
  }
  convolution_param {
    num_output: 16
    kernel_size: 1
    weight_filler {
      type: "xavier"
    }
    bias_filler {
      type: "constant"
      value: 0.2
    }
  }
}
layer {
  name: "inception_3a/relu_5x5_reduce"
  type: "ReLU"
  bottom: "inception_3a/5x5_reduce"
  top: "inception_3a/5x5_reduce"
}
layer {
  name: "inception_3a/5x5"
  type: "Convolution"
  bottom: "inception_3a/5x5_reduce"
  top: "inception_3a/5x5"
  param {
    lr_mult: 1
    decay_mult: 1
  }
  param {
    lr_mult: 2
    decay_mult: 0
  }
  convolution_param {
    num_output: 32
    pad: 2
    kernel_size: 5
    weight_filler {
      type: "xavier"
    }
    bias_filler {
      type: "constant"
      value: 0.2
    }
  }
}
layer {
  name: "inception_3a/relu_5x5"
  type: "ReLU"
  bottom: "inception_3a/5x5"
  top: "inception_3a/5x5"
}
layer {
  name: "inception_3a/pool"
  type: "Pooling"
  bottom: "pool2/3x3_s2"
  top: "inception_3a/pool"
  pooling_param {
    pool: MAX
    kernel_size: 3
    stride: 1
    pad: 1
  }
}
layer {
  name: "inception_3a/pool_proj"
  type: "Convolution"
  bottom: "inception_3a/pool"
  top: "inception_3a/pool_proj"
  param {
    lr_mult: 1
    decay_mult: 1
  }
  param {
    lr_mult: 2
    decay_mult: 0
  }
  convolution_param {
    num_output: 32
    kernel_size: 1
    weight_filler {
      type: "xavier"
    }
    bias_filler {
      type: "constant"
      value: 0.2
    }
  }
}
layer {
  name: "inception_3a/relu_pool_proj"
  type: "ReLU"
  bottom: "inception_3a/pool_proj"
  top: "inception_3a/pool_proj"
}
layer {
  name: "inception_3a/output"
  type: "Concat"
  bottom: "inception_3a/1x1"
  bottom: "inception_3a/3x3"
  bottom: "inception_3a/5x5"
  bottom: "inception_3a/pool_proj"
  top: "inception_3a/output"
}
layer {
  name: "inception_3b/1x1"
  type: "Convolution"
  bottom: "inception_3a/output"
  top: "inception_3b/1x1"
  param {
    lr_mult: 1
    decay_mult: 1
  }
  param {
    lr_mult: 2
    decay_mult: 0
  }
  convolution_param {
    num_output: 128
    kernel_size: 1
    weight_filler {
      type: "xavier"
    }
    bias_filler {
      type: "constant"
      value: 0.2
    }
  }
}
layer {
  name: "inception_3b/relu_1x1"
  type: "ReLU"
  bottom: "inception_3b/1x1"
  top: "inception_3b/1x1"
}
layer {
  name: "inception_3b/3x3_reduce"
  type: "Convolution"
  bottom: "inception_3a/output"
  top: "inception_3b/3x3_reduce"
  param {
    lr_mult: 1
    decay_mult: 1
  }
  param {
    lr_mult: 2
    decay_mult: 0
  }
  convolution_param {
    num_output: 128
    kernel_size: 1
    weight_filler {
      type: "xavier"
    }
    bias_filler {
      type: "constant"
      value: 0.2
    }
  }
}
layer {
  name: "inception_3b/relu_3x3_reduce"
  type: "ReLU"
  bottom: "inception_3b/3x3_reduce"
  top: "inception_3b/3x3_reduce"
}
layer {
  name: "inception_3b/3x3"
  type: "Convolution"
  bottom: "inception_3b/3x3_reduce"
  top: "inception_3b/3x3"
  param {
    lr_mult: 1
    decay_mult: 1
  }
  param {
    lr_mult: 2
    decay_mult: 0
  }
  convolution_param {
    num_output: 192
    pad: 1
    kernel_size: 3
    weight_filler {
      type: "xavier"
    }
    bias_filler {
      type: "constant"
      value: 0.2
    }
  }
}
layer {
  name: "inception_3b/relu_3x3"
  type: "ReLU"
  bottom: "inception_3b/3x3"
  top: "inception_3b/3x3"
}
layer {
  name: "inception_3b/5x5_reduce"
  type: "Convolution"
  bottom: "inception_3a/output"
  top: "inception_3b/5x5_reduce"
  param {
    lr_mult: 1
    decay_mult: 1
  }
  param {
    lr_mult: 2
    decay_mult: 0
  }
  convolution_param {
    num_output: 32
    kernel_size: 1
    weight_filler {
      type: "xavier"
    }
    bias_filler {
      type: "constant"
      value: 0.2
    }
  }
}
layer {
  name: "inception_3b/relu_5x5_reduce"
  type: "ReLU"
  bottom: "inception_3b/5x5_reduce"
  top: "inception_3b/5x5_reduce"
}
layer {
  name: "inception_3b/5x5"
  type: "Convolution"
  bottom: "inception_3b/5x5_reduce"
  top: "inception_3b/5x5"
  param {
    lr_mult: 1
    decay_mult: 1
  }
  param {
    lr_mult: 2
    decay_mult: 0
  }
  convolution_param {
    num_output: 96
    pad: 2
    kernel_size: 5
    weight_filler {
      type: "xavier"
    }
    bias_filler {
      type: "constant"
      value: 0.2
    }
  }
}
layer {
  name: "inception_3b/relu_5x5"
  type: "ReLU"
  bottom: "inception_3b/5x5"
  top: "inception_3b/5x5"
}
layer {
  name: "inception_3b/pool"
  type: "Pooling"
  bottom: "inception_3a/output"
  top: "inception_3b/pool"
  pooling_param {
    pool: MAX
    kernel_size: 3
    stride: 1
    pad: 1
  }
}
layer {
  name: "inception_3b/pool_proj"
  type: "Convolution"
  bottom: "inception_3b/pool"
  top: "inception_3b/pool_proj"
  param {
    lr_mult: 1
    decay_mult: 1
  }
  param {
    lr_mult: 2
    decay_mult: 0
  }
  convolution_param {
    num_output: 64
    kernel_size: 1
    weight_filler {
      type: "xavier"
    }
    bias_filler {
      type: "constant"
      value: 0.2
    }
  }
}
layer {
  name: "inception_3b/relu_pool_proj"
  type: "ReLU"
  bottom: "inception_3b/pool_proj"
  top: "inception_3b/pool_proj"
}
layer {
  name: "inception_3b/output"
  type: "Concat"
  bottom: "inception_3b/1x1"
  bottom: "inception_3b/3x3"
  bottom: "inception_3b/5x5"
  bottom: "inception_3b/pool_proj"
  top: "inception_3b/output"
}
layer {
  name: "pool3/3x3_s2"
  type: "Pooling"
  bottom: "inception_3b/output"
  top: "pool3/3x3_s2"
  pooling_param {
    pool: MAX
    kernel_size: 3
    stride: 2
  }
}
layer {
  name: "inception_4a/1x1"
  type: "Convolution"
  bottom: "pool3/3x3_s2"
  top: "inception_4a/1x1"
  param {
    lr_mult: 1
    decay_mult: 1
  }
  param {
    lr_mult: 2
    decay_mult: 0
  }
  convolution_param {
    num_output: 192
    kernel_size: 1
    weight_filler {
      type: "xavier"
    }
    bias_filler {
      type: "constant"
      value: 0.2
    }
  }
}
layer {
  name: "inception_4a/relu_1x1"
  type: "ReLU"
  bottom: "inception_4a/1x1"
  top: "inception_4a/1x1"
}
layer {
  name: "inception_4a/3x3_reduce"
  type: "Convolution"
  bottom: "pool3/3x3_s2"
  top: "inception_4a/3x3_reduce"
  param {
    lr_mult: 1
    decay_mult: 1
  }
  param {
    lr_mult: 2
    decay_mult: 0
  }
  convolution_param {
    num_output: 96
    kernel_size: 1
    weight_filler {
      type: "xavier"
    }
    bias_filler {
      type: "constant"
      value: 0.2
    }
  }
}
layer {
  name: "inception_4a/relu_3x3_reduce"
  type: "ReLU"
  bottom: "inception_4a/3x3_reduce"
  top: "inception_4a/3x3_reduce"
}
layer {
  name: "inception_4a/3x3"
  type: "Convolution"
  bottom: "inception_4a/3x3_reduce"
  top: "inception_4a/3x3"
  param {
    lr_mult: 1
    decay_mult: 1
  }
  param {
    lr_mult: 2
    decay_mult: 0
  }
  convolution_param {
    num_output: 208
    pad: 1
    kernel_size: 3
    weight_filler {
      type: "xavier"
    }
    bias_filler {
      type: "constant"
      value: 0.2
    }
  }
}
layer {
  name: "inception_4a/relu_3x3"
  type: "ReLU"
  bottom: "inception_4a/3x3"
  top: "inception_4a/3x3"
}
layer {
  name: "inception_4a/5x5_reduce"
  type: "Convolution"
  bottom: "pool3/3x3_s2"
  top: "inception_4a/5x5_reduce"
  param {
    lr_mult: 1
    decay_mult: 1
  }
  param {
    lr_mult: 2
    decay_mult: 0
  }
  convolution_param {
    num_output: 16
    kernel_size: 1
    weight_filler {
      type: "xavier"
    }
    bias_filler {
      type: "constant"
      value: 0.2
    }
  }
}
layer {
  name: "inception_4a/relu_5x5_reduce"
  type: "ReLU"
  bottom: "inception_4a/5x5_reduce"
  top: "inception_4a/5x5_reduce"
}
layer {
  name: "inception_4a/5x5"
  type: "Convolution"
  bottom: "inception_4a/5x5_reduce"
  top: "inception_4a/5x5"
  param {
    lr_mult: 1
    decay_mult: 1
  }
  param {
    lr_mult: 2
    decay_mult: 0
  }
  convolution_param {
    num_output: 48
    pad: 2
    kernel_size: 5
    weight_filler {
      type: "xavier"
    }
    bias_filler {
      type: "constant"
      value: 0.2
    }
  }
}
layer {
  name: "inception_4a/relu_5x5"
  type: "ReLU"
  bottom: "inception_4a/5x5"
  top: "inception_4a/5x5"
}
layer {
  name: "inception_4a/pool"
  type: "Pooling"
  bottom: "pool3/3x3_s2"
  top: "inception_4a/pool"
  pooling_param {
    pool: MAX
    kernel_size: 3
    stride: 1
    pad: 1
  }
}
layer {
  name: "inception_4a/pool_proj"
  type: "Convolution"
  bottom: "inception_4a/pool"
  top: "inception_4a/pool_proj"
  param {
    lr_mult: 1
    decay_mult: 1
  }
  param {
    lr_mult: 2
    decay_mult: 0
  }
  convolution_param {
    num_output: 64
    kernel_size: 1
    weight_filler {
      type: "xavier"
    }
    bias_filler {
      type: "constant"
      value: 0.2
    }
  }
}
layer {
  name: "inception_4a/relu_pool_proj"
  type: "ReLU"
  bottom: "inception_4a/pool_proj"
  top: "inception_4a/pool_proj"
}
layer {
  name: "inception_4a/output"
  type: "Concat"
  bottom: "inception_4a/1x1"
  bottom: "inception_4a/3x3"
  bottom: "inception_4a/5x5"
  bottom: "inception_4a/pool_proj"
  top: "inception_4a/output"
}
layer {
  name: "loss1/ave_pool"
  type: "Pooling"
  bottom: "inception_4a/output"
  top: "loss1/ave_pool"
  pooling_param {
    pool: AVE
    kernel_size: 5
    stride: 3
  }
}
layer {
  name: "loss1/conv"
  type: "Convolution"
  bottom: "loss1/ave_pool"
  top: "loss1/conv"
  param {
    lr_mult: 1
    decay_mult: 1
  }
  param {
    lr_mult: 2
    decay_mult: 0
  }
  convolution_param {
    num_output: 128
    kernel_size: 1
    weight_filler {
      type: "xavier"
    }
    bias_filler {
      type: "constant"
      value: 0.2
    }
  }
}
layer {
  name: "loss1/relu_conv"
  type: "ReLU"
  bottom: "loss1/conv"
  top: "loss1/conv"
}
layer {
  name: "loss1/fc"
  type: "InnerProduct"
  bottom: "loss1/conv"
  top: "loss1/fc"
  param {
    lr_mult: 1
    decay_mult: 1
  }
  param {
    lr_mult: 2
    decay_mult: 0
  }
  inner_product_param {
    num_output: 1024
    weight_filler {
      type: "xavier"
    }
    bias_filler {
      type: "constant"
      value: 0.2
    }
  }
}
layer {
  name: "loss1/relu_fc"
  type: "ReLU"
  bottom: "loss1/fc"
  top: "loss1/fc"
}
layer {
  name: "loss1/drop_fc"
  type: "Dropout"
  bottom: "loss1/fc"
  top: "loss1/fc"
  dropout_param {
    dropout_ratio: 0.7
  }
}
layer {
  name: "loss1/classifier"
  type: "InnerProduct"
  bottom: "loss1/fc"
  top: "loss1/classifier"
  param {
    lr_mult: 1
    decay_mult: 1
  }
  param {
    lr_mult: 2
    decay_mult: 0
  }
  inner_product_param {
    num_output: 1000
    weight_filler {
      type: "xavier"
    }
    bias_filler {
      type: "constant"
      value: 0
    }
  }
}
layer {
  name: "loss1/loss"
  type: "SoftmaxWithLoss"
  bottom: "loss1/classifier"
  bottom: "label"
  top: "loss1/loss1"
  loss_weight: 0.3
}
layer {
  name: "loss1/top-1"
  type: "Accuracy"
  bottom: "loss1/classifier"
  bottom: "label"
  top: "loss1/top-1"
  include {
    phase: TEST
  }
}
layer {
  name: "loss1/top-5"
  type: "Accuracy"
  bottom: "loss1/classifier"
  bottom: "label"
  top: "loss1/top-5"
  include {
    phase: TEST
  }
  accuracy_param {
    top_k: 5
  }
}
layer {
  name: "inception_4b/1x1"
  type: "Convolution"
  bottom: "inception_4a/output"
  top: "inception_4b/1x1"
  param {
    lr_mult: 1
    decay_mult: 1
  }
  param {
    lr_mult: 2
    decay_mult: 0
  }
  convolution_param {
    num_output: 160
    kernel_size: 1
    weight_filler {
      type: "xavier"
    }
    bias_filler {
      type: "constant"
      value: 0.2
    }
  }
}
layer {
  name: "inception_4b/relu_1x1"
  type: "ReLU"
  bottom: "inception_4b/1x1"
  top: "inception_4b/1x1"
}
layer {
  name: "inception_4b/3x3_reduce"
  type: "Convolution"
  bottom: "inception_4a/output"
  top: "inception_4b/3x3_reduce"
  param {
    lr_mult: 1
    decay_mult: 1
  }
  param {
    lr_mult: 2
    decay_mult: 0
  }
  convolution_param {
    num_output: 112
    kernel_size: 1
    weight_filler {
      type: "xavier"
    }
    bias_filler {
      type: "constant"
      value: 0.2
    }
  }
}
layer {
  name: "inception_4b/relu_3x3_reduce"
  type: "ReLU"
  bottom: "inception_4b/3x3_reduce"
  top: "inception_4b/3x3_reduce"
}
layer {
  name: "inception_4b/3x3"
  type: "Convolution"
  bottom: "inception_4b/3x3_reduce"
  top: "inception_4b/3x3"
  param {
    lr_mult: 1
    decay_mult: 1
  }
  param {
    lr_mult: 2
    decay_mult: 0
  }
  convolution_param {
    num_output: 224
    pad: 1
    kernel_size: 3
    weight_filler {
      type: "xavier"
    }
    bias_filler {
      type: "constant"
      value: 0.2
    }
  }
}
layer {
  name: "inception_4b/relu_3x3"
  type: "ReLU"
  bottom: "inception_4b/3x3"
  top: "inception_4b/3x3"
}
layer {
  name: "inception_4b/5x5_reduce"
  type: "Convolution"
  bottom: "inception_4a/output"
  top: "inception_4b/5x5_reduce"
  param {
    lr_mult: 1
    decay_mult: 1
  }
  param {
    lr_mult: 2
    decay_mult: 0
  }
  convolution_param {
    num_output: 24
    kernel_size: 1
    weight_filler {
      type: "xavier"
    }
    bias_filler {
      type: "constant"
      value: 0.2
    }
  }
}
layer {
  name: "inception_4b/relu_5x5_reduce"
  type: "ReLU"
  bottom: "inception_4b/5x5_reduce"
  top: "inception_4b/5x5_reduce"
}
layer {
  name: "inception_4b/5x5"
  type: "Convolution"
  bottom: "inception_4b/5x5_reduce"
  top: "inception_4b/5x5"
  param {
    lr_mult: 1
    decay_mult: 1
  }
  param {
    lr_mult: 2
    decay_mult: 0
  }
  convolution_param {
    num_output: 64
    pad: 2
    kernel_size: 5
    weight_filler {
      type: "xavier"
    }
    bias_filler {
      type: "constant"
      value: 0.2
    }
  }
}
layer {
  name: "inception_4b/relu_5x5"
  type: "ReLU"
  bottom: "inception_4b/5x5"
  top: "inception_4b/5x5"
}
layer {
  name: "inception_4b/pool"
  type: "Pooling"
  bottom: "inception_4a/output"
  top: "inception_4b/pool"
  pooling_param {
    pool: MAX
    kernel_size: 3
    stride: 1
    pad: 1
  }
}
layer {
  name: "inception_4b/pool_proj"
  type: "Convolution"
  bottom: "inception_4b/pool"
  top: "inception_4b/pool_proj"
  param {
    lr_mult: 1
    decay_mult: 1
  }
  param {
    lr_mult: 2
    decay_mult: 0
  }
  convolution_param {
    num_output: 64
    kernel_size: 1
    weight_filler {
      type: "xavier"
    }
    bias_filler {
      type: "constant"
      value: 0.2
    }
  }
}
layer {
  name: "inception_4b/relu_pool_proj"
  type: "ReLU"
  bottom: "inception_4b/pool_proj"
  top: "inception_4b/pool_proj"
}
layer {
  name: "inception_4b/output"
  type: "Concat"
  bottom: "inception_4b/1x1"
  bottom: "inception_4b/3x3"
  bottom: "inception_4b/5x5"
  bottom: "inception_4b/pool_proj"
  top: "inception_4b/output"
}
layer {
  name: "inception_4c/1x1"
  type: "Convolution"
  bottom: "inception_4b/output"
  top: "inception_4c/1x1"
  param {
    lr_mult: 1
    decay_mult: 1
  }
  param {
    lr_mult: 2
    decay_mult: 0
  }
  convolution_param {
    num_output: 128
    kernel_size: 1
    weight_filler {
      type: "xavier"
    }
    bias_filler {
      type: "constant"
      value: 0.2
    }
  }
}
layer {
  name: "inception_4c/relu_1x1"
  type: "ReLU"
  bottom: "inception_4c/1x1"
  top: "inception_4c/1x1"
}
layer {
  name: "inception_4c/3x3_reduce"
  type: "Convolution"
  bottom: "inception_4b/output"
  top: "inception_4c/3x3_reduce"
  param {
    lr_mult: 1
    decay_mult: 1
  }
  param {
    lr_mult: 2
    decay_mult: 0
  }
  convolution_param {
    num_output: 128
    kernel_size: 1
    weight_filler {
      type: "xavier"
    }
    bias_filler {
      type: "constant"
      value: 0.2
    }
  }
}
layer {
  name: "inception_4c/relu_3x3_reduce"
  type: "ReLU"
  bottom: "inception_4c/3x3_reduce"
  top: "inception_4c/3x3_reduce"
}
layer {
  name: "inception_4c/3x3"
  type: "Convolution"
  bottom: "inception_4c/3x3_reduce"
  top: "inception_4c/3x3"
  param {
    lr_mult: 1
    decay_mult: 1
  }
  param {
    lr_mult: 2
    decay_mult: 0
  }
  convolution_param {
    num_output: 256
    pad: 1
    kernel_size: 3
    weight_filler {
      type: "xavier"
    }
    bias_filler {
      type: "constant"
      value: 0.2
    }
  }
}
layer {
  name: "inception_4c/relu_3x3"
  type: "ReLU"
  bottom: "inception_4c/3x3"
  top: "inception_4c/3x3"
}
layer {
  name: "inception_4c/5x5_reduce"
  type: "Convolution"
  bottom: "inception_4b/output"
  top: "inception_4c/5x5_reduce"
  param {
    lr_mult: 1
    decay_mult: 1
  }
  param {
    lr_mult: 2
    decay_mult: 0
  }
  convolution_param {
    num_output: 24
    kernel_size: 1
    weight_filler {
      type: "xavier"
    }
    bias_filler {
      type: "constant"
      value: 0.2
    }
  }
}
layer {
  name: "inception_4c/relu_5x5_reduce"
  type: "ReLU"
  bottom: "inception_4c/5x5_reduce"
  top: "inception_4c/5x5_reduce"
}
layer {
  name: "inception_4c/5x5"
  type: "Convolution"
  bottom: "inception_4c/5x5_reduce"
  top: "inception_4c/5x5"
  param {
    lr_mult: 1
    decay_mult: 1
  }
  param {
    lr_mult: 2
    decay_mult: 0
  }
  convolution_param {
    num_output: 64
    pad: 2
    kernel_size: 5
    weight_filler {
      type: "xavier"
    }
    bias_filler {
      type: "constant"
      value: 0.2
    }
  }
}
layer {
  name: "inception_4c/relu_5x5"
  type: "ReLU"
  bottom: "inception_4c/5x5"
  top: "inception_4c/5x5"
}
layer {
  name: "inception_4c/pool"
  type: "Pooling"
  bottom: "inception_4b/output"
  top: "inception_4c/pool"
  pooling_param {
    pool: MAX
    kernel_size: 3
    stride: 1
    pad: 1
  }
}
layer {
  name: "inception_4c/pool_proj"
  type: "Convolution"
  bottom: "inception_4c/pool"
  top: "inception_4c/pool_proj"
  param {
    lr_mult: 1
    decay_mult: 1
  }
  param {
    lr_mult: 2
    decay_mult: 0
  }
  convolution_param {
    num_output: 64
    kernel_size: 1
    weight_filler {
      type: "xavier"
    }
    bias_filler {
      type: "constant"
      value: 0.2
    }
  }
}
layer {
  name: "inception_4c/relu_pool_proj"
  type: "ReLU"
  bottom: "inception_4c/pool_proj"
  top: "inception_4c/pool_proj"
}
layer {
  name: "inception_4c/output"
  type: "Concat"
  bottom: "inception_4c/1x1"
  bottom: "inception_4c/3x3"
  bottom: "inception_4c/5x5"
  bottom: "inception_4c/pool_proj"
  top: "inception_4c/output"
}
layer {
  name: "inception_4d/1x1"
  type: "Convolution"
  bottom: "inception_4c/output"
  top: "inception_4d/1x1"
  param {
    lr_mult: 1
    decay_mult: 1
  }
  param {
    lr_mult: 2
    decay_mult: 0
  }
  convolution_param {
    num_output: 112
    kernel_size: 1
    weight_filler {
      type: "xavier"
    }
    bias_filler {
      type: "constant"
      value: 0.2
    }
  }
}
layer {
  name: "inception_4d/relu_1x1"
  type: "ReLU"
  bottom: "inception_4d/1x1"
  top: "inception_4d/1x1"
}
layer {
  name: "inception_4d/3x3_reduce"
  type: "Convolution"
  bottom: "inception_4c/output"
  top: "inception_4d/3x3_reduce"
  param {
    lr_mult: 1
    decay_mult: 1
  }
  param {
    lr_mult: 2
    decay_mult: 0
  }
  convolution_param {
    num_output: 144
    kernel_size: 1
    weight_filler {
      type: "xavier"
    }
    bias_filler {
      type: "constant"
      value: 0.2
    }
  }
}
layer {
  name: "inception_4d/relu_3x3_reduce"
  type: "ReLU"
  bottom: "inception_4d/3x3_reduce"
  top: "inception_4d/3x3_reduce"
}
layer {
  name: "inception_4d/3x3"
  type: "Convolution"
  bottom: "inception_4d/3x3_reduce"
  top: "inception_4d/3x3"
  param {
    lr_mult: 1
    decay_mult: 1
  }
  param {
    lr_mult: 2
    decay_mult: 0
  }
  convolution_param {
    num_output: 288
    pad: 1
    kernel_size: 3
    weight_filler {
      type: "xavier"
    }
    bias_filler {
      type: "constant"
      value: 0.2
    }
  }
}
layer {
  name: "inception_4d/relu_3x3"
  type: "ReLU"
  bottom: "inception_4d/3x3"
  top: "inception_4d/3x3"
}
layer {
  name: "inception_4d/5x5_reduce"
  type: "Convolution"
  bottom: "inception_4c/output"
  top: "inception_4d/5x5_reduce"
  param {
    lr_mult: 1
    decay_mult: 1
  }
  param {
    lr_mult: 2
    decay_mult: 0
  }
  convolution_param {
    num_output: 32
    kernel_size: 1
    weight_filler {
      type: "xavier"
    }
    bias_filler {
      type: "constant"
      value: 0.2
    }
  }
}
layer {
  name: "inception_4d/relu_5x5_reduce"
  type: "ReLU"
  bottom: "inception_4d/5x5_reduce"
  top: "inception_4d/5x5_reduce"
}
layer {
  name: "inception_4d/5x5"
  type: "Convolution"
  bottom: "inception_4d/5x5_reduce"
  top: "inception_4d/5x5"
  param {
    lr_mult: 1
    decay_mult: 1
  }
  param {
    lr_mult: 2
    decay_mult: 0
  }
  convolution_param {
    num_output: 64
    pad: 2
    kernel_size: 5
    weight_filler {
      type: "xavier"
    }
    bias_filler {
      type: "constant"
      value: 0.2
    }
  }
}
layer {
  name: "inception_4d/relu_5x5"
  type: "ReLU"
  bottom: "inception_4d/5x5"
  top: "inception_4d/5x5"
}
layer {
  name: "inception_4d/pool"
  type: "Pooling"
  bottom: "inception_4c/output"
  top: "inception_4d/pool"
  pooling_param {
    pool: MAX
    kernel_size: 3
    stride: 1
    pad: 1
  }
}
layer {
  name: "inception_4d/pool_proj"
  type: "Convolution"
  bottom: "inception_4d/pool"
  top: "inception_4d/pool_proj"
  param {
    lr_mult: 1
    decay_mult: 1
  }
  param {
    lr_mult: 2
    decay_mult: 0
  }
  convolution_param {
    num_output: 64
    kernel_size: 1
    weight_filler {
      type: "xavier"
    }
    bias_filler {
      type: "constant"
      value: 0.2
    }
  }
}
layer {
  name: "inception_4d/relu_pool_proj"
  type: "ReLU"
  bottom: "inception_4d/pool_proj"
  top: "inception_4d/pool_proj"
}
layer {
  name: "inception_4d/output"
  type: "Concat"
  bottom: "inception_4d/1x1"
  bottom: "inception_4d/3x3"
  bottom: "inception_4d/5x5"
  bottom: "inception_4d/pool_proj"
  top: "inception_4d/output"
}
layer {
  name: "loss2/ave_pool"
  type: "Pooling"
  bottom: "inception_4d/output"
  top: "loss2/ave_pool"
  pooling_param {
    pool: AVE
    kernel_size: 5
    stride: 3
  }
}
layer {
  name: "loss2/conv"
  type: "Convolution"
  bottom: "loss2/ave_pool"
  top: "loss2/conv"
  param {
    lr_mult: 1
    decay_mult: 1
  }
  param {
    lr_mult: 2
    decay_mult: 0
  }
  convolution_param {
    num_output: 128
    kernel_size: 1
    weight_filler {
      type: "xavier"
    }
    bias_filler {
      type: "constant"
      value: 0.2
    }
  }
}
layer {
  name: "loss2/relu_conv"
  type: "ReLU"
  bottom: "loss2/conv"
  top: "loss2/conv"
}
layer {
  name: "loss2/fc"
  type: "InnerProduct"
  bottom: "loss2/conv"
  top: "loss2/fc"
  param {
    lr_mult: 1
    decay_mult: 1
  }
  param {
    lr_mult: 2
    decay_mult: 0
  }
  inner_product_param {
    num_output: 1024
    weight_filler {
      type: "xavier"
    }
    bias_filler {
      type: "constant"
      value: 0.2
    }
  }
}
layer {
  name: "loss2/relu_fc"
  type: "ReLU"
  bottom: "loss2/fc"
  top: "loss2/fc"
}
layer {
  name: "loss2/drop_fc"
  type: "Dropout"
  bottom: "loss2/fc"
  top: "loss2/fc"
  dropout_param {
    dropout_ratio: 0.7
  }
}
layer {
  name: "loss2/classifier"
  type: "InnerProduct"
  bottom: "loss2/fc"
  top: "loss2/classifier"
  param {
    lr_mult: 1
    decay_mult: 1
  }
  param {
    lr_mult: 2
    decay_mult: 0
  }
  inner_product_param {
    num_output: 1000
    weight_filler {
      type: "xavier"
    }
    bias_filler {
      type: "constant"
      value: 0
    }
  }
}
layer {
  name: "loss2/loss"
  type: "SoftmaxWithLoss"
  bottom: "loss2/classifier"
  bottom: "label"
  top: "loss2/loss2"
  loss_weight: 0.3
}
layer {
  name: "loss2/top-1"
  type: "Accuracy"
  bottom: "loss2/classifier"
  bottom: "label"
  top: "loss2/top-1"
  include {
    phase: TEST
  }
}
layer {
  name: "loss2/top-5"
  type: "Accuracy"
  bottom: "loss2/classifier"
  bottom: "label"
  top: "loss2/top-5"
  include {
    phase: TEST
  }
  accuracy_param {
    top_k: 5
  }
}
layer {
  name: "inception_4e/1x1"
  type: "Convolution"
  bottom: "inception_4d/output"
  top: "inception_4e/1x1"
  param {
    lr_mult: 1
    decay_mult: 1
  }
  param {
    lr_mult: 2
    decay_mult: 0
  }
  convolution_param {
    num_output: 256
    kernel_size: 1
    weight_filler {
      type: "xavier"
    }
    bias_filler {
      type: "constant"
      value: 0.2
    }
  }
}
layer {
  name: "inception_4e/relu_1x1"
  type: "ReLU"
  bottom: "inception_4e/1x1"
  top: "inception_4e/1x1"
}
layer {
  name: "inception_4e/3x3_reduce"
  type: "Convolution"
  bottom: "inception_4d/output"
  top: "inception_4e/3x3_reduce"
  param {
    lr_mult: 1
    decay_mult: 1
  }
  param {
    lr_mult: 2
    decay_mult: 0
  }
  convolution_param {
    num_output: 160
    kernel_size: 1
    weight_filler {
      type: "xavier"
    }
    bias_filler {
      type: "constant"
      value: 0.2
    }
  }
}
layer {
  name: "inception_4e/relu_3x3_reduce"
  type: "ReLU"
  bottom: "inception_4e/3x3_reduce"
  top: "inception_4e/3x3_reduce"
}
layer {
  name: "inception_4e/3x3"
  type: "Convolution"
  bottom: "inception_4e/3x3_reduce"
  top: "inception_4e/3x3"
  param {
    lr_mult: 1
    decay_mult: 1
  }
  param {
    lr_mult: 2
    decay_mult: 0
  }
  convolution_param {
    num_output: 320
    pad: 1
    kernel_size: 3
    weight_filler {
      type: "xavier"
    }
    bias_filler {
      type: "constant"
      value: 0.2
    }
  }
}
layer {
  name: "inception_4e/relu_3x3"
  type: "ReLU"
  bottom: "inception_4e/3x3"
  top: "inception_4e/3x3"
}
layer {
  name: "inception_4e/5x5_reduce"
  type: "Convolution"
  bottom: "inception_4d/output"
  top: "inception_4e/5x5_reduce"
  param {
    lr_mult: 1
    decay_mult: 1
  }
  param {
    lr_mult: 2
    decay_mult: 0
  }
  convolution_param {
    num_output: 32
    kernel_siz
I0906 15:40:55.566057 34497 layer_factory.hpp:77] Creating layer data
I0906 15:40:55.566421 34497 db_lmdb.cpp:35] Opened lmdb /mllib/imagenet/ilsvrc12/lmdb_resize/ilsvrc12_val_lmdb
I0906 15:40:55.566540 34497 net.cpp:115] Creating Layer data
I0906 15:40:55.566597 34497 net.cpp:490] data -> data
I0906 15:40:55.566690 34497 net.cpp:490] data -> label
I0906 15:40:55.618237 34497 data_layer.cpp:45] output data size: 50,3,224,224
I0906 15:40:55.854292 34497 net.cpp:153] Setting up data
I0906 15:40:55.854452 34497 net.cpp:160] Top shape: 50 3 224 224 (7526400)
I0906 15:40:55.854499 34497 net.cpp:160] Top shape: 50 (50)
I0906 15:40:55.854531 34497 net.cpp:168] Memory required for data: 30105800
I0906 15:40:55.854554 34497 layer_factory.hpp:77] Creating layer label_data_1_split
I0906 15:40:55.854580 34497 net.cpp:115] Creating Layer label_data_1_split
I0906 15:40:55.854596 34497 net.cpp:516] label_data_1_split <- label
I0906 15:40:55.854622 34497 net.cpp:490] label_data_1_split -> label_data_1_split_0
I0906 15:40:55.854642 34497 net.cpp:490] label_data_1_split -> label_data_1_split_1
I0906 15:40:55.854655 34497 net.cpp:490] label_data_1_split -> label_data_1_split_2
I0906 15:40:55.854672 34497 net.cpp:490] label_data_1_split -> label_data_1_split_3
I0906 15:40:55.854686 34497 net.cpp:490] label_data_1_split -> label_data_1_split_4
I0906 15:40:55.854698 34497 net.cpp:490] label_data_1_split -> label_data_1_split_5
I0906 15:40:55.854708 34497 net.cpp:490] label_data_1_split -> label_data_1_split_6
I0906 15:40:55.854727 34497 net.cpp:490] label_data_1_split -> label_data_1_split_7
I0906 15:40:55.854737 34497 net.cpp:490] label_data_1_split -> label_data_1_split_8
I0906 15:40:55.854917 34497 net.cpp:153] Setting up label_data_1_split
I0906 15:40:55.854933 34497 net.cpp:160] Top shape: 50 (50)
I0906 15:40:55.854941 34497 net.cpp:160] Top shape: 50 (50)
I0906 15:40:55.854949 34497 net.cpp:160] Top shape: 50 (50)
I0906 15:40:55.854957 34497 net.cpp:160] Top shape: 50 (50)
I0906 15:40:55.854965 34497 net.cpp:160] Top shape: 50 (50)
I0906 15:40:55.854974 34497 net.cpp:160] Top shape: 50 (50)
I0906 15:40:55.854981 34497 net.cpp:160] Top shape: 50 (50)
I0906 15:40:55.854990 34497 net.cpp:160] Top shape: 50 (50)
I0906 15:40:55.854998 34497 net.cpp:160] Top shape: 50 (50)
I0906 15:40:55.855005 34497 net.cpp:168] Memory required for data: 30107600
I0906 15:40:55.855015 34497 layer_factory.hpp:77] Creating layer conv1/7x7_s2
I0906 15:40:55.855051 34497 net.cpp:115] Creating Layer conv1/7x7_s2
I0906 15:40:55.855062 34497 net.cpp:516] conv1/7x7_s2 <- data
I0906 15:40:55.855099 34497 net.cpp:490] conv1/7x7_s2 -> conv1/7x7_s2
I0906 15:40:55.858271 34497 net.cpp:153] Setting up conv1/7x7_s2
I0906 15:40:55.858497 34497 net.cpp:160] Top shape: 50 64 112 112 (40140800)
I0906 15:40:55.858656 34497 net.cpp:168] Memory required for data: 190670800
I0906 15:40:55.858805 34497 layer_factory.hpp:77] Creating layer conv1/relu_7x7
I0906 15:40:55.858922 34497 net.cpp:115] Creating Layer conv1/relu_7x7
I0906 15:40:55.858994 34497 net.cpp:516] conv1/relu_7x7 <- conv1/7x7_s2
I0906 15:40:55.859062 34497 net.cpp:477] conv1/relu_7x7 -> conv1/7x7_s2 (in-place)
I0906 15:40:55.859211 34497 net.cpp:153] Setting up conv1/relu_7x7
I0906 15:40:55.859290 34497 net.cpp:160] Top shape: 50 64 112 112 (40140800)
I0906 15:40:55.859342 34497 net.cpp:168] Memory required for data: 351234000
I0906 15:40:55.859503 34497 layer_factory.hpp:77] Creating layer pool1/3x3_s2
I0906 15:40:55.859580 34497 net.cpp:115] Creating Layer pool1/3x3_s2
I0906 15:40:55.859653 34497 net.cpp:516] pool1/3x3_s2 <- conv1/7x7_s2
I0906 15:40:55.859720 34497 net.cpp:490] pool1/3x3_s2 -> pool1/3x3_s2
I0906 15:40:55.859943 34497 net.cpp:153] Setting up pool1/3x3_s2
I0906 15:40:55.860024 34497 net.cpp:160] Top shape: 50 64 56 56 (10035200)
I0906 15:40:55.860076 34497 net.cpp:168] Memory required for data: 391374800
I0906 15:40:55.860117 34497 layer_factory.hpp:77] Creating layer pool1/norm1
I0906 15:40:55.860179 34497 net.cpp:115] Creating Layer pool1/norm1
I0906 15:40:55.860221 34497 net.cpp:516] pool1/norm1 <- pool1/3x3_s2
I0906 15:40:55.860276 34497 net.cpp:490] pool1/norm1 -> pool1/norm1
I0906 15:40:55.860350 34497 net.cpp:153] Setting up pool1/norm1
I0906 15:40:55.860373 34497 net.cpp:160] Top shape: 50 64 56 56 (10035200)
I0906 15:40:55.860385 34497 net.cpp:168] Memory required for data: 431515600
I0906 15:40:55.860401 34497 layer_factory.hpp:77] Creating layer conv2/3x3_reduce
I0906 15:40:55.860467 34497 net.cpp:115] Creating Layer conv2/3x3_reduce
I0906 15:40:55.860514 34497 net.cpp:516] conv2/3x3_reduce <- pool1/norm1
I0906 15:40:55.860560 34497 net.cpp:490] conv2/3x3_reduce -> conv2/3x3_reduce
I0906 15:40:55.873368 34497 net.cpp:153] Setting up conv2/3x3_reduce
I0906 15:40:55.873559 34497 net.cpp:160] Top shape: 50 64 56 56 (10035200)
I0906 15:40:55.873683 34497 net.cpp:168] Memory required for data: 471656400
I0906 15:40:55.873834 34497 layer_factory.hpp:77] Creating layer conv2/relu_3x3_reduce
I0906 15:40:55.873944 34497 net.cpp:115] Creating Layer conv2/relu_3x3_reduce
I0906 15:40:55.874035 34497 net.cpp:516] conv2/relu_3x3_reduce <- conv2/3x3_reduce
I0906 15:40:55.874114 34497 net.cpp:477] conv2/relu_3x3_reduce -> conv2/3x3_reduce (in-place)
I0906 15:40:55.874218 34497 net.cpp:153] Setting up conv2/relu_3x3_reduce
I0906 15:40:55.874321 34497 net.cpp:160] Top shape: 50 64 56 56 (10035200)
I0906 15:40:55.874392 34497 net.cpp:168] Memory required for data: 511797200
I0906 15:40:55.874446 34497 layer_factory.hpp:77] Creating layer conv2/3x3
I0906 15:40:55.874512 34497 net.cpp:115] Creating Layer conv2/3x3
I0906 15:40:55.874557 34497 net.cpp:516] conv2/3x3 <- conv2/3x3_reduce
I0906 15:40:55.874610 34497 net.cpp:490] conv2/3x3 -> conv2/3x3
I0906 15:40:55.879230 34497 net.cpp:153] Setting up conv2/3x3
I0906 15:40:55.879441 34497 net.cpp:160] Top shape: 50 192 56 56 (30105600)
I0906 15:40:55.879462 34497 net.cpp:168] Memory required for data: 632219600
I0906 15:40:55.879503 34497 layer_factory.hpp:77] Creating layer conv2/relu_3x3
I0906 15:40:55.879535 34497 net.cpp:115] Creating Layer conv2/relu_3x3
I0906 15:40:55.879554 34497 net.cpp:516] conv2/relu_3x3 <- conv2/3x3
I0906 15:40:55.879580 34497 net.cpp:477] conv2/relu_3x3 -> conv2/3x3 (in-place)
I0906 15:40:55.879678 34497 net.cpp:153] Setting up conv2/relu_3x3
I0906 15:40:55.879750 34497 net.cpp:160] Top shape: 50 192 56 56 (30105600)
I0906 15:40:55.879817 34497 net.cpp:168] Memory required for data: 752642000
I0906 15:40:55.879871 34497 layer_factory.hpp:77] Creating layer conv2/norm2
I0906 15:40:55.879942 34497 net.cpp:115] Creating Layer conv2/norm2
I0906 15:40:55.880035 34497 net.cpp:516] conv2/norm2 <- conv2/3x3
I0906 15:40:55.880175 34497 net.cpp:490] conv2/norm2 -> conv2/norm2
I0906 15:40:55.880312 34497 net.cpp:153] Setting up conv2/norm2
I0906 15:40:55.880467 34497 net.cpp:160] Top shape: 50 192 56 56 (30105600)
I0906 15:40:55.880558 34497 net.cpp:168] Memory required for data: 873064400
I0906 15:40:55.880610 34497 layer_factory.hpp:77] Creating layer pool2/3x3_s2
I0906 15:40:55.880662 34497 net.cpp:115] Creating Layer pool2/3x3_s2
I0906 15:40:55.880735 34497 net.cpp:516] pool2/3x3_s2 <- conv2/norm2
I0906 15:40:55.880854 34497 net.cpp:490] pool2/3x3_s2 -> pool2/3x3_s2
I0906 15:40:55.881037 34497 net.cpp:153] Setting up pool2/3x3_s2
I0906 15:40:55.881096 34497 net.cpp:160] Top shape: 50 192 28 28 (7526400)
I0906 15:40:55.881129 34497 net.cpp:168] Memory required for data: 903170000
I0906 15:40:55.881175 34497 layer_factory.hpp:77] Creating layer pool2/3x3_s2_pool2/3x3_s2_0_split
I0906 15:40:55.881248 34497 net.cpp:115] Creating Layer pool2/3x3_s2_pool2/3x3_s2_0_split
I0906 15:40:55.881314 34497 net.cpp:516] pool2/3x3_s2_pool2/3x3_s2_0_split <- pool2/3x3_s2
I0906 15:40:55.881374 34497 net.cpp:490] pool2/3x3_s2_pool2/3x3_s2_0_split -> pool2/3x3_s2_pool2/3x3_s2_0_split_0
I0906 15:40:55.881425 34497 net.cpp:490] pool2/3x3_s2_pool2/3x3_s2_0_split -> pool2/3x3_s2_pool2/3x3_s2_0_split_1
I0906 15:40:55.881547 34497 net.cpp:490] pool2/3x3_s2_pool2/3x3_s2_0_split -> pool2/3x3_s2_pool2/3x3_s2_0_split_2
I0906 15:40:55.881677 34497 net.cpp:490] pool2/3x3_s2_pool2/3x3_s2_0_split -> pool2/3x3_s2_pool2/3x3_s2_0_split_3
I0906 15:40:55.881908 34497 net.cpp:153] Setting up pool2/3x3_s2_pool2/3x3_s2_0_split
I0906 15:40:55.882027 34497 net.cpp:160] Top shape: 50 192 28 28 (7526400)
I0906 15:40:55.882094 34497 net.cpp:160] Top shape: 50 192 28 28 (7526400)
I0906 15:40:55.882160 34497 net.cpp:160] Top shape: 50 192 28 28 (7526400)
I0906 15:40:55.882215 34497 net.cpp:160] Top shape: 50 192 28 28 (7526400)
I0906 15:40:55.882272 34497 net.cpp:168] Memory required for data: 1023592400
I0906 15:40:55.882323 34497 layer_factory.hpp:77] Creating layer inception_3a/1x1
I0906 15:40:55.882391 34497 net.cpp:115] Creating Layer inception_3a/1x1
I0906 15:40:55.882480 34497 net.cpp:516] inception_3a/1x1 <- pool2/3x3_s2_pool2/3x3_s2_0_split_0
I0906 15:40:55.882537 34497 net.cpp:490] inception_3a/1x1 -> inception_3a/1x1
I0906 15:40:55.886363 34497 net.cpp:153] Setting up inception_3a/1x1
I0906 15:40:55.886396 34497 net.cpp:160] Top shape: 50 64 28 28 (2508800)
I0906 15:40:55.886402 34497 net.cpp:168] Memory required for data: 1033627600
I0906 15:40:55.886415 34497 layer_factory.hpp:77] Creating layer inception_3a/relu_1x1
I0906 15:40:55.886430 34497 net.cpp:115] Creating Layer inception_3a/relu_1x1
I0906 15:40:55.886440 34497 net.cpp:516] inception_3a/relu_1x1 <- inception_3a/1x1
I0906 15:40:55.886451 34497 net.cpp:477] inception_3a/relu_1x1 -> inception_3a/1x1 (in-place)
I0906 15:40:55.886466 34497 net.cpp:153] Setting up inception_3a/relu_1x1
I0906 15:40:55.886473 34497 net.cpp:160] Top shape: 50 64 28 28 (2508800)
I0906 15:40:55.886481 34497 net.cpp:168] Memory required for data: 1043662800
I0906 15:40:55.886485 34497 layer_factory.hpp:77] Creating layer inception_3a/3x3_reduce
I0906 15:40:55.886500 34497 net.cpp:115] Creating Layer inception_3a/3x3_reduce
I0906 15:40:55.886507 34497 net.cpp:516] inception_3a/3x3_reduce <- pool2/3x3_s2_pool2/3x3_s2_0_split_1
I0906 15:40:55.886517 34497 net.cpp:490] inception_3a/3x3_reduce -> inception_3a/3x3_reduce
I0906 15:40:55.888178 34497 net.cpp:153] Setting up inception_3a/3x3_reduce
I0906 15:40:55.888197 34497 net.cpp:160] Top shape: 50 96 28 28 (3763200)
I0906 15:40:55.888203 34497 net.cpp:168] Memory required for data: 1058715600
I0906 15:40:55.888218 34497 layer_factory.hpp:77] Creating layer inception_3a/relu_3x3_reduce
I0906 15:40:55.888231 34497 net.cpp:115] Creating Layer inception_3a/relu_3x3_reduce
I0906 15:40:55.888237 34497 net.cpp:516] inception_3a/relu_3x3_reduce <- inception_3a/3x3_reduce
I0906 15:40:55.888245 34497 net.cpp:477] inception_3a/relu_3x3_reduce -> inception_3a/3x3_reduce (in-place)
I0906 15:40:55.888280 34497 net.cpp:153] Setting up inception_3a/relu_3x3_reduce
I0906 15:40:55.888288 34497 net.cpp:160] Top shape: 50 96 28 28 (3763200)
I0906 15:40:55.888293 34497 net.cpp:168] Memory required for data: 1073768400
I0906 15:40:55.888298 34497 layer_factory.hpp:77] Creating layer inception_3a/3x3
I0906 15:40:55.888311 34497 net.cpp:115] Creating Layer inception_3a/3x3
I0906 15:40:55.888319 34497 net.cpp:516] inception_3a/3x3 <- inception_3a/3x3_reduce
I0906 15:40:55.888327 34497 net.cpp:490] inception_3a/3x3 -> inception_3a/3x3
I0906 15:40:55.889261 34497 net.cpp:153] Setting up inception_3a/3x3
I0906 15:40:55.889279 34497 net.cpp:160] Top shape: 50 128 28 28 (5017600)
I0906 15:40:55.889284 34497 net.cpp:168] Memory required for data: 1093838800
I0906 15:40:55.889292 34497 layer_factory.hpp:77] Creating layer inception_3a/relu_3x3
I0906 15:40:55.889302 34497 net.cpp:115] Creating Layer inception_3a/relu_3x3
I0906 15:40:55.889307 34497 net.cpp:516] inception_3a/relu_3x3 <- inception_3a/3x3
I0906 15:40:55.889314 34497 net.cpp:477] inception_3a/relu_3x3 -> inception_3a/3x3 (in-place)
I0906 15:40:55.889322 34497 net.cpp:153] Setting up inception_3a/relu_3x3
I0906 15:40:55.889329 34497 net.cpp:160] Top shape: 50 128 28 28 (5017600)
I0906 15:40:55.889333 34497 net.cpp:168] Memory required for data: 1113909200
I0906 15:40:55.889338 34497 layer_factory.hpp:77] Creating layer inception_3a/5x5_reduce
I0906 15:40:55.889349 34497 net.cpp:115] Creating Layer inception_3a/5x5_reduce
I0906 15:40:55.889358 34497 net.cpp:516] inception_3a/5x5_reduce <- pool2/3x3_s2_pool2/3x3_s2_0_split_2
I0906 15:40:55.889367 34497 net.cpp:490] inception_3a/5x5_reduce -> inception_3a/5x5_reduce
I0906 15:40:55.889597 34497 net.cpp:153] Setting up inception_3a/5x5_reduce
I0906 15:40:55.889611 34497 net.cpp:160] Top shape: 50 16 28 28 (627200)
I0906 15:40:55.889617 34497 net.cpp:168] Memory required for data: 1116418000
I0906 15:40:55.889626 34497 layer_factory.hpp:77] Creating layer inception_3a/relu_5x5_reduce
I0906 15:40:55.889637 34497 net.cpp:115] Creating Layer inception_3a/relu_5x5_reduce
I0906 15:40:55.889643 34497 net.cpp:516] inception_3a/relu_5x5_reduce <- inception_3a/5x5_reduce
I0906 15:40:55.889652 34497 net.cpp:477] inception_3a/relu_5x5_reduce -> inception_3a/5x5_reduce (in-place)
I0906 15:40:55.889660 34497 net.cpp:153] Setting up inception_3a/relu_5x5_reduce
I0906 15:40:55.889667 34497 net.cpp:160] Top shape: 50 16 28 28 (627200)
I0906 15:40:55.889672 34497 net.cpp:168] Memory required for data: 1118926800
I0906 15:40:55.889678 34497 layer_factory.hpp:77] Creating layer inception_3a/5x5
I0906 15:40:55.889691 34497 net.cpp:115] Creating Layer inception_3a/5x5
I0906 15:40:55.889700 34497 net.cpp:516] inception_3a/5x5 <- inception_3a/5x5_reduce
I0906 15:40:55.889710 34497 net.cpp:490] inception_3a/5x5 -> inception_3a/5x5
I0906 15:40:55.889998 34497 net.cpp:153] Setting up inception_3a/5x5
I0906 15:40:55.890012 34497 net.cpp:160] Top shape: 50 32 28 28 (1254400)
I0906 15:40:55.890018 34497 net.cpp:168] Memory required for data: 1123944400
I0906 15:40:55.890025 34497 layer_factory.hpp:77] Creating layer inception_3a/relu_5x5
I0906 15:40:55.890034 34497 net.cpp:115] Creating Layer inception_3a/relu_5x5
I0906 15:40:55.890040 34497 net.cpp:516] inception_3a/relu_5x5 <- inception_3a/5x5
I0906 15:40:55.890048 34497 net.cpp:477] inception_3a/relu_5x5 -> inception_3a/5x5 (in-place)
I0906 15:40:55.890058 34497 net.cpp:153] Setting up inception_3a/relu_5x5
I0906 15:40:55.890064 34497 net.cpp:160] Top shape: 50 32 28 28 (1254400)
I0906 15:40:55.890069 34497 net.cpp:168] Memory required for data: 1128962000
I0906 15:40:55.890074 34497 layer_factory.hpp:77] Creating layer inception_3a/pool
I0906 15:40:55.890084 34497 net.cpp:115] Creating Layer inception_3a/pool
I0906 15:40:55.890092 34497 net.cpp:516] inception_3a/pool <- pool2/3x3_s2_pool2/3x3_s2_0_split_3
I0906 15:40:55.890101 34497 net.cpp:490] inception_3a/pool -> inception_3a/pool
I0906 15:40:55.890152 34497 net.cpp:153] Setting up inception_3a/pool
I0906 15:40:55.890179 34497 net.cpp:160] Top shape: 50 192 28 28 (7526400)
I0906 15:40:55.890187 34497 net.cpp:168] Memory required for data: 1159067600
I0906 15:40:55.890192 34497 layer_factory.hpp:77] Creating layer inception_3a/pool_proj
I0906 15:40:55.890205 34497 net.cpp:115] Creating Layer inception_3a/pool_proj
I0906 15:40:55.890231 34497 net.cpp:516] inception_3a/pool_proj <- inception_3a/pool
I0906 15:40:55.890241 34497 net.cpp:490] inception_3a/pool_proj -> inception_3a/pool_proj
I0906 15:40:55.890558 34497 net.cpp:153] Setting up inception_3a/pool_proj
I0906 15:40:55.890697 34497 net.cpp:160] Top shape: 50 32 28 28 (1254400)
I0906 15:40:55.890800 34497 net.cpp:168] Memory required for data: 1164085200
I0906 15:40:55.890887 34497 layer_factory.hpp:77] Creating layer inception_3a/relu_pool_proj
I0906 15:40:55.890965 34497 net.cpp:115] Creating Layer inception_3a/relu_pool_proj
I0906 15:40:55.891026 34497 net.cpp:516] inception_3a/relu_pool_proj <- inception_3a/pool_proj
I0906 15:40:55.891074 34497 net.cpp:477] inception_3a/relu_pool_proj -> inception_3a/pool_proj (in-place)
I0906 15:40:55.891130 34497 net.cpp:153] Setting up inception_3a/relu_pool_proj
I0906 15:40:55.891175 34497 net.cpp:160] Top shape: 50 32 28 28 (1254400)
I0906 15:40:55.891209 34497 net.cpp:168] Memory required for data: 1169102800
I0906 15:40:55.891245 34497 layer_factory.hpp:77] Creating layer inception_3a/output
I0906 15:40:55.891300 34497 net.cpp:115] Creating Layer inception_3a/output
I0906 15:40:55.891363 34497 net.cpp:516] inception_3a/output <- inception_3a/1x1
I0906 15:40:55.891433 34497 net.cpp:516] inception_3a/output <- inception_3a/3x3
I0906 15:40:55.891495 34497 net.cpp:516] inception_3a/output <- inception_3a/5x5
I0906 15:40:55.891607 34497 net.cpp:516] inception_3a/output <- inception_3a/pool_proj
I0906 15:40:55.891682 34497 net.cpp:490] inception_3a/output -> inception_3a/output
I0906 15:40:55.891887 34497 net.cpp:153] Setting up inception_3a/output
I0906 15:40:55.891984 34497 net.cpp:160] Top shape: 50 256 28 28 (10035200)
I0906 15:40:55.892043 34497 net.cpp:168] Memory required for data: 1209243600
I0906 15:40:55.892081 34497 layer_factory.hpp:77] Creating layer inception_3a/output_inception_3a/output_0_split
I0906 15:40:55.892122 34497 net.cpp:115] Creating Layer inception_3a/output_inception_3a/output_0_split
I0906 15:40:55.892163 34497 net.cpp:516] inception_3a/output_inception_3a/output_0_split <- inception_3a/output
I0906 15:40:55.892223 34497 net.cpp:490] inception_3a/output_inception_3a/output_0_split -> inception_3a/output_inception_3a/output_0_split_0
I0906 15:40:55.892298 34497 net.cpp:490] inception_3a/output_inception_3a/output_0_split -> inception_3a/output_inception_3a/output_0_split_1
I0906 15:40:55.892397 34497 net.cpp:490] inception_3a/output_inception_3a/output_0_split -> inception_3a/output_inception_3a/output_0_split_2
I0906 15:40:55.892467 34497 net.cpp:490] inception_3a/output_inception_3a/output_0_split -> inception_3a/output_inception_3a/output_0_split_3
I0906 15:40:55.892542 34497 net.cpp:153] Setting up inception_3a/output_inception_3a/output_0_split
I0906 15:40:55.892556 34497 net.cpp:160] Top shape: 50 256 28 28 (10035200)
I0906 15:40:55.892563 34497 net.cpp:160] Top shape: 50 256 28 28 (10035200)
I0906 15:40:55.892570 34497 net.cpp:160] Top shape: 50 256 28 28 (10035200)
I0906 15:40:55.892575 34497 net.cpp:160] Top shape: 50 256 28 28 (10035200)
I0906 15:40:55.892580 34497 net.cpp:168] Memory required for data: 1369806800
I0906 15:40:55.892586 34497 layer_factory.hpp:77] Creating layer inception_3b/1x1
I0906 15:40:55.892601 34497 net.cpp:115] Creating Layer inception_3b/1x1
I0906 15:40:55.892617 34497 net.cpp:516] inception_3b/1x1 <- inception_3a/output_inception_3a/output_0_split_0
I0906 15:40:55.892657 34497 net.cpp:490] inception_3b/1x1 -> inception_3b/1x1
I0906 15:40:55.893828 34497 net.cpp:153] Setting up inception_3b/1x1
I0906 15:40:55.894002 34497 net.cpp:160] Top shape: 50 128 28 28 (5017600)
I0906 15:40:55.894050 34497 net.cpp:168] Memory required for data: 1389877200
I0906 15:40:55.894098 34497 layer_factory.hpp:77] Creating layer inception_3b/relu_1x1
I0906 15:40:55.894177 34497 net.cpp:115] Creating Layer inception_3b/relu_1x1
I0906 15:40:55.894198 34497 net.cpp:516] inception_3b/relu_1x1 <- inception_3b/1x1
I0906 15:40:55.894244 34497 net.cpp:477] inception_3b/relu_1x1 -> inception_3b/1x1 (in-place)
I0906 15:40:55.894291 34497 net.cpp:153] Setting up inception_3b/relu_1x1
I0906 15:40:55.894335 34497 net.cpp:160] Top shape: 50 128 28 28 (5017600)
I0906 15:40:55.894378 34497 net.cpp:168] Memory required for data: 1409947600
I0906 15:40:55.894421 34497 layer_factory.hpp:77] Creating layer inception_3b/3x3_reduce
I0906 15:40:55.894474 34497 net.cpp:115] Creating Layer inception_3b/3x3_reduce
I0906 15:40:55.894489 34497 net.cpp:516] inception_3b/3x3_reduce <- inception_3a/output_inception_3a/output_0_split_1
I0906 15:40:55.894500 34497 net.cpp:490] inception_3b/3x3_reduce -> inception_3b/3x3_reduce
I0906 15:40:55.895223 34497 net.cpp:153] Setting up inception_3b/3x3_reduce
I0906 15:40:55.895275 34497 net.cpp:160] Top shape: 50 128 28 28 (5017600)
I0906 15:40:55.895320 34497 net.cpp:168] Memory required for data: 1430018000
I0906 15:40:55.895370 34497 layer_factory.hpp:77] Creating layer inception_3b/relu_3x3_reduce
I0906 15:40:55.895437 34497 net.cpp:115] Creating Layer inception_3b/relu_3x3_reduce
I0906 15:40:55.895465 34497 net.cpp:516] inception_3b/relu_3x3_reduce <- inception_3b/3x3_reduce
I0906 15:40:55.895478 34497 net.cpp:477] inception_3b/relu_3x3_reduce -> inception_3b/3x3_reduce (in-place)
I0906 15:40:55.895525 34497 net.cpp:153] Setting up inception_3b/relu_3x3_reduce
I0906 15:40:55.895583 34497 net.cpp:160] Top shape: 50 128 28 28 (5017600)
I0906 15:40:55.895638 34497 net.cpp:168] Memory required for data: 1450088400
I0906 15:40:55.895716 34497 layer_factory.hpp:77] Creating layer inception_3b/3x3
I0906 15:40:55.895836 34497 net.cpp:115] Creating Layer inception_3b/3x3
I0906 15:40:55.895917 34497 net.cpp:516] inception_3b/3x3 <- inception_3b/3x3_reduce
I0906 15:40:55.895977 34497 net.cpp:490] inception_3b/3x3 -> inception_3b/3x3
I0906 15:40:55.898283 34497 net.cpp:153] Setting up inception_3b/3x3
I0906 15:40:55.898315 34497 net.cpp:160] Top shape: 50 192 28 28 (7526400)
I0906 15:40:55.898321 34497 net.cpp:168] Memory required for data: 1480194000
I0906 15:40:55.898331 34497 layer_factory.hpp:77] Creating layer inception_3b/relu_3x3
I0906 15:40:55.898344 34497 net.cpp:115] Creating Layer inception_3b/relu_3x3
I0906 15:40:55.898351 34497 net.cpp:516] inception_3b/relu_3x3 <- inception_3b/3x3
I0906 15:40:55.898360 34497 net.cpp:477] inception_3b/relu_3x3 -> inception_3b/3x3 (in-place)
I0906 15:40:55.898370 34497 net.cpp:153] Setting up inception_3b/relu_3x3
I0906 15:40:55.898376 34497 net.cpp:160] Top shape: 50 192 28 28 (7526400)
I0906 15:40:55.898381 34497 net.cpp:168] Memory required for data: 1510299600
I0906 15:40:55.898386 34497 layer_factory.hpp:77] Creating layer inception_3b/5x5_reduce
I0906 15:40:55.898401 34497 net.cpp:115] Creating Layer inception_3b/5x5_reduce
I0906 15:40:55.898408 34497 net.cpp:516] inception_3b/5x5_reduce <- inception_3a/output_inception_3a/output_0_split_2
I0906 15:40:55.898418 34497 net.cpp:490] inception_3b/5x5_reduce -> inception_3b/5x5_reduce
I0906 15:40:55.898706 34497 net.cpp:153] Setting up inception_3b/5x5_reduce
I0906 15:40:55.898727 34497 net.cpp:160] Top shape: 50 32 28 28 (1254400)
I0906 15:40:55.898736 34497 net.cpp:168] Memory required for data: 1515317200
I0906 15:40:55.898752 34497 layer_factory.hpp:77] Creating layer inception_3b/relu_5x5_reduce
I0906 15:40:55.898778 34497 net.cpp:115] Creating Layer inception_3b/relu_5x5_reduce
I0906 15:40:55.898792 34497 net.cpp:516] inception_3b/relu_5x5_reduce <- inception_3b/5x5_reduce
I0906 15:40:55.898807 34497 net.cpp:477] inception_3b/relu_5x5_reduce -> inception_3b/5x5_reduce (in-place)
I0906 15:40:55.898823 34497 net.cpp:153] Setting up inception_3b/relu_5x5_reduce
I0906 15:40:55.898841 34497 net.cpp:160] Top shape: 50 32 28 28 (1254400)
I0906 15:40:55.898852 34497 net.cpp:168] Memory required for data: 1520334800
I0906 15:40:55.898900 34497 layer_factory.hpp:77] Creating layer inception_3b/5x5
I0906 15:40:55.898936 34497 net.cpp:115] Creating Layer inception_3b/5x5
I0906 15:40:55.898946 34497 net.cpp:516] inception_3b/5x5 <- inception_3b/5x5_reduce
I0906 15:40:55.898957 34497 net.cpp:490] inception_3b/5x5 -> inception_3b/5x5
I0906 15:40:55.899960 34497 net.cpp:153] Setting up inception_3b/5x5
I0906 15:40:55.899993 34497 net.cpp:160] Top shape: 50 96 28 28 (3763200)
I0906 15:40:55.900002 34497 net.cpp:168] Memory required for data: 1535387600
I0906 15:40:55.900018 34497 layer_factory.hpp:77] Creating layer inception_3b/relu_5x5
I0906 15:40:55.900038 34497 net.cpp:115] Creating Layer inception_3b/relu_5x5
I0906 15:40:55.900053 34497 net.cpp:516] inception_3b/relu_5x5 <- inception_3b/5x5
I0906 15:40:55.900068 34497 net.cpp:477] inception_3b/relu_5x5 -> inception_3b/5x5 (in-place)
I0906 15:40:55.900086 34497 net.cpp:153] Setting up inception_3b/relu_5x5
I0906 15:40:55.900104 34497 net.cpp:160] Top shape: 50 96 28 28 (3763200)
I0906 15:40:55.900173 34497 net.cpp:168] Memory required for data: 1550440400
I0906 15:40:55.900214 34497 layer_factory.hpp:77] Creating layer inception_3b/pool
I0906 15:40:55.900241 34497 net.cpp:115] Creating Layer inception_3b/pool
I0906 15:40:55.900296 34497 net.cpp:516] inception_3b/pool <- inception_3a/output_inception_3a/output_0_split_3
I0906 15:40:55.900355 34497 net.cpp:490] inception_3b/pool -> inception_3b/pool
I0906 15:40:55.900462 34497 net.cpp:153] Setting up inception_3b/pool
I0906 15:40:55.900496 34497 net.cpp:160] Top shape: 50 256 28 28 (10035200)
I0906 15:40:55.900514 34497 net.cpp:168] Memory required for data: 1590581200
I0906 15:40:55.900583 34497 layer_factory.hpp:77] Creating layer inception_3b/pool_proj
I0906 15:40:55.900653 34497 net.cpp:115] Creating Layer inception_3b/pool_proj
I0906 15:40:55.900739 34497 net.cpp:516] inception_3b/pool_proj <- inception_3b/pool
I0906 15:40:55.900962 34497 net.cpp:490] inception_3b/pool_proj -> inception_3b/pool_proj
I0906 15:40:55.901733 34497 net.cpp:153] Setting up inception_3b/pool_proj
I0906 15:40:55.901835 34497 net.cpp:160] Top shape: 50 64 28 28 (2508800)
I0906 15:40:55.901898 34497 net.cpp:168] Memory required for data: 1600616400
I0906 15:40:55.901980 34497 layer_factory.hpp:77] Creating layer inception_3b/relu_pool_proj
I0906 15:40:55.902139 34497 net.cpp:115] Creating Layer inception_3b/relu_pool_proj
I0906 15:40:55.902215 34497 net.cpp:516] inception_3b/relu_pool_proj <- inception_3b/pool_proj
I0906 15:40:55.902290 34497 net.cpp:477] inception_3b/relu_pool_proj -> inception_3b/pool_proj (in-place)
I0906 15:40:55.902360 34497 net.cpp:153] Setting up inception_3b/relu_pool_proj
I0906 15:40:55.902415 34497 net.cpp:160] Top shape: 50 64 28 28 (2508800)
I0906 15:40:55.902448 34497 net.cpp:168] Memory required for data: 1610651600
I0906 15:40:55.902467 34497 layer_factory.hpp:77] Creating layer inception_3b/output
I0906 15:40:55.902482 34497 net.cpp:115] Creating Layer inception_3b/output
I0906 15:40:55.902494 34497 net.cpp:516] inception_3b/output <- inception_3b/1x1
I0906 15:40:55.902510 34497 net.cpp:516] inception_3b/output <- inception_3b/3x3
I0906 15:40:55.902556 34497 net.cpp:516] inception_3b/output <- inception_3b/5x5
I0906 15:40:55.902598 34497 net.cpp:516] inception_3b/output <- inception_3b/pool_proj
I0906 15:40:55.902616 34497 net.cpp:490] inception_3b/output -> inception_3b/output
I0906 15:40:55.902736 34497 net.cpp:153] Setting up inception_3b/output
I0906 15:40:55.902806 34497 net.cpp:160] Top shape: 50 480 28 28 (18816000)
I0906 15:40:55.902819 34497 net.cpp:168] Memory required for data: 1685915600
I0906 15:40:55.902825 34497 layer_factory.hpp:77] Creating layer pool3/3x3_s2
I0906 15:40:55.902835 34497 net.cpp:115] Creating Layer pool3/3x3_s2
I0906 15:40:55.902842 34497 net.cpp:516] pool3/3x3_s2 <- inception_3b/output
I0906 15:40:55.902850 34497 net.cpp:490] pool3/3x3_s2 -> pool3/3x3_s2
I0906 15:40:55.902894 34497 net.cpp:153] Setting up pool3/3x3_s2
I0906 15:40:55.902906 34497 net.cpp:160] Top shape: 50 480 14 14 (4704000)
I0906 15:40:55.902933 34497 net.cpp:168] Memory required for data: 1704731600
I0906 15:40:55.902940 34497 layer_factory.hpp:77] Creating layer pool3/3x3_s2_pool3/3x3_s2_0_split
I0906 15:40:55.902950 34497 net.cpp:115] Creating Layer pool3/3x3_s2_pool3/3x3_s2_0_split
I0906 15:40:55.902954 34497 net.cpp:516] pool3/3x3_s2_pool3/3x3_s2_0_split <- pool3/3x3_s2
I0906 15:40:55.902962 34497 net.cpp:490] pool3/3x3_s2_pool3/3x3_s2_0_split -> pool3/3x3_s2_pool3/3x3_s2_0_split_0
I0906 15:40:55.902972 34497 net.cpp:490] pool3/3x3_s2_pool3/3x3_s2_0_split -> pool3/3x3_s2_pool3/3x3_s2_0_split_1
I0906 15:40:55.902982 34497 net.cpp:490] pool3/3x3_s2_pool3/3x3_s2_0_split -> pool3/3x3_s2_pool3/3x3_s2_0_split_2
I0906 15:40:55.902990 34497 net.cpp:490] pool3/3x3_s2_pool3/3x3_s2_0_split -> pool3/3x3_s2_pool3/3x3_s2_0_split_3
I0906 15:40:55.903046 34497 net.cpp:153] Setting up pool3/3x3_s2_pool3/3x3_s2_0_split
I0906 15:40:55.903057 34497 net.cpp:160] Top shape: 50 480 14 14 (4704000)
I0906 15:40:55.903064 34497 net.cpp:160] Top shape: 50 480 14 14 (4704000)
I0906 15:40:55.903071 34497 net.cpp:160] Top shape: 50 480 14 14 (4704000)
I0906 15:40:55.903076 34497 net.cpp:160] Top shape: 50 480 14 14 (4704000)
I0906 15:40:55.903081 34497 net.cpp:168] Memory required for data: 1779995600
I0906 15:40:55.903086 34497 layer_factory.hpp:77] Creating layer inception_4a/1x1
I0906 15:40:55.903098 34497 net.cpp:115] Creating Layer inception_4a/1x1
I0906 15:40:55.903106 34497 net.cpp:516] inception_4a/1x1 <- pool3/3x3_s2_pool3/3x3_s2_0_split_0
I0906 15:40:55.903116 34497 net.cpp:490] inception_4a/1x1 -> inception_4a/1x1
I0906 15:40:55.905313 34497 net.cpp:153] Setting up inception_4a/1x1
I0906 15:40:55.905336 34497 net.cpp:160] Top shape: 50 192 14 14 (1881600)
I0906 15:40:55.905341 34497 net.cpp:168] Memory required for data: 1787522000
I0906 15:40:55.905351 34497 layer_factory.hpp:77] Creating layer inception_4a/relu_1x1
I0906 15:40:55.905362 34497 net.cpp:115] Creating Layer inception_4a/relu_1x1
I0906 15:40:55.905369 34497 net.cpp:516] inception_4a/relu_1x1 <- inception_4a/1x1
I0906 15:40:55.905377 34497 net.cpp:477] inception_4a/relu_1x1 -> inception_4a/1x1 (in-place)
I0906 15:40:55.905387 34497 net.cpp:153] Setting up inception_4a/relu_1x1
I0906 15:40:55.905396 34497 net.cpp:160] Top shape: 50 192 14 14 (1881600)
I0906 15:40:55.905401 34497 net.cpp:168] Memory required for data: 1795048400
I0906 15:40:55.905406 34497 layer_factory.hpp:77] Creating layer inception_4a/3x3_reduce
I0906 15:40:55.905418 34497 net.cpp:115] Creating Layer inception_4a/3x3_reduce
I0906 15:40:55.905426 34497 net.cpp:516] inception_4a/3x3_reduce <- pool3/3x3_s2_pool3/3x3_s2_0_split_1
I0906 15:40:55.905436 34497 net.cpp:490] inception_4a/3x3_reduce -> inception_4a/3x3_reduce
I0906 15:40:55.905951 34497 net.cpp:153] Setting up inception_4a/3x3_reduce
I0906 15:40:55.905966 34497 net.cpp:160] Top shape: 50 96 14 14 (940800)
I0906 15:40:55.905972 34497 net.cpp:168] Memory required for data: 1798811600
I0906 15:40:55.905988 34497 layer_factory.hpp:77] Creating layer inception_4a/relu_3x3_reduce
I0906 15:40:55.905997 34497 net.cpp:115] Creating Layer inception_4a/relu_3x3_reduce
I0906 15:40:55.906002 34497 net.cpp:516] inception_4a/relu_3x3_reduce <- inception_4a/3x3_reduce
I0906 15:40:55.906009 34497 net.cpp:477] inception_4a/relu_3x3_reduce -> inception_4a/3x3_reduce (in-place)
I0906 15:40:55.906018 34497 net.cpp:153] Setting up inception_4a/relu_3x3_reduce
I0906 15:40:55.906024 34497 net.cpp:160] Top shape: 50 96 14 14 (940800)
I0906 15:40:55.906028 34497 net.cpp:168] Memory required for data: 1802574800
I0906 15:40:55.906033 34497 layer_factory.hpp:77] Creating layer inception_4a/3x3
I0906 15:40:55.906044 34497 net.cpp:115] Creating Layer inception_4a/3x3
I0906 15:40:55.906051 34497 net.cpp:516] inception_4a/3x3 <- inception_4a/3x3_reduce
I0906 15:40:55.906060 34497 net.cpp:490] inception_4a/3x3 -> inception_4a/3x3
I0906 15:40:55.907361 34497 net.cpp:153] Setting up inception_4a/3x3
I0906 15:40:55.907378 34497 net.cpp:160] Top shape: 50 208 14 14 (2038400)
I0906 15:40:55.907384 34497 net.cpp:168] Memory required for data: 1810728400
I0906 15:40:55.907413 34497 layer_factory.hpp:77] Creating layer inception_4a/relu_3x3
I0906 15:40:55.907423 34497 net.cpp:115] Creating Layer inception_4a/relu_3x3
I0906 15:40:55.907428 34497 net.cpp:516] inception_4a/relu_3x3 <- inception_4a/3x3
I0906 15:40:55.907435 34497 net.cpp:477] inception_4a/relu_3x3 -> inception_4a/3x3 (in-place)
I0906 15:40:55.907456 34497 net.cpp:153] Setting up inception_4a/relu_3x3
I0906 15:40:55.907464 34497 net.cpp:160] Top shape: 50 208 14 14 (2038400)
I0906 15:40:55.907469 34497 net.cpp:168] Memory required for data: 1818882000
I0906 15:40:55.907474 34497 layer_factory.hpp:77] Creating layer inception_4a/5x5_reduce
I0906 15:40:55.907485 34497 net.cpp:115] Creating Layer inception_4a/5x5_reduce
I0906 15:40:55.907491 34497 net.cpp:516] inception_4a/5x5_reduce <- pool3/3x3_s2_pool3/3x3_s2_0_split_2
I0906 15:40:55.907500 34497 net.cpp:490] inception_4a/5x5_reduce -> inception_4a/5x5_reduce
I0906 15:40:55.907762 34497 net.cpp:153] Setting up inception_4a/5x5_reduce
I0906 15:40:55.907775 34497 net.cpp:160] Top shape: 50 16 14 14 (156800)
I0906 15:40:55.907783 34497 net.cpp:168] Memory required for data: 1819509200
I0906 15:40:55.907791 34497 layer_factory.hpp:77] Creating layer inception_4a/relu_5x5_reduce
I0906 15:40:55.907799 34497 net.cpp:115] Creating Layer inception_4a/relu_5x5_reduce
I0906 15:40:55.907805 34497 net.cpp:516] inception_4a/relu_5x5_reduce <- inception_4a/5x5_reduce
I0906 15:40:55.907812 34497 net.cpp:477] inception_4a/relu_5x5_reduce -> inception_4a/5x5_reduce (in-place)
I0906 15:40:55.907820 34497 net.cpp:153] Setting up inception_4a/relu_5x5_reduce
I0906 15:40:55.907827 34497 net.cpp:160] Top shape: 50 16 14 14 (156800)
I0906 15:40:55.907831 34497 net.cpp:168] Memory required for data: 1820136400
I0906 15:40:55.907836 34497 layer_factory.hpp:77] Creating layer inception_4a/5x5
I0906 15:40:55.907847 34497 net.cpp:115] Creating Layer inception_4a/5x5
I0906 15:40:55.907873 34497 net.cpp:516] inception_4a/5x5 <- inception_4a/5x5_reduce
I0906 15:40:55.907883 34497 net.cpp:490] inception_4a/5x5 -> inception_4a/5x5
I0906 15:40:55.908215 34497 net.cpp:153] Setting up inception_4a/5x5
I0906 15:40:55.908229 34497 net.cpp:160] Top shape: 50 48 14 14 (470400)
I0906 15:40:55.908236 34497 net.cpp:168] Memory required for data: 1822018000
I0906 15:40:55.908242 34497 layer_factory.hpp:77] Creating layer inception_4a/relu_5x5
I0906 15:40:55.908252 34497 net.cpp:115] Creating Layer inception_4a/relu_5x5
I0906 15:40:55.908257 34497 net.cpp:516] inception_4a/relu_5x5 <- inception_4a/5x5
I0906 15:40:55.908264 34497 net.cpp:477] inception_4a/relu_5x5 -> inception_4a/5x5 (in-place)
I0906 15:40:55.908272 34497 net.cpp:153] Setting up inception_4a/relu_5x5
I0906 15:40:55.908278 34497 net.cpp:160] Top shape: 50 48 14 14 (470400)
I0906 15:40:55.908282 34497 net.cpp:168] Memory required for data: 1823899600
I0906 15:40:55.908288 34497 layer_factory.hpp:77] Creating layer inception_4a/pool
I0906 15:40:55.908296 34497 net.cpp:115] Creating Layer inception_4a/pool
I0906 15:40:55.908301 34497 net.cpp:516] inception_4a/pool <- pool3/3x3_s2_pool3/3x3_s2_0_split_3
I0906 15:40:55.908308 34497 net.cpp:490] inception_4a/pool -> inception_4a/pool
I0906 15:40:55.908354 34497 net.cpp:153] Setting up inception_4a/pool
I0906 15:40:55.908365 34497 net.cpp:160] Top shape: 50 480 14 14 (4704000)
I0906 15:40:55.908370 34497 net.cpp:168] Memory required for data: 1842715600
I0906 15:40:55.908375 34497 layer_factory.hpp:77] Creating layer inception_4a/pool_proj
I0906 15:40:55.908386 34497 net.cpp:115] Creating Layer inception_4a/pool_proj
I0906 15:40:55.908392 34497 net.cpp:516] inception_4a/pool_proj <- inception_4a/pool
I0906 15:40:55.908401 34497 net.cpp:490] inception_4a/pool_proj -> inception_4a/pool_proj
I0906 15:40:55.908816 34497 net.cpp:153] Setting up inception_4a/pool_proj
I0906 15:40:55.908831 34497 net.cpp:160] Top shape: 50 64 14 14 (627200)
I0906 15:40:55.908836 34497 net.cpp:168] Memory required for data: 1845224400
I0906 15:40:55.908844 34497 layer_factory.hpp:77] Creating layer inception_4a/relu_pool_proj
I0906 15:40:55.908864 34497 net.cpp:115] Creating Layer inception_4a/relu_pool_proj
I0906 15:40:55.908871 34497 net.cpp:516] inception_4a/relu_pool_proj <- inception_4a/pool_proj
I0906 15:40:55.908879 34497 net.cpp:477] inception_4a/relu_pool_proj -> inception_4a/pool_proj (in-place)
I0906 15:40:55.908886 34497 net.cpp:153] Setting up inception_4a/relu_pool_proj
I0906 15:40:55.908893 34497 net.cpp:160] Top shape: 50 64 14 14 (627200)
I0906 15:40:55.908897 34497 net.cpp:168] Memory required for data: 1847733200
I0906 15:40:55.908902 34497 layer_factory.hpp:77] Creating layer inception_4a/output
I0906 15:40:55.908910 34497 net.cpp:115] Creating Layer inception_4a/output
I0906 15:40:55.908915 34497 net.cpp:516] inception_4a/output <- inception_4a/1x1
I0906 15:40:55.908924 34497 net.cpp:516] inception_4a/output <- inception_4a/3x3
I0906 15:40:55.908931 34497 net.cpp:516] inception_4a/output <- inception_4a/5x5
I0906 15:40:55.908936 34497 net.cpp:516] inception_4a/output <- inception_4a/pool_proj
I0906 15:40:55.908943 34497 net.cpp:490] inception_4a/output -> inception_4a/output
I0906 15:40:55.908972 34497 net.cpp:153] Setting up inception_4a/output
I0906 15:40:55.908984 34497 net.cpp:160] Top shape: 50 512 14 14 (5017600)
I0906 15:40:55.908989 34497 net.cpp:168] Memory required for data: 1867803600
I0906 15:40:55.908994 34497 layer_factory.hpp:77] Creating layer inception_4a/output_inception_4a/output_0_split
I0906 15:40:55.909003 34497 net.cpp:115] Creating Layer inception_4a/output_inception_4a/output_0_split
I0906 15:40:55.909013 34497 net.cpp:516] inception_4a/output_inception_4a/output_0_split <- inception_4a/output
I0906 15:40:55.909021 34497 net.cpp:490] inception_4a/output_inception_4a/output_0_split -> inception_4a/output_inception_4a/output_0_split_0
I0906 15:40:55.909030 34497 net.cpp:490] inception_4a/output_inception_4a/output_0_split -> inception_4a/output_inception_4a/output_0_split_1
I0906 15:40:55.909039 34497 net.cpp:490] inception_4a/output_inception_4a/output_0_split -> inception_4a/output_inception_4a/output_0_split_2
I0906 15:40:55.909046 34497 net.cpp:490] inception_4a/output_inception_4a/output_0_split -> inception_4a/output_inception_4a/output_0_split_3
I0906 15:40:55.909054 34497 net.cpp:490] inception_4a/output_inception_4a/output_0_split -> inception_4a/output_inception_4a/output_0_split_4
I0906 15:40:55.909118 34497 net.cpp:153] Setting up inception_4a/output_inception_4a/output_0_split
I0906 15:40:55.909129 34497 net.cpp:160] Top shape: 50 512 14 14 (5017600)
I0906 15:40:55.909135 34497 net.cpp:160] Top shape: 50 512 14 14 (5017600)
I0906 15:40:55.909142 34497 net.cpp:160] Top shape: 50 512 14 14 (5017600)
I0906 15:40:55.909147 34497 net.cpp:160] Top shape: 50 512 14 14 (5017600)
I0906 15:40:55.909152 34497 net.cpp:160] Top shape: 50 512 14 14 (5017600)
I0906 15:40:55.909157 34497 net.cpp:168] Memory required for data: 1968155600
I0906 15:40:55.909162 34497 layer_factory.hpp:77] Creating layer loss1/ave_pool
I0906 15:40:55.909169 34497 net.cpp:115] Creating Layer loss1/ave_pool
I0906 15:40:55.909175 34497 net.cpp:516] loss1/ave_pool <- inception_4a/output_inception_4a/output_0_split_0
I0906 15:40:55.909183 34497 net.cpp:490] loss1/ave_pool -> loss1/ave_pool
I0906 15:40:55.909209 34497 net.cpp:153] Setting up loss1/ave_pool
I0906 15:40:55.909220 34497 net.cpp:160] Top shape: 50 512 4 4 (409600)
I0906 15:40:55.909225 34497 net.cpp:168] Memory required for data: 1969794000
I0906 15:40:55.909230 34497 layer_factory.hpp:77] Creating layer loss1/conv
I0906 15:40:55.909242 34497 net.cpp:115] Creating Layer loss1/conv
I0906 15:40:55.909248 34497 net.cpp:516] loss1/conv <- loss1/ave_pool
I0906 15:40:55.909256 34497 net.cpp:490] loss1/conv -> loss1/conv
I0906 15:40:55.909883 34497 net.cpp:153] Setting up loss1/conv
I0906 15:40:55.909898 34497 net.cpp:160] Top shape: 50 128 4 4 (102400)
I0906 15:40:55.909904 34497 net.cpp:168] Memory required for data: 1970203600
I0906 15:40:55.909911 34497 layer_factory.hpp:77] Creating layer loss1/relu_conv
I0906 15:40:55.909932 34497 net.cpp:115] Creating Layer loss1/relu_conv
I0906 15:40:55.909940 34497 net.cpp:516] loss1/relu_conv <- loss1/conv
I0906 15:40:55.909946 34497 net.cpp:477] loss1/relu_conv -> loss1/conv (in-place)
I0906 15:40:55.909955 34497 net.cpp:153] Setting up loss1/relu_conv
I0906 15:40:55.909965 34497 net.cpp:160] Top shape: 50 128 4 4 (102400)
I0906 15:40:55.909970 34497 net.cpp:168] Memory required for data: 1970613200
I0906 15:40:55.909974 34497 layer_factory.hpp:77] Creating layer loss1/fc
I0906 15:40:55.909991 34497 net.cpp:115] Creating Layer loss1/fc
I0906 15:40:55.909997 34497 net.cpp:516] loss1/fc <- loss1/conv
I0906 15:40:55.910006 34497 net.cpp:490] loss1/fc -> loss1/fc
I0906 15:40:55.927651 34497 net.cpp:153] Setting up loss1/fc
I0906 15:40:55.927687 34497 net.cpp:160] Top shape: 50 1024 (51200)
I0906 15:40:55.927695 34497 net.cpp:168] Memory required for data: 1970818000
I0906 15:40:55.927706 34497 layer_factory.hpp:77] Creating layer loss1/relu_fc
I0906 15:40:55.927721 34497 net.cpp:115] Creating Layer loss1/relu_fc
I0906 15:40:55.927731 34497 net.cpp:516] loss1/relu_fc <- loss1/fc
I0906 15:40:55.927742 34497 net.cpp:477] loss1/relu_fc -> loss1/fc (in-place)
I0906 15:40:55.927753 34497 net.cpp:153] Setting up loss1/relu_fc
I0906 15:40:55.927763 34497 net.cpp:160] Top shape: 50 1024 (51200)
I0906 15:40:55.927768 34497 net.cpp:168] Memory required for data: 1971022800
I0906 15:40:55.927773 34497 layer_factory.hpp:77] Creating layer loss1/drop_fc
I0906 15:40:55.927800 34497 net.cpp:115] Creating Layer loss1/drop_fc
I0906 15:40:55.927806 34497 net.cpp:516] loss1/drop_fc <- loss1/fc
I0906 15:40:55.927814 34497 net.cpp:477] loss1/drop_fc -> loss1/fc (in-place)
I0906 15:40:55.927852 34497 net.cpp:153] Setting up loss1/drop_fc
I0906 15:40:55.927863 34497 net.cpp:160] Top shape: 50 1024 (51200)
I0906 15:40:55.927870 34497 net.cpp:168] Memory required for data: 1971227600
I0906 15:40:55.927875 34497 layer_factory.hpp:77] Creating layer loss1/classifier
I0906 15:40:55.927887 34497 net.cpp:115] Creating Layer loss1/classifier
I0906 15:40:55.927892 34497 net.cpp:516] loss1/classifier <- loss1/fc
I0906 15:40:55.927914 34497 net.cpp:490] loss1/classifier -> loss1/classifier
I0906 15:40:55.936631 34497 net.cpp:153] Setting up loss1/classifier
I0906 15:40:55.936671 34497 net.cpp:160] Top shape: 50 1000 (50000)
I0906 15:40:55.936677 34497 net.cpp:168] Memory required for data: 1971427600
I0906 15:40:55.936691 34497 layer_factory.hpp:77] Creating layer loss1/classifier_loss1/classifier_0_split
I0906 15:40:55.936704 34497 net.cpp:115] Creating Layer loss1/classifier_loss1/classifier_0_split
I0906 15:40:55.936713 34497 net.cpp:516] loss1/classifier_loss1/classifier_0_split <- loss1/classifier
I0906 15:40:55.936725 34497 net.cpp:490] loss1/classifier_loss1/classifier_0_split -> loss1/classifier_loss1/classifier_0_split_0
I0906 15:40:55.936746 34497 net.cpp:490] loss1/classifier_loss1/classifier_0_split -> loss1/classifier_loss1/classifier_0_split_1
I0906 15:40:55.936758 34497 net.cpp:490] loss1/classifier_loss1/classifier_0_split -> loss1/classifier_loss1/classifier_0_split_2
I0906 15:40:55.936820 34497 net.cpp:153] Setting up loss1/classifier_loss1/classifier_0_split
I0906 15:40:55.936836 34497 net.cpp:160] Top shape: 50 1000 (50000)
I0906 15:40:55.936841 34497 net.cpp:160] Top shape: 50 1000 (50000)
I0906 15:40:55.936847 34497 net.cpp:160] Top shape: 50 1000 (50000)
I0906 15:40:55.936852 34497 net.cpp:168] Memory required for data: 1972027600
I0906 15:40:55.936857 34497 layer_factory.hpp:77] Creating layer loss1/loss
I0906 15:40:55.936873 34497 net.cpp:115] Creating Layer loss1/loss
I0906 15:40:55.936880 34497 net.cpp:516] loss1/loss <- loss1/classifier_loss1/classifier_0_split_0
I0906 15:40:55.936888 34497 net.cpp:516] loss1/loss <- label_data_1_split_0
…
I0906 15:40:55.937296 34497 net.cpp:153] Setting up loss1/top-5
I0906 15:40:55.937305 34497 net.cpp:160] Top shape: (1)
I0906 15:40:55.937310 34497 net.cpp:168] Memory required for data: 1972027612
I0906 15:40:55.937315 34497 layer_factory.hpp:77] Creating layer inception_4b/1x1
I0906 15:40:55.937330 34497 net.cpp:115] Creating Layer inception_4b/1x1
I0906 15:40:55.937337 34497 net.cpp:516] inception_4b/1x1 <- inception_4a/output_inception_4a/output_0_split_1
I0906 15:40:55.937346 34497 net.cpp:490] inception_4b/1x1 -> inception_4b/1x1
I0906 15:40:55.938099 34497 net.cpp:153] Setting up inception_4b/1x1
I0906 15:40:55.938114 34497 net.cpp:160] Top shape: 50 160 14 14 (1568000)
I0906 15:40:55.938120 34497 net.cpp:168] Memory required for data: 1978299612
I0906 15:40:55.938127 34497 layer_factory.hpp:77] Creating layer inception_4b/relu_1x1
I0906 15:40:55.938136 34497 net.cpp:115] Creating Layer inception_4b/relu_1x1
I0906 15:40:55.938143 34497 net.cpp:516] inception_4b/relu_1x1 <- inception_4b/1x1
I0906 15:40:55.938150 34497 net.cpp:477] inception_4b/relu_1x1 -> inception_4b/1x1 (in-place)
I0906 15:40:55.938158 34497 net.cpp:153] Setting up inception_4b/relu_1x1
I0906 15:40:55.938164 34497 net.cpp:160] Top shape: 50 160 14 14 (1568000)
I0906 15:40:55.938169 34497 net.cpp:168] Memory required for data: 1984571612
I0906 15:40:55.938174 34497 layer_factory.hpp:77] Creating layer inception_4b/3x3_reduce
I0906 15:40:55.938184 34497 net.cpp:115] Creating Layer inception_4b/3x3_reduce
I0906 15:40:55.938192 34497 net.cpp:516] inception_4b/3x3_reduce <- inception_4a/output_inception_4a/output_0_split_2
I0906 15:40:55.938201 34497 net.cpp:490] inception_4b/3x3_reduce -> inception_4b/3x3_reduce
I0906 15:40:55.938810 34497 net.cpp:153] Setting up inception_4b/3x3_reduce
I0906 15:40:55.938825 34497 net.cpp:160] Top shape: 50 112 14 14 (1097600)
I0906 15:40:55.938832 34497 net.cpp:168] Memory required for data: 1988962012
I0906 15:40:55.938838 34497 layer_factory.hpp:77] Creating layer inception_4b/relu_3x3_reduce
I0906 15:40:55.938846 34497 net.cpp:115] Creating Layer inception_4b/relu_3x3_reduce
I0906 15:40:55.938853 34497 net.cpp:516] inception_4b/relu_3x3_reduce <- inception_4b/3x3_reduce
I0906 15:40:55.938859 34497 net.cpp:477] inception_4b/relu_3x3_reduce -> inception_4b/3x3_reduce (in-place)
I0906 15:40:55.938868 34497 net.cpp:153] Setting up inception_4b/relu_3x3_reduce
I0906 15:40:55.938874 34497 net.cpp:160] Top shape: 50 112 14 14 (1097600)
I0906 15:40:55.938879 34497 net.cpp:168] Memory required for data: 1993352412
I0906 15:40:55.938884 34497 layer_factory.hpp:77] Creating layer inception_4b/3x3
I0906 15:40:55.938894 34497 net.cpp:115] Creating Layer inception_4b/3x3
I0906 15:40:55.938901 34497 net.cpp:516] inception_4b/3x3 <- inception_4b/3x3_reduce
I0906 15:40:55.938910 34497 net.cpp:490] inception_4b/3x3 -> inception_4b/3x3
I0906 15:40:55.942011 34497 net.cpp:153] Setting up inception_4b/3x3
I0906 15:40:55.942037 34497 net.cpp:160] Top shape: 50 224 14 14 (2195200)
I0906 15:40:55.942070 34497 net.cpp:168] Memory required for data: 2002133212
I0906 15:40:55.942081 34497 layer_factory.hpp:77] Creating layer inception_4b/relu_3x3
I0906 15:40:55.942091 34497 net.cpp:115] Creating Layer inception_4b/relu_3x3
I0906 15:40:55.942098 34497 net.cpp:516] inception_4b/relu_3x3 <- inception_4b/3x3
I0906 15:40:55.942107 34497 net.cpp:477] inception_4b/relu_3x3 -> inception_4b/3x3 (in-place)
I0906 15:40:55.942117 34497 net.cpp:153] Setting up inception_4b/relu_3x3
I0906 15:40:55.942126 34497 net.cpp:160] Top shape: 50 224 14 14 (2195200)
I0906 15:40:55.942131 34497 net.cpp:168] Memory required for data: 2010914012
I0906 15:40:55.942137 34497 layer_factory.hpp:77] Creating layer inception_4b/5x5_reduce
I0906 15:40:55.942148 34497 net.cpp:115] Creating Layer inception_4b/5x5_reduce
I0906 15:40:55.942157 34497 net.cpp:516] inception_4b/5x5_reduce <- inception_4a/output_inception_4a/output_0_split_3
I0906 15:40:55.942170 34497 net.cpp:490] inception_4b/5x5_reduce -> inception_4b/5x5_reduce
I0906 15:40:55.942487 34497 net.cpp:153] Setting up inception_4b/5x5_reduce
I0906 15:40:55.942502 34497 net.cpp:160] Top shape: 50 24 14 14 (235200)
I0906 15:40:55.942507 34497 net.cpp:168] Memory required for data: 2011854812
I0906 15:40:55.942514 34497 layer_factory.hpp:77] Creating layer inception_4b/relu_5x5_reduce
I0906 15:40:55.942522 34497 net.cpp:115] Creating Layer inception_4b/relu_5x5_reduce
I0906 15:40:55.942528 34497 net.cpp:516] inception_4b/relu_5x5_reduce <- inception_4b/5x5_reduce
I0906 15:40:55.942534 34497 net.cpp:477] inception_4b/relu_5x5_reduce -> inception_4b/5x5_reduce (in-place)
I0906 15:40:55.942541 34497 net.cpp:153] Setting up inception_4b/relu_5x5_reduce
I0906 15:40:55.942548 34497 net.cpp:160] Top shape: 50 24 14 14 (235200)
I0906 15:40:55.942553 34497 net.cpp:168] Memory required for data: 2012795612
I0906 15:40:55.942558 34497 layer_factory.hpp:77] Creating layer inception_4b/5x5
I0906 15:40:55.942571 34497 net.cpp:115] Creating Layer inception_4b/5x5
I0906 15:40:55.942580 34497 net.cpp:516] inception_4b/5x5 <- inception_4b/5x5_reduce
I0906 15:40:55.942589 34497 net.cpp:490] inception_4b/5x5 -> inception_4b/5x5
I0906 15:40:55.943066 34497 net.cpp:153] Setting up inception_4b/5x5
I0906 15:40:55.943080 34497 net.cpp:160] Top shape: 50 64 14 14 (627200)
I0906 15:40:55.943085 34497 net.cpp:168] Memory required for data: 2015304412
I0906 15:40:55.943094 34497 layer_factory.hpp:77] Creating layer inception_4b/relu_5x5
I0906 15:40:55.943100 34497 net.cpp:115] Creating Layer inception_4b/relu_5x5
I0906 15:40:55.943106 34497 net.cpp:516] inception_4b/relu_5x5 <- inception_4b/5x5
I0906 15:40:55.943116 34497 net.cpp:477] inception_4b/relu_5x5 -> inception_4b/5x5 (in-place)
I0906 15:40:55.943125 34497 net.cpp:153] Setting up inception_4b/relu_5x5
I0906 15:40:55.943131 34497 net.cpp:160] Top shape: 50 64 14 14 (627200)
I0906 15:40:55.943135 34497 net.cpp:168] Memory required for data: 2017813212
I0906 15:40:55.943140 34497 layer_factory.hpp:77] Creating layer inception_4b/pool
I0906 15:40:55.943150 34497 net.cpp:115] Creating Layer inception_4b/pool
I0906 15:40:55.943156 34497 net.cpp:516] inception_4b/pool <- inception_4a/output_inception_4a/output_0_split_4
I0906 15:40:55.943162 34497 net.cpp:490] inception_4b/pool -> inception_4b/pool
I0906 15:40:55.943209 34497 net.cpp:153] Setting up inception_4b/pool
I0906 15:40:55.943222 34497 net.cpp:160] Top shape: 50 512 14 14 (5017600)
I0906 15:40:55.943228 34497 net.cpp:168] Memory required for data: 2037883612
I0906 15:40:55.943233 34497 layer_factory.hpp:77] Creating layer inception_4b/pool_proj
I0906 15:40:55.943245 34497 net.cpp:115] Creating Layer inception_4b/pool_proj
I0906 15:40:55.943251 34497 net.cpp:516] inception_4b/pool_proj <- inception_4b/pool
I0906 15:40:55.943261 34497 net.cpp:490] inception_4b/pool_proj -> inception_4b/pool_proj
I0906 15:40:55.943682 34497 net.cpp:153] Setting up inception_4b/pool_proj
I0906 15:40:55.943697 34497 net.cpp:160] Top shape: 50 64 14 14 (627200)
I0906 15:40:55.943701 34497 net.cpp:168] Memory required for data: 2040392412
I0906 15:40:55.943722 34497 layer_factory.hpp:77] Creating layer inception_4b/relu_pool_proj
I0906 15:40:55.943733 34497 net.cpp:115] Creating Layer inception_4b/relu_pool_proj
I0906 15:40:55.943739 34497 net.cpp:516] inception_4b/relu_pool_proj <- inception_4b/pool_proj
I0906 15:40:55.943747 34497 net.cpp:477] inception_4b/relu_pool_proj -> inception_4b/pool_proj (in-place)
I0906 15:40:55.943754 34497 net.cpp:153] Setting up inception_4b/relu_pool_proj
I0906 15:40:55.943760 34497 net.cpp:160] Top shape: 50 64 14 14 (627200)
I0906 15:40:55.943764 34497 net.cpp:168] Memory required for data: 2042901212
I0906 15:40:55.943769 34497 layer_factory.hpp:77] Creating layer inception_4b/output
I0906 15:40:55.943778 34497 net.cpp:115] Creating Layer inception_4b/output
I0906 15:40:55.943783 34497 net.cpp:516] inception_4b/output <- inception_4b/1x1
I0906 15:40:55.943792 34497 net.cpp:516] inception_4b/output <- inception_4b/3x3
I0906 15:40:55.943799 34497 net.cpp:516] inception_4b/output <- inception_4b/5x5
I0906 15:40:55.943804 34497 net.cpp:516] inception_4b/output <- inception_4b/pool_proj
I0906 15:40:55.943815 34497 net.cpp:490] inception_4b/output -> inception_4b/output
I0906 15:40:55.943845 34497 net.cpp:153] Setting up inception_4b/output
I0906 15:40:55.943856 34497 net.cpp:160] Top shape: 50 512 14 14 (5017600)
I0906 15:40:55.943861 34497 net.cpp:168] Memory required for data: 2062971612
I0906 15:40:55.943866 34497 layer_factory.hpp:77] Creating layer inception_4b/output_inception_4b/output_0_split
I0906 15:40:55.943877 34497 net.cpp:115] Creating Layer inception_4b/output_inception_4b/output_0_split
I0906 15:40:55.943886 34497 net.cpp:516] inception_4b/output_inception_4b/output_0_split <- inception_4b/output
I0906 15:40:55.943892 34497 net.cpp:490] inception_4b/output_inception_4b/output_0_split -> inception_4b/output_inception_4b/output_0_split_0
I0906 15:40:55.943900 34497 net.cpp:490] inception_4b/output_inception_4b/output_0_split -> inception_4b/output_inception_4b/output_0_split_1
I0906 15:40:55.943912 34497 net.cpp:490] inception_4b/output_inception_4b/output_0_split -> inception_4b/output_inception_4b/output_0_split_2
I0906 15:40:55.943918 34497 net.cpp:490] inception_4b/output_inception_4b/output_0_split -> inception_4b/output_inception_4b/output_0_split_3
I0906 15:40:55.943977 34497 net.cpp:153] Setting up inception_4b/output_inception_4b/output_0_split
I0906 15:40:55.943989 34497 net.cpp:160] Top shape: 50 512 14 14 (5017600)
I0906 15:40:55.943995 34497 net.cpp:160] Top shape: 50 512 14 14 (5017600)
I0906 15:40:55.944000 34497 net.cpp:160] Top shape: 50 512 14 14 (5017600)
I0906 15:40:55.944006 34497 net.cpp:160] Top shape: 50 512 14 14 (5017600)
I0906 15:40:55.944010 34497 net.cpp:168] Memory required for data: 2143253212
I0906 15:40:55.944015 34497 layer_factory.hpp:77] Creating layer inception_4c/1x1
I0906 15:40:55.944027 34497 net.cpp:115] Creating Layer inception_4c/1x1
I0906 15:40:55.944033 34497 net.cpp:516] inception_4c/1x1 <- inception_4b/output_inception_4b/output_0_split_0
I0906 15:40:55.944044 34497 net.cpp:490] inception_4c/1x1 -> inception_4c/1x1
I0906 15:40:55.944674 34497 net.cpp:153] Setting up inception_4c/1x1
I0906 15:40:55.944689 34497 net.cpp:160] Top shape: 50 128 14 14 (1254400)
I0906 15:40:55.944694 34497 net.cpp:168] Memory required for data: 2148270812
I0906 15:40:55.944701 34497 layer_factory.hpp:77] Creating layer inception_4c/relu_1x1
I0906 15:40:55.944708 34497 net.cpp:115] Creating Layer inception_4c/relu_1x1
I0906 15:40:55.944713 34497 net.cpp:516] inception_4c/relu_1x1 <- inception_4c/1x1
I0906 15:40:55.944720 34497 net.cpp:477] inception_4c/relu_1x1 -> inception_4c/1x1 (in-place)
I0906 15:40:55.944728 34497 net.cpp:153] Setting up inception_4c/relu_1x1
I0906 15:40:55.944735 34497 net.cpp:160] Top shape: 50 128 14 14 (1254400)
I0906 15:40:55.944739 34497 net.cpp:168] Memory required for data: 2153288412
I0906 15:40:55.944744 34497 layer_factory.hpp:77] Creating layer inception_4c/3x3_reduce
I0906 15:40:55.944756 34497 net.cpp:115] Creating Layer inception_4c/3x3_reduce
I0906 15:40:55.944774 34497 net.cpp:516] inception_4c/3x3_reduce <- inception_4b/output_inception_4b/output_0_split_1
I0906 15:40:55.944783 34497 net.cpp:490] inception_4c/3x3_reduce -> inception_4c/3x3_reduce
I0906 15:40:55.946835 34497 net.cpp:153] Setting up inception_4c/3x3_reduce
I0906 15:40:55.946852 34497 net.cpp:160] Top shape: 50 128 14 14 (1254400)
I0906 15:40:55.946857 34497 net.cpp:168] Memory required for data: 2158306012
I0906 15:40:55.946866 34497 layer_factory.hpp:77] Creating layer inception_4c/relu_3x3_reduce
I0906 15:40:55.946874 34497 net.cpp:115] Creating Layer inception_4c/relu_3x3_reduce
I0906 15:40:55.946882 34497 net.cpp:516] inception_4c/relu_3x3_reduce <- inception_4c/3x3_reduce
I0906 15:40:55.946892 34497 net.cpp:477] inception_4c/relu_3x3_reduce -> inception_4c/3x3_reduce (in-place)
I0906 15:40:55.946902 34497 net.cpp:153] Setting up inception_4c/relu_3x3_reduce
I0906 15:40:55.946907 34497 net.cpp:160] Top shape: 50 128 14 14 (1254400)
I0906 15:40:55.946913 34497 net.cpp:168] Memory required for data: 2163323612
I0906 15:40:55.946918 34497 layer_factory.hpp:77] Creating layer inception_4c/3x3
I0906 15:40:55.946929 34497 net.cpp:115] Creating Layer inception_4c/3x3
I0906 15:40:55.946935 34497 net.cpp:516] inception_4c/3x3 <- inception_4c/3x3_reduce
I0906 15:40:55.946944 34497 net.cpp:490] inception_4c/3x3 -> inception_4c/3x3
I0906 15:40:55.949048 34497 net.cpp:153] Setting up inception_4c/3x3
I0906 15:40:55.949061 34497 net.cpp:160] Top shape: 50 256 14 14 (2508800)
I0906 15:40:55.949066 34497 net.cpp:168] Memory required for data: 2173358812
I0906 15:40:55.949090 34497 layer_factory.hpp:77] Creating layer inception_4c/relu_3x3
I0906 15:40:55.949100 34497 net.cpp:115] Creating Layer inception_4c/relu_3x3
I0906 15:40:55.949105 34497 net.cpp:516] inception_4c/relu_3x3 <- inception_4c/3x3
I0906 15:40:55.949112 34497 net.cpp:477] inception_4c/relu_3x3 -> inception_4c/3x3 (in-place)
I0906 15:40:55.949120 34497 net.cpp:153] Setting up inception_4c/relu_3x3
I0906 15:40:55.949126 34497 net.cpp:160] Top shape: 50 256 14 14 (2508800)
I0906 15:40:55.949131 34497 net.cpp:168] Memory required for data: 2183394012
I0906 15:40:55.949136 34497 layer_factory.hpp:77] Creating layer inception_4c/5x5_reduce
I0906 15:40:55.949148 34497 net.cpp:115] Creating Layer inception_4c/5x5_reduce
I0906 15:40:55.949154 34497 net.cpp:516] inception_4c/5x5_reduce <- inception_4b/output_inception_4b/output_0_split_2
I0906 15:40:55.949165 34497 net.cpp:490] inception_4c/5x5_reduce -> inception_4c/5x5_reduce
I0906 15:40:55.949477 34497 net.cpp:153] Setting up inception_4c/5x5_reduce
I0906 15:40:55.949488 34497 net.cpp:160] Top shape: 50 24 14 14 (235200)
I0906 15:40:55.949493 34497 net.cpp:168] Memory required for data: 2184334812
I0906 15:40:55.949501 34497 layer_factory.hpp:77] Creating layer inception_4c/relu_5x5_reduce
I0906 15:40:55.949512 34497 net.cpp:115] Creating Layer inception_4c/relu_5x5_reduce
I0906 15:40:55.949517 34497 net.cpp:516] inception_4c/relu_5x5_reduce <- inception_4c/5x5_reduce
I0906 15:40:55.949524 34497 net.cpp:477] inception_4c/relu_5x5_reduce -> inception_4c/5x5_reduce (in-place)
I0906 15:40:55.949532 34497 net.cpp:153] Setting up inception_4c/relu_5x5_reduce
I0906 15:40:55.949539 34497 net.cpp:160] Top shape: 50 24 14 14 (235200)
I0906 15:40:55.949543 34497 net.cpp:168] Memory required for data: 2185275612
I0906 15:40:55.949548 34497 layer_factory.hpp:77] Creating layer inception_4c/5x5
I0906 15:40:55.949563 34497 net.cpp:115] Creating Layer inception_4c/5x5
I0906 15:40:55.949568 34497 net.cpp:516] inception_4c/5x5 <- inception_4c/5x5_reduce
I0906 15:40:55.949578 34497 net.cpp:490] inception_4c/5x5 -> inception_4c/5x5
I0906 15:40:55.950052 34497 net.cpp:153] Setting up inception_4c/5x5
I0906 15:40:55.950064 34497 net.cpp:160] Top shape: 50 64 14 14 (627200)
I0906 15:40:55.950070 34497 net.cpp:168] Memory required for data: 2187784412
I0906 15:40:55.950078 34497 layer_factory.hpp:77] Creating layer inception_4c/relu_5x5
I0906 15:40:55.950086 34497 net.cpp:115] Creating Layer inception_4c/relu_5x5
I0906 15:40:55.950120 34497 net.cpp:516] inception_4c/relu_5x5 <- inception_4c/5x5
I0906 15:40:55.950129 34497 net.cpp:477] inception_4c/relu_5x5 -> inception_4c/5x5 (in-place)
I0906 15:40:55.950136 34497 net.cpp:153] Setting up inception_4c/relu_5x5
I0906 15:40:55.950143 34497 net.cpp:160] Top shape: 50 64 14 14 (627200)
I0906 15:40:55.950147 34497 net.cpp:168] Memory required for data: 2190293212
I0906 15:40:55.950152 34497 layer_factory.hpp:77] Creating layer inception_4c/pool
I0906 15:40:55.950161 34497 net.cpp:115] Creating Layer inception_4c/pool
I0906 15:40:55.950166 34497 net.cpp:516] inception_4c/pool <- inception_4b/output_inception_4b/output_0_split_3
I0906 15:40:55.950176 34497 net.cpp:490] inception_4c/pool -> inception_4c/pool
I0906 15:40:55.950222 34497 net.cpp:153] Setting up inception_4c/pool
I0906 15:40:55.950232 34497 net.cpp:160] Top shape: 50 512 14 14 (5017600)
I0906 15:40:55.950237 34497 net.cpp:168] Memory required for data: 2210363612
I0906 15:40:55.950242 34497 layer_factory.hpp:77] Creating layer inception_4c/pool_proj
I0906 15:40:55.950258 34497 net.cpp:115] Creating Layer inception_4c/pool_proj
I0906 15:40:55.950264 34497 net.cpp:516] inception_4c/pool_proj <- inception_4c/pool
I0906 15:40:55.950273 34497 net.cpp:490] inception_4c/pool_proj -> inception_4c/pool_proj
I0906 15:40:55.950700 34497 net.cpp:153] Setting up inception_4c/pool_proj
I0906 15:40:55.950711 34497 net.cpp:160] Top shape: 50 64 14 14 (627200)
I0906 15:40:55.950716 34497 net.cpp:168] Memory required for data: 2212872412
I0906 15:40:55.950723 34497 layer_factory.hpp:77] Creating layer inception_4c/relu_pool_proj
I0906 15:40:55.950731 34497 net.cpp:115] Creating Layer inception_4c/relu_pool_proj
I0906 15:40:55.950737 34497 net.cpp:516] inception_4c/relu_pool_proj <- inception_4c/pool_proj
I0906 15:40:55.950747 34497 net.cpp:477] inception_4c/relu_pool_proj -> inception_4c/pool_proj (in-place)
I0906 15:40:55.950754 34497 net.cpp:153] Setting up inception_4c/relu_pool_proj
I0906 15:40:55.950760 34497 net.cpp:160] Top shape: 50 64 14 14 (627200)
I0906 15:40:55.950765 34497 net.cpp:168] Memory required for data: 2215381212
I0906 15:40:55.950770 34497 layer_factory.hpp:77] Creating layer inception_4c/output
I0906 15:40:55.950778 34497 net.cpp:115] Creating Layer inception_4c/output
I0906 15:40:55.950783 34497 net.cpp:516] inception_4c/output <- inception_4c/1x1
I0906 15:40:55.950788 34497 net.cpp:516] inception_4c/output <- inception_4c/3x3
I0906 15:40:55.950794 34497 net.cpp:516] inception_4c/output <- inception_4c/5x5
I0906 15:40:55.950799 34497 net.cpp:516] inception_4c/output <- inception_4c/pool_proj
I0906 15:40:55.950806 34497 net.cpp:490] inception_4c/output -> inception_4c/output
I0906 15:40:55.950837 34497 net.cpp:153] Setting up inception_4c/output
I0906 15:40:55.950846 34497 net.cpp:160] Top shape: 50 512 14 14 (5017600)
I0906 15:40:55.950851 34497 net.cpp:168] Memory required for data: 2235451612
I0906 15:40:55.950856 34497 layer_factory.hpp:77] Creating layer inception_4c/output_inception_4c/output_0_split
I0906 15:40:55.950865 34497 net.cpp:115] Creating Layer inception_4c/output_inception_4c/output_0_split
I0906 15:40:55.950870 34497 net.cpp:516] inception_4c/output_inception_4c/output_0_split <- inception_4c/output
I0906 15:40:55.950886 34497 net.cpp:490] inception_4c/output_inception_4c/output_0_split -> inception_4c/output_inception_4c/output_0_split_0
I0906 15:40:55.950894 34497 net.cpp:490] inception_4c/output_inception_4c/output_0_split -> inception_4c/output_inception_4c/output_0_split_1
I0906 15:40:55.950901 34497 net.cpp:490] inception_4c/output_inception_4c/output_0_split -> inception_4c/output_inception_4c/output_0_split_2
I0906 15:40:55.950909 34497 net.cpp:490] inception_4c/output_inception_4c/output_0_split -> inception_4c/output_inception_4c/output_0_split_3
I0906 15:40:55.950970 34497 net.cpp:153] Setting up inception_4c/output_inception_4c/output_0_split
I0906 15:40:55.950980 34497 net.cpp:160] Top shape: 50 512 14 14 (5017600)
I0906 15:40:55.950986 34497 net.cpp:160] Top shape: 50 512 14 14 (5017600)
I0906 15:40:55.951004 34497 net.cpp:160] Top shape: 50 512 14 14 (5017600)
I0906 15:40:55.951009 34497 net.cpp:160] Top shape: 50 512 14 14 (5017600)
I0906 15:40:55.951014 34497 net.cpp:168] Memory required for data: 2315733212
I0906 15:40:55.951020 34497 layer_factory.hpp:77] Creating layer inception_4d/1x1
I0906 15:40:55.951032 34497 net.cpp:115] Creating Layer inception_4d/1x1
I0906 15:40:55.951038 34497 net.cpp:516] inception_4d/1x1 <- inception_4c/output_inception_4c/output_0_split_0
I0906 15:40:55.951046 34497 net.cpp:490] inception_4d/1x1 -> inception_4d/1x1
I0906 15:40:55.951637 34497 net.cpp:153] Setting up inception_4d/1x1
I0906 15:40:55.951650 34497 net.cpp:160] Top shape: 50 112 14 14 (1097600)
I0906 15:40:55.951654 34497 net.cpp:168] Memory required for data: 2320123612
I0906 15:40:55.951663 34497 layer_factory.hpp:77] Creating layer inception_4d/relu_1x1
I0906 15:40:55.951670 34497 net.cpp:115] Creating Layer inception_4d/relu_1x1
I0906 15:40:55.951675 34497 net.cpp:516] inception_4d/relu_1x1 <- inception_4d/1x1
I0906 15:40:55.951685 34497 net.cpp:477] inception_4d/relu_1x1 -> inception_4d/1x1 (in-place)
I0906 15:40:55.951694 34497 net.cpp:153] Setting up inception_4d/relu_1x1
I0906 15:40:55.951699 34497 net.cpp:160] Top shape: 50 112 14 14 (1097600)
I0906 15:40:55.951704 34497 net.cpp:168] Memory required for data: 2324514012
I0906 15:40:55.951709 34497 layer_factory.hpp:77] Creating layer inception_4d/3x3_reduce
I0906 15:40:55.951721 34497 net.cpp:115] Creating Layer inception_4d/3x3_reduce
I0906 15:40:55.951727 34497 net.cpp:516] inception_4d/3x3_reduce <- inception_4c/output_inception_4c/output_0_split_1
I0906 15:40:55.951735 34497 net.cpp:490] inception_4d/3x3_reduce -> inception_4d/3x3_reduce
I0906 15:40:55.952437 34497 net.cpp:153] Setting up inception_4d/3x3_reduce
I0906 15:40:55.952450 34497 net.cpp:160] Top shape: 50 144 14 14 (1411200)
I0906 15:40:55.952455 34497 net.cpp:168] Memory required for data: 2330158812
I0906 15:40:55.952462 34497 layer_factory.hpp:77] Creating layer inception_4d/relu_3x3_reduce
I0906 15:40:55.952471 34497 net.cpp:115] Creating Layer inception_4d/relu_3x3_reduce
I0906 15:40:55.952476 34497 net.cpp:516] inception_4d/relu_3x3_reduce <- inception_4d/3x3_reduce
I0906 15:40:55.952486 34497 net.cpp:477] inception_4d/relu_3x3_reduce -> inception_4d/3x3_reduce (in-place)
I0906 15:40:55.952493 34497 net.cpp:153] Setting up inception_4d/relu_3x3_reduce
I0906 15:40:55.952499 34497 net.cpp:160] Top shape: 50 144 14 14 (1411200)
I0906 15:40:55.952504 34497 net.cpp:168] Memory required for data: 2335803612
I0906 15:40:55.952509 34497 layer_factory.hpp:77] Creating layer inception_4d/3x3
I0906 15:40:55.952518 34497 net.cpp:115] Creating Layer inception_4d/3x3
I0906 15:40:55.952523 34497 net.cpp:516] inception_4d/3x3 <- inception_4d/3x3_reduce
I0906 15:40:55.952534 34497 net.cpp:490] inception_4d/3x3 -> inception_4d/3x3
I0906 15:40:55.963070 34497 net.cpp:153] Setting up inception_4d/3x3
I0906 15:40:55.963104 34497 net.cpp:160] Top shape: 50 288 14 14 (2822400)
I0906 15:40:55.963111 34497 net.cpp:168] Memory required for data: 2347093212
I0906 15:40:55.963121 34497 layer_factory.hpp:77] Creating layer inception_4d/relu_3x3
I0906 15:40:55.963141 34497 net.cpp:115] Creating Layer inception_4d/relu_3x3
I0906 15:40:55.963151 34497 net.cpp:516] inception_4d/relu_3x3 <- inception_4d/3x3
I0906 15:40:55.963166 34497 net.cpp:477] inception_4d/relu_3x3 -> inception_4d/3x3 (in-place)
I0906 15:40:55.963179 34497 net.cpp:153] Setting up inception_4d/relu_3x3
I0906 15:40:55.963186 34497 net.cpp:160] Top shape: 50 288 14 14 (2822400)
I0906 15:40:55.963191 34497 net.cpp:168] Memory required for data: 2358382812
I0906 15:40:55.963196 34497 layer_factory.hpp:77] Creating layer inception_4d/5x5_reduce
I0906 15:40:55.963212 34497 net.cpp:115] Creating Layer inception_4d/5x5_reduce
I0906 15:40:55.963219 34497 net.cpp:516] inception_4d/5x5_reduce <- inception_4c/output_inception_4c/output_0_split_2
I0906 15:40:55.963233 34497 net.cpp:490] inception_4d/5x5_reduce -> inception_4d/5x5_reduce
I0906 15:40:55.963696 34497 net.cpp:153] Setting up inception_4d/5x5_reduce
I0906 15:40:55.963709 34497 net.cpp:160] Top shape: 50 32 14 14 (313600)
I0906 15:40:55.963714 34497 net.cpp:168] Memory required for data: 2359637212
I0906 15:40:55.963724 34497 layer_factory.hpp:77] Creating layer inception_4d/relu_5x5_reduce
I0906 15:40:55.963737 34497 net.cpp:115] Creating Layer inception_4d/relu_5x5_reduce
I0906 15:40:55.963744 34497 net.cpp:516] inception_4d/relu_5x5_reduce <- inception_4d/5x5_reduce
I0906 15:40:55.963757 34497 net.cpp:477] inception_4d/relu_5x5_reduce -> inception_4d/5x5_reduce (in-place)
I0906 15:40:55.963764 34497 net.cpp:153] Setting up inception_4d/relu_5x5_reduce
I0906 15:40:55.963771 34497 net.cpp:160] Top shape: 50 32 14 14 (313600)
I0906 15:40:55.963775 34497 net.cpp:168] Memory required for data: 2360891612
I0906 15:40:55.963780 34497 layer_factory.hpp:77] Creating layer inception_4d/5x5
I0906 15:40:55.963793 34497 net.cpp:115] Creating Layer inception_4d/5x5
I0906 15:40:55.963802 34497 net.cpp:516] inception_4d/5x5 <- inception_4d/5x5_reduce
I0906 15:40:55.963814 34497 net.cpp:490] inception_4d/5x5 -> inception_4d/5x5
I0906 15:40:55.964395 34497 net.cpp:153] Setting up inception_4d/5x5
I0906 15:40:55.964407 34497 net.cpp:160] Top shape: 50 64 14 14 (627200)
I0906 15:40:55.964412 34497 net.cpp:168] Memory required for data: 2363400412
I0906 15:40:55.964421 34497 layer_factory.hpp:77] Creating layer inception_4d/relu_5x5
I0906 15:40:55.964433 34497 net.cpp:115] Creating Layer inception_4d/relu_5x5
I0906 15:40:55.964447 34497 net.cpp:516] inception_4d/relu_5x5 <- inception_4d/5x5
I0906 15:40:55.964453 34497 net.cpp:477] inception_4d/relu_5x5 -> inception_4d/5x5 (in-place)
I0906 15:40:55.964462 34497 net.cpp:153] Setting up inception_4d/relu_5x5
I0906 15:40:55.964468 34497 net.cpp:160] Top shape: 50 64 14 14 (627200)
I0906 15:40:55.964473 34497 net.cpp:168] Memory required for data: 2365909212
I0906 15:40:55.964478 34497 layer_factory.hpp:77] Creating layer inception_4d/pool
I0906 15:40:55.964486 34497 net.cpp:115] Creating Layer inception_4d/pool
I0906 15:40:55.964491 34497 net.cpp:516] inception_4d/pool <- inception_4c/output_inception_4c/output_0_split_3
I0906 15:40:55.964500 34497 net.cpp:490] inception_4d/pool -> inception_4d/pool
I0906 15:40:55.964553 34497 net.cpp:153] Setting up inception_4d/pool
I0906 15:40:55.964565 34497 net.cpp:160] Top shape: 50 512 14 14 (5017600)
I0906 15:40:55.964571 34497 net.cpp:168] Memory required for data: 2385979612
I0906 15:40:55.964579 34497 layer_factory.hpp:77] Creating layer inception_4d/pool_proj
I0906 15:40:55.964596 34497 net.cpp:115] Creating Layer inception_4d/pool_proj
I0906 15:40:55.964601 34497 net.cpp:516] inception_4d/pool_proj <- inception_4d/pool
I0906 15:40:55.964612 34497 net.cpp:490] inception_4d/pool_proj -> inception_4d/pool_proj
I0906 15:40:55.965078 34497 net.cpp:153] Setting up inception_4d/pool_proj
I0906 15:40:55.965097 34497 net.cpp:160] Top shape: 50 64 14 14 (627200)
I0906 15:40:55.965102 34497 net.cpp:168] Memory required for data: 2388488412
I0906 15:40:55.965111 34497 layer_factory.hpp:77] Creating layer inception_4d/relu_pool_proj
I0906 15:40:55.965118 34497 net.cpp:115] Creating Layer inception_4d/relu_pool_proj
I0906 15:40:55.965124 34497 net.cpp:516] inception_4d/relu_pool_proj <- inception_4d/pool_proj
I0906 15:40:55.965131 34497 net.cpp:477] inception_4d/relu_pool_proj -> inception_4d/pool_proj (in-place)
I0906 15:40:55.965139 34497 net.cpp:153] Setting up inception_4d/relu_pool_proj
I0906 15:40:55.965149 34497 net.cpp:160] Top shape: 50 64 14 14 (627200)
I0906 15:40:55.965158 34497 net.cpp:168] Memory required for data: 2390997212
I0906 15:40:55.965164 34497 layer_factory.hpp:77] Creating layer inception_4d/output
I0906 15:40:55.965174 34497 net.cpp:115] Creating Layer inception_4d/output
I0906 15:40:55.965181 34497 net.cpp:516] inception_4d/output <- inception_4d/1x1
I0906 15:40:55.965188 34497 net.cpp:516] inception_4d/output <- inception_4d/3x3
I0906 15:40:55.965193 34497 net.cpp:516] inception_4d/output <- inception_4d/5x5
I0906 15:40:55.965211 34497 net.cpp:516] inception_4d/output <- inception_4d/pool_proj
I0906 15:40:55.965224 34497 net.cpp:490] inception_4d/output -> inception_4d/output
I0906 15:40:55.965261 34497 net.cpp:153] Setting up inception_4d/output
I0906 15:40:55.965272 34497 net.cpp:160] Top shape: 50 528 14 14 (5174400)
I0906 15:40:55.965277 34497 net.cpp:168] Memory required for data: 2411694812
I0906 15:40:55.965286 34497 layer_factory.hpp:77] Creating layer inception_4d/output_inception_4d/output_0_split
I0906 15:40:55.965299 34497 net.cpp:115] Creating Layer inception_4d/output_inception_4d/output_0_split
I0906 15:40:55.965312 34497 net.cpp:516] inception_4d/output_inception_4d/output_0_split <- inception_4d/output
I0906 15:40:55.965322 34497 net.cpp:490] inception_4d/output_inception_4d/output_0_split -> inception_4d/output_inception_4d/output_0_split_0
I0906 15:40:55.965332 34497 net.cpp:490] inception_4d/output_inception_4d/output_0_split -> inception_4d/output_inception_4d/output_0_split_1
I0906 15:40:55.965339 34497 net.cpp:490] inception_4d/output_inception_4d/output_0_split -> inception_4d/output_inception_4d/output_0_split_2
I0906 15:40:55.965348 34497 net.cpp:490] inception_4d/output_inception_4d/output_0_split -> inception_4d/output_inception_4d/output_0_split_3
I0906 15:40:55.965354 34497 net.cpp:490] inception_4d/output_inception_4d/output_0_split -> inception_4d/output_inception_4d/output_0_split_4
I0906 15:40:55.965445 34497 net.cpp:153] Setting up inception_4d/output_inception_4d/output_0_split
I0906 15:40:55.965458 34497 net.cpp:160] Top shape: 50 528 14 14 (5174400)
I0906 15:40:55.965464 34497 net.cpp:160] Top shape: 50 528 14 14 (5174400)
I0906 15:40:55.965471 34497 net.cpp:160] Top shape: 50 528 14 14 (5174400)
I0906 15:40:55.965476 34497 net.cpp:160] Top shape: 50 528 14 14 (5174400)
I0906 15:40:55.965481 34497 net.cpp:160] Top shape: 50 528 14 14 (5174400)
I0906 15:40:55.965487 34497 net.cpp:168] Memory required for data: 2515182812
I0906 15:40:55.965492 34497 layer_factory.hpp:77] Creating layer loss2/ave_pool
I0906 15:40:55.965505 34497 net.cpp:115] Creating Layer loss2/ave_pool
I0906 15:40:55.965515 34497 net.cpp:516] loss2/ave_pool <- inception_4d/output_inception_4d/output_0_split_0
I0906 15:40:55.965526 34497 net.cpp:490] loss2/ave_pool -> loss2/ave_pool
I0906 15:40:55.965562 34497 net.cpp:153] Setting up loss2/ave_pool
I0906 15:40:55.965574 34497 net.cpp:160] Top shape: 50 528 4 4 (422400)
I0906 15:40:55.965580 34497 net.cpp:168] Memory required for data: 2516872412
I0906 15:40:55.965590 34497 layer_factory.hpp:77] Creating layer loss2/conv
I0906 15:40:55.965607 34497 net.cpp:115] Creating Layer loss2/conv
I0906 15:40:55.965613 34497 net.cpp:516] loss2/conv <- loss2/ave_pool
I0906 15:40:55.965623 34497 net.cpp:490] loss2/conv -> loss2/conv
I0906 15:40:55.966285 34497 net.cpp:153] Setting up loss2/conv
I0906 15:40:55.966298 34497 net.cpp:160] Top shape: 50 128 4 4 (102400)
I0906 15:40:55.966303 34497 net.cpp:168] Memory required for data: 2517282012
I0906 15:40:55.966311 34497 layer_factory.hpp:77] Creating layer loss2/relu_conv
I0906 15:40:55.966318 34497 net.cpp:115] Creating Layer loss2/relu_conv
I0906 15:40:55.966323 34497 net.cpp:516] loss2/relu_conv <- loss2/conv
I0906 15:40:55.966332 34497 net.cpp:477] loss2/relu_conv -> loss2/conv (in-place)
I0906 15:40:55.966341 34497 net.cpp:153] Setting up loss2/relu_conv
I0906 15:40:55.966352 34497 net.cpp:160] Top shape: 50 128 4 4 (102400)
I0906 15:40:55.966359 34497 net.cpp:168] Memory required for data: 2517691612
I0906 15:40:55.966364 34497 layer_factory.hpp:77] Creating layer loss2/fc
I0906 15:40:55.966375 34497 net.cpp:115] Creating Layer loss2/fc
I0906 15:40:55.966382 34497 net.cpp:516] loss2/fc <- loss2/conv
I0906 15:40:55.966392 34497 net.cpp:490] loss2/fc -> loss2/fc
I0906 15:40:55.983453 34497 net.cpp:153] Setting up loss2/fc
I0906 15:40:55.983489 34497 net.cpp:160] Top shape: 50 1024 (51200)
I0906 15:40:55.983494 34497 net.cpp:168] Memory required for data: 2517896412
I0906 15:40:55.983505 34497 layer_factory.hpp:77] Creating layer loss2/relu_fc
I0906 15:40:55.983551 34497 net.cpp:115] Creating Layer loss2/relu_fc
I0906 15:40:55.983559 34497 net.cpp:516] loss2/relu_fc <- loss2/fc
I0906 15:40:55.983569 34497 net.cpp:477] loss2/relu_fc -> loss2/fc (in-place)
I0906 15:40:55.983582 34497 net.cpp:153] Setting up loss2/relu_fc
I0906 15:40:55.983589 34497 net.cpp:160] Top shape: 50 1024 (51200)
I0906 15:40:55.983593 34497 net.cpp:168] Memory required for data: 2518101212
I0906 15:40:55.983598 34497 layer_factory.hpp:77] Creating layer loss2/drop_fc
I0906 15:40:55.983608 34497 net.cpp:115] Creating Layer loss2/drop_fc
I0906 15:40:55.983613 34497 net.cpp:516] loss2/drop_fc <- loss2/fc
I0906 15:40:55.983619 34497 net.cpp:477] loss2/drop_fc -> loss2/fc (in-place)
I0906 15:40:55.983649 34497 net.cpp:153] Setting up loss2/drop_fc
I0906 15:40:55.983657 34497 net.cpp:160] Top shape: 50 1024 (51200)
I0906 15:40:55.983661 34497 net.cpp:168] Memory required for data: 2518306012
I0906 15:40:55.983666 34497 layer_factory.hpp:77] Creating layer loss2/classifier
I0906 15:40:55.983680 34497 net.cpp:115] Creating Layer loss2/classifier
I0906 15:40:55.983685 34497 net.cpp:516] loss2/classifier <- loss2/fc
I0906 15:40:55.983695 34497 net.cpp:490] loss2/classifier -> loss2/classifier
I0906 15:40:55.992035 34497 net.cpp:153] Setting up loss2/classifier
I0906 15:40:55.992058 34497 net.cpp:160] Top shape: 50 1000 (50000)
I0906 15:40:55.992063 34497 net.cpp:168] Memory required for data: 2518506012
I0906 15:40:55.992072 34497 layer_factory.hpp:77] Creating layer loss2/classifier_loss2/classifier_0_split
I0906 15:40:55.992084 34497 net.cpp:115] Creating Layer loss2/classifier_loss2/classifier_0_split
I0906 15:40:55.992090 34497 net.cpp:516] loss2/classifier_loss2/classifier_0_split <- loss2/classifier
I0906 15:40:55.992100 34497 net.cpp:490] loss2/classifier_loss2/classifier_0_split -> loss2/classifier_loss2/classifier_0_split_0
I0906 15:40:55.992111 34497 net.cpp:490] loss2/classifier_loss2/classifier_0_split -> loss2/classifier_loss2/classifier_0_split_1
I0906 15:40:55.992118 34497 net.cpp:490] loss2/classifier_loss2/classifier_0_split -> loss2/classifier_loss2/classifier_0_split_2
I0906 15:40:55.992173 34497 net.cpp:153] Setting up loss2/classifier_loss2/classifier_0_split
I0906 15:40:55.992183 34497 net.cpp:160] Top shape: 50 1000 (50000)
I0906 15:40:55.992189 34497 net.cpp:160] Top shape: 50 1000 (50000)
I0906 15:40:55.992194 34497 net.cpp:160] Top shape: 50 1000 (50000)
I0906 15:40:55.992199 34497 net.cpp:168] Memory required for data: 2519106012
I0906 15:40:55.992204 34497 layer_factory.hpp:77] Creating layer loss2/loss
I0906 15:40:55.992213 34497 net.cpp:115] Creating Layer loss2/loss
I0906 15:40:55.992218 34497 net.cpp:516] loss2/loss <- loss2/classifier_loss2/classifier_0_split_0
I0906 15:40:55.992225 34497 net.cpp:516] loss2/loss <- label_data_1_split_3
…
I0906 15:40:55.992575 34497 net.cpp:153] Setting up loss2/top-5
I0906 15:40:55.992581 34497 net.cpp:160] Top shape: (1)
I0906 15:40:55.992586 34497 net.cpp:168] Memory required for data: 2519106024
I0906 15:40:55.992591 34497 layer_factory.hpp:77] Creating layer inception_4e/1x1
I0906 15:40:55.992607 34497 net.cpp:115] Creating Layer inception_4e/1x1
I0906 15:40:55.992614 34497 net.cpp:516] inception_4e/1x1 <- inception_4d/output_inception_4d/output_0_split_1
I0906 15:40:55.992622 34497 net.cpp:490] inception_4e/1x1 -> inception_4e/1x1
I0906 15:40:56.000118 34497 net.cpp:153] Setting up inception_4e/1x1
I0906 15:40:56.000134 34497 net.cpp:160] Top shape: 50 256 14 14 (2508800)
I0906 15:40:56.000139 34497 net.cpp:168] Memory required for data: 2529141224
I0906 15:40:56.000147 34497 layer_factory.hpp:77] Creating layer inception_4e/relu_1x1
I0906 15:40:56.000159 34497 net.cpp:115] Creating Layer inception_4e/relu_1x1
I0906 15:40:56.000165 34497 net.cpp:516] inception_4e/relu_1x1 <- inception_4e/1x1
I0906 15:40:56.000172 34497 net.cpp:477] inception_4e/relu_1x1 -> inception_4e/1x1 (in-place)
I0906 15:40:56.000180 34497 net.cpp:153] Setting up inception_4e/relu_1x1
I0906 15:40:56.000187 34497 net.cpp:160] Top shape: 50 256 14 14 (2508800)
I0906 15:40:56.000191 34497 net.cpp:168] Memory required for data: 2539176424
I0906 15:40:56.000196 34497 layer_factory.hpp:77] Creating layer inception_4e/3x3_reduce
I0906 15:40:56.000224 34497 net.cpp:115] Creating Layer inception_4e/3x3_reduce
I0906 15:40:56.000231 34497 net.cpp:516] inception_4e/3x3_reduce <- inception_4d/output_inception_4d/output_0_split_2
I0906 15:40:56.000241 34497 net.cpp:490] inception_4e/3x3_reduce -> inception_4e/3x3_reduce
I0906 15:40:56.000998 34497 net.cpp:153] Setting up inception_4e/3x3_reduce
I0906 15:40:56.001009 34497 net.cpp:160] Top shape: 50 160 14 14 (1568000)
I0906 15:40:56.001014 34497 net.cpp:168] Memory required for data: 2545448424
I0906 15:40:56.001024 34497 layer_factory.hpp:77] Creating layer inception_4e/relu_3x3_reduce
I0906 15:40:56.001030 34497 net.cpp:115] Creating Layer inception_4e/relu_3x3_reduce
I0906 15:40:56.001036 34497 net.cpp:516] inception_4e/relu_3x3_reduce <- inception_4e/3x3_reduce
I0906 15:40:56.001042 34497 net.cpp:477] inception_4e/relu_3x3_reduce -> inception_4e/3x3_reduce (in-place)
I0906 15:40:56.001050 34497 net.cpp:153] Setting up inception_4e/relu_3x3_reduce
I0906 15:40:56.001057 34497 net.cpp:160] Top shape: 50 160 14 14 (1568000)
I0906 15:40:56.001061 34497 net.cpp:168] Memory required for data: 2551720424
I0906 15:40:56.001066 34497 layer_factory.hpp:77] Creating layer inception_4e/3x3
I0906 15:40:56.001080 34497 net.cpp:115] Creating Layer inception_4e/3x3
I0906 15:40:56.001086 34497 net.cpp:516] inception_4e/3x3 <- inception_4e/3x3_reduce
I0906 15:40:56.001096 34497 net.cpp:490] inception_4e/3x3 -> inception_4e/3x3
I0906 15:40:56.005281 34497 net.cpp:153] Setting up inception_4e/3x3
I0906 15:40:56.005296 34497 net.cpp:160] Top shape: 50 320 14 14 (3136000)
I0906 15:40:56.005302 34497 net.cpp:168] Memory required for data: 2564264424
I0906 15:40:56.005311 34497 layer_factory.hpp:77] Creating layer inception_4e/relu_3x3
I0906 15:40:56.005318 34497 net.cpp:115] Creating Layer inception_4e/relu_3x3
I0906 15:40:56.005324 34497 net.cpp:516] inception_4e/relu_3x3 <- inception_4e/3x3
I0906 15:40:56.005331 34497 net.cpp:477] inception_4e/relu_3x3 -> inception_4e/3x3 (in-place)
I0906 15:40:56.005339 34497 net.cpp:153] Setting up inception_4e/relu_3x3
I0906 15:40:56.005345 34497 net.cpp:160] Top shape: 50 320 14 14 (3136000)
I0906 15:40:56.005350 34497 net.cpp:168] Memory required for data: 2576808424
I0906 15:40:56.005355 34497 layer_factory.hpp:77] Creating layer inception_4e/5x5_reduce
I0906 15:40:56.005370 34497 net.cpp:115] Creating Layer inception_4e/5x5_reduce
I0906 15:40:56.005376 34497 net.cpp:516] inception_4e/5x5_reduce <- inception_4d/output_inception_4d/output_0_split_3
I0906 15:40:56.005403 34497 net.cpp:490] inception_4e/5x5_reduce -> inception_4e/5x5_reduce
I0906 15:40:56.005758 34497 net.cpp:153] Setting up inception_4e/5x5_reduce
I0906 15:40:56.005770 34497 net.cpp:160] Top shape: 50 32 14 14 (313600)
I0906 15:40:56.005774 34497 net.cpp:168] Memory required for data: 2578062824
I0906 15:40:56.005782 34497 layer_factory.hpp:77] Creating layer inception_4e/relu_5x5_reduce
I0906 15:40:56.005790 34497 net.cpp:115] Creating Layer inception_4e/relu_5x5_reduce
I0906 15:40:56.005798 34497 net.cpp:516] inception_4e/relu_5x5_reduce <- inception_4e/5x5_reduce
I0906 15:40:56.005805 34497 net.cpp:477] inception_4e/relu_5x5_reduce -> inception_4e/5x5_reduce (in-place)
I0906 15:40:56.005813 34497 net.cpp:153] Setting up inception_4e/relu_5x5_reduce
I0906 15:40:56.005820 34497 net.cpp:160] Top shape: 50 32 14 14 (313600)
I0906 15:40:56.005825 34497 net.cpp:168] Memory required for data: 2579317224
I0906 15:40:56.005830 34497 layer_factory.hpp:77] Creating layer inception_4e/5x5
I0906 15:40:56.005841 34497 net.cpp:115] Creating Layer inception_4e/5x5
I0906 15:40:56.005847 34497 net.cpp:516] inception_4e/5x5 <- inception_4e/5x5_reduce
I0906 15:40:56.005856 34497 net.cpp:490] inception_4e/5x5 -> inception_4e/5x5
I0906 15:40:56.006693 34497 net.cpp:153] Setting up inception_4e/5x5
I0906 15:40:56.006705 34497 net.cpp:160] Top shape: 50 128 14 14 (1254400)
I0906 15:40:56.006711 34497 net.cpp:168] Memory required for data: 2584334824
I0906 15:40:56.006718 34497 layer_factory.hpp:77] Creating layer inception_4e/relu_5x5
I0906 15:40:56.006726 34497 net.cpp:115] Creating Layer inception_4e/relu_5x5
I0906 15:40:56.006731 34497 net.cpp:516] inception_4e/relu_5x5 <- inception_4e/5x5
I0906 15:40:56.006737 34497 net.cpp:477] inception_4e/relu_5x5 -> inception_4e/5x5 (in-place)
I0906 15:40:56.006745 34497 net.cpp:153] Setting up inception_4e/relu_5x5
I0906 15:40:56.006752 34497 net.cpp:160] Top shape: 50 128 14 14 (1254400)
I0906 15:40:56.006757 34497 net.cpp:168] Memory required for data: 2589352424
I0906 15:40:56.006762 34497 layer_factory.hpp:77] Creating layer inception_4e/pool
I0906 15:40:56.006772 34497 net.cpp:115] Creating Layer inception_4e/pool
I0906 15:40:56.006778 34497 net.cpp:516] inception_4e/pool <- inception_4d/output_inception_4d/output_0_split_4
I0906 15:40:56.006785 34497 net.cpp:490] inception_4e/pool -> inception_4e/pool
I0906 15:40:56.006831 34497 net.cpp:153] Setting up inception_4e/pool
I0906 15:40:56.006841 34497 net.cpp:160] Top shape: 50 528 14 14 (5174400)
I0906 15:40:56.006846 34497 net.cpp:168] Memory required for data: 2610050024
I0906 15:40:56.006851 34497 layer_factory.hpp:77] Creating layer inception_4e/pool_proj
I0906 15:40:56.006863 34497 net.cpp:115] Creating Layer inception_4e/pool_proj
I0906 15:40:56.006870 34497 net.cpp:516] inception_4e/pool_proj <- inception_4e/pool
I0906 15:40:56.006877 34497 net.cpp:490] inception_4e/pool_proj -> inception_4e/pool_proj
I0906 15:40:56.007496 34497 net.cpp:153] Setting up inception_4e/pool_proj
I0906 15:40:56.007508 34497 net.cpp:160] Top shape: 50 128 14 14 (1254400)
I0906 15:40:56.007513 34497 net.cpp:168] Memory required for data: 2615067624
I0906 15:40:56.007521 34497 layer_factory.hpp:77] Creating layer inception_4e/relu_pool_proj
I0906 15:40:56.007529 34497 net.cpp:115] Creating Layer inception_4e/relu_pool_proj
I0906 15:40:56.007534 34497 net.cpp:516] inception_4e/relu_pool_proj <- inception_4e/pool_proj
I0906 15:40:56.007544 34497 net.cpp:477] inception_4e/relu_pool_proj -> inception_4e/pool_proj (in-place)
I0906 15:40:56.007551 34497 net.cpp:153] Setting up inception_4e/relu_pool_proj
I0906 15:40:56.007557 34497 net.cpp:160] Top shape: 50 128 14 14 (1254400)
I0906 15:40:56.007563 34497 net.cpp:168] Memory required for data: 2620085224
I0906 15:40:56.007568 34497 layer_factory.hpp:77] Creating layer inception_4e/output
I0906 15:40:56.007575 34497 net.cpp:115] Creating Layer inception_4e/output
I0906 15:40:56.007580 34497 net.cpp:516] inception_4e/output <- inception_4e/1x1
I0906 15:40:56.007586 34497 net.cpp:516] inception_4e/output <- inception_4e/3x3
I0906 15:40:56.007603 34497 net.cpp:516] inception_4e/output <- inception_4e/5x5
I0906 15:40:56.007611 34497 net.cpp:516] inception_4e/output <- inception_4e/pool_proj
I0906 15:40:56.007616 34497 net.cpp:490] inception_4e/output -> inception_4e/output
I0906 15:40:56.007649 34497 net.cpp:153] Setting up inception_4e/output
I0906 15:40:56.007658 34497 net.cpp:160] Top shape: 50 832 14 14 (8153600)
I0906 15:40:56.007663 34497 net.cpp:168] Memory required for data: 2652699624
I0906 15:40:56.007668 34497 layer_factory.hpp:77] Creating layer pool4/3x3_s2
I0906 15:40:56.007678 34497 net.cpp:115] Creating Layer pool4/3x3_s2
I0906 15:40:56.007684 34497 net.cpp:516] pool4/3x3_s2 <- inception_4e/output
I0906 15:40:56.007691 34497 net.cpp:490] pool4/3x3_s2 -> pool4/3x3_s2
I0906 15:40:56.007735 34497 net.cpp:153] Setting up pool4/3x3_s2
I0906 15:40:56.007745 34497 net.cpp:160] Top shape: 50 832 7 7 (2038400)
I0906 15:40:56.007750 34497 net.cpp:168] Memory required for data: 2660853224
I0906 15:40:56.007755 34497 layer_factory.hpp:77] Creating layer pool4/3x3_s2_pool4/3x3_s2_0_split
I0906 15:40:56.007762 34497 net.cpp:115] Creating Layer pool4/3x3_s2_pool4/3x3_s2_0_split
I0906 15:40:56.007767 34497 net.cpp:516] pool4/3x3_s2_pool4/3x3_s2_0_split <- pool4/3x3_s2
I0906 15:40:56.007774 34497 net.cpp:490] pool4/3x3_s2_pool4/3x3_s2_0_split -> pool4/3x3_s2_pool4/3x3_s2_0_split_0
I0906 15:40:56.007786 34497 net.cpp:490] pool4/3x3_s2_pool4/3x3_s2_0_split -> pool4/3x3_s2_pool4/3x3_s2_0_split_1
I0906 15:40:56.007793 34497 net.cpp:490] pool4/3x3_s2_pool4/3x3_s2_0_split -> pool4/3x3_s2_pool4/3x3_s2_0_split_2
I0906 15:40:56.007819 34497 net.cpp:490] pool4/3x3_s2_pool4/3x3_s2_0_split -> pool4/3x3_s2_pool4/3x3_s2_0_split_3
I0906 15:40:56.007884 34497 net.cpp:153] Setting up pool4/3x3_s2_pool4/3x3_s2_0_split
I0906 15:40:56.007894 34497 net.cpp:160] Top shape: 50 832 7 7 (2038400)
I0906 15:40:56.007899 34497 net.cpp:160] Top shape: 50 832 7 7 (2038400)
I0906 15:40:56.007905 34497 net.cpp:160] Top shape: 50 832 7 7 (2038400)
I0906 15:40:56.007911 34497 net.cpp:160] Top shape: 50 832 7 7 (2038400)
I0906 15:40:56.007916 34497 net.cpp:168] Memory required for data: 2693467624
I0906 15:40:56.007921 34497 layer_factory.hpp:77] Creating layer inception_5a/1x1
I0906 15:40:56.007933 34497 net.cpp:115] Creating Layer inception_5a/1x1
I0906 15:40:56.007941 34497 net.cpp:516] inception_5a/1x1 <- pool4/3x3_s2_pool4/3x3_s2_0_split_0
I0906 15:40:56.007951 34497 net.cpp:490] inception_5a/1x1 -> inception_5a/1x1
I0906 15:40:56.010679 34497 net.cpp:153] Setting up inception_5a/1x1
I0906 15:40:56.010697 34497 net.cpp:160] Top shape: 50 256 7 7 (627200)
I0906 15:40:56.010702 34497 net.cpp:168] Memory required for data: 2695976424
I0906 15:40:56.010711 34497 layer_factory.hpp:77] Creating layer inception_5a/relu_1x1
I0906 15:40:56.010720 34497 net.cpp:115] Creating Layer inception_5a/relu_1x1
I0906 15:40:56.010725 34497 net.cpp:516] inception_5a/relu_1x1 <- inception_5a/1x1
I0906 15:40:56.010731 34497 net.cpp:477] inception_5a/relu_1x1 -> inception_5a/1x1 (in-place)
I0906 15:40:56.010740 34497 net.cpp:153] Setting up inception_5a/relu_1x1
I0906 15:40:56.010746 34497 net.cpp:160] Top shape: 50 256 7 7 (627200)
I0906 15:40:56.010751 34497 net.cpp:168] Memory required for data: 2698485224
I0906 15:40:56.010756 34497 layer_factory.hpp:77] Creating layer inception_5a/3x3_reduce
I0906 15:40:56.010767 34497 net.cpp:115] Creating Layer inception_5a/3x3_reduce
I0906 15:40:56.010773 34497 net.cpp:516] inception_5a/3x3_reduce <- pool4/3x3_s2_pool4/3x3_s2_0_split_1
I0906 15:40:56.010783 34497 net.cpp:490] inception_5a/3x3_reduce -> inception_5a/3x3_reduce
I0906 15:40:56.011818 34497 net.cpp:153] Setting up inception_5a/3x3_reduce
I0906 15:40:56.011831 34497 net.cpp:160] Top shape: 50 160 7 7 (392000)
I0906 15:40:56.011835 34497 net.cpp:168] Memory required for data: 2700053224
I0906 15:40:56.011842 34497 layer_factory.hpp:77] Creating layer inception_5a/relu_3x3_reduce
I0906 15:40:56.011852 34497 net.cpp:115] Creating Layer inception_5a/relu_3x3_reduce
I0906 15:40:56.011874 34497 net.cpp:516] inception_5a/relu_3x3_reduce <- inception_5a/3x3_reduce
I0906 15:40:56.011883 34497 net.cpp:477] inception_5a/relu_3x3_reduce -> inception_5a/3x3_reduce (in-place)
I0906 15:40:56.011889 34497 net.cpp:153] Setting up inception_5a/relu_3x3_reduce
I0906 15:40:56.011896 34497 net.cpp:160] Top shape: 50 160 7 7 (392000)
I0906 15:40:56.011900 34497 net.cpp:168] Memory required for data: 2701621224
I0906 15:40:56.011905 34497 layer_factory.hpp:77] Creating layer inception_5a/3x3
I0906 15:40:56.011919 34497 net.cpp:115] Creating Layer inception_5a/3x3
I0906 15:40:56.011924 34497 net.cpp:516] inception_5a/3x3 <- inception_5a/3x3_reduce
I0906 15:40:56.011934 34497 net.cpp:490] inception_5a/3x3 -> inception_5a/3x3
I0906 15:40:56.016191 34497 net.cpp:153] Setting up inception_5a/3x3
I0906 15:40:56.016206 34497 net.cpp:160] Top shape: 50 320 7 7 (784000)
I0906 15:40:56.016211 34497 net.cpp:168] Memory required for data: 2704757224
I0906 15:40:56.016219 34497 layer_factory.hpp:77] Creating layer inception_5a/relu_3x3
I0906 15:40:56.016229 34497 net.cpp:115] Creating Layer inception_5a/relu_3x3
I0906 15:40:56.016235 34497 net.cpp:516] inception_5a/relu_3x3 <- inception_5a/3x3
I0906 15:40:56.016242 34497 net.cpp:477] inception_5a/relu_3x3 -> inception_5a/3x3 (in-place)
I0906 15:40:56.016250 34497 net.cpp:153] Setting up inception_5a/relu_3x3
I0906 15:40:56.016258 34497 net.cpp:160] Top shape: 50 320 7 7 (784000)
I0906 15:40:56.016261 34497 net.cpp:168] Memory required for data: 2707893224
I0906 15:40:56.016266 34497 layer_factory.hpp:77] Creating layer inception_5a/5x5_reduce
I0906 15:40:56.016278 34497 net.cpp:115] Creating Layer inception_5a/5x5_reduce
I0906 15:40:56.016285 34497 net.cpp:516] inception_5a/5x5_reduce <- pool4/3x3_s2_pool4/3x3_s2_0_split_2
I0906 15:40:56.016299 34497 net.cpp:490] inception_5a/5x5_reduce -> inception_5a/5x5_reduce
I0906 15:40:56.016708 34497 net.cpp:153] Setting up inception_5a/5x5_reduce
I0906 15:40:56.016721 34497 net.cpp:160] Top shape: 50 32 7 7 (78400)
I0906 15:40:56.016724 34497 net.cpp:168] Memory required for data: 2708206824
I0906 15:40:56.016732 34497 layer_factory.hpp:77] Creating layer inception_5a/relu_5x5_reduce
I0906 15:40:56.016739 34497 net.cpp:115] Creating Layer inception_5a/relu_5x5_reduce
I0906 15:40:56.016746 34497 net.cpp:516] inception_5a/relu_5x5_reduce <- inception_5a/5x5_reduce
I0906 15:40:56.016752 34497 net.cpp:477] inception_5a/relu_5x5_reduce -> inception_5a/5x5_reduce (in-place)
I0906 15:40:56.016762 34497 net.cpp:153] Setting up inception_5a/relu_5x5_reduce
I0906 15:40:56.016768 34497 net.cpp:160] Top shape: 50 32 7 7 (78400)
I0906 15:40:56.016772 34497 net.cpp:168] Memory required for data: 2708520424
I0906 15:40:56.016777 34497 layer_factory.hpp:77] Creating layer inception_5a/5x5
I0906 15:40:56.016795 34497 net.cpp:115] Creating Layer inception_5a/5x5
I0906 15:40:56.016803 34497 net.cpp:516] inception_5a/5x5 <- inception_5a/5x5_reduce
I0906 15:40:56.016813 34497 net.cpp:490] inception_5a/5x5 -> inception_5a/5x5
I0906 15:40:56.017649 34497 net.cpp:153] Setting up inception_5a/5x5
I0906 15:40:56.017662 34497 net.cpp:160] Top shape: 50 128 7 7 (313600)
I0906 15:40:56.017666 34497 net.cpp:168] Memory required for data: 2709774824
I0906 15:40:56.017673 34497 layer_factory.hpp:77] Creating layer inception_5a/relu_5x5
I0906 15:40:56.017681 34497 net.cpp:115] Creating Layer inception_5a/relu_5x5
I0906 15:40:56.017688 34497 net.cpp:516] inception_5a/relu_5x5 <- inception_5a/5x5
I0906 15:40:56.017696 34497 net.cpp:477] inception_5a/relu_5x5 -> inception_5a/5x5 (in-place)
I0906 15:40:56.017704 34497 net.cpp:153] Setting up inception_5a/relu_5x5
I0906 15:40:56.017711 34497 net.cpp:160] Top shape: 50 128 7 7 (313600)
I0906 15:40:56.017716 34497 net.cpp:168] Memory required for data: 2711029224
I0906 15:40:56.017721 34497 layer_factory.hpp:77] Creating layer inception_5a/pool
I0906 15:40:56.017729 34497 net.cpp:115] Creating Layer inception_5a/pool
I0906 15:40:56.017735 34497 net.cpp:516] inception_5a/pool <- pool4/3x3_s2_pool4/3x3_s2_0_split_3
I0906 15:40:56.017760 34497 net.cpp:490] inception_5a/pool -> inception_5a/pool
I0906 15:40:56.017805 34497 net.cpp:153] Setting up inception_5a/pool
I0906 15:40:56.017815 34497 net.cpp:160] Top shape: 50 832 7 7 (2038400)
I0906 15:40:56.017820 34497 net.cpp:168] Memory required for data: 2719182824
I0906 15:40:56.017825 34497 layer_factory.hpp:77] Creating layer inception_5a/pool_proj
I0906 15:40:56.017838 34497 net.cpp:115] Creating Layer inception_5a/pool_proj
I0906 15:40:56.017843 34497 net.cpp:516] inception_5a/pool_proj <- inception_5a/pool
I0906 15:40:56.017853 34497 net.cpp:490] inception_5a/pool_proj -> inception_5a/pool_proj
I0906 15:40:56.018733 34497 net.cpp:153] Setting up inception_5a/pool_proj
I0906 15:40:56.018744 34497 net.cpp:160] Top shape: 50 128 7 7 (313600)
I0906 15:40:56.018749 34497 net.cpp:168] Memory required for data: 2720437224
I0906 15:40:56.018759 34497 layer_factory.hpp:77] Creating layer inception_5a/relu_pool_proj
I0906 15:40:56.018766 34497 net.cpp:115] Creating Layer inception_5a/relu_pool_proj
I0906 15:40:56.018772 34497 net.cpp:516] inception_5a/relu_pool_proj <- inception_5a/pool_proj
I0906 15:40:56.018779 34497 net.cpp:477] inception_5a/relu_pool_proj -> inception_5a/pool_proj (in-place)
I0906 15:40:56.018786 34497 net.cpp:153] Setting up inception_5a/relu_pool_proj
I0906 15:40:56.018792 34497 net.cpp:160] Top shape: 50 128 7 7 (313600)
I0906 15:40:56.018797 34497 net.cpp:168] Memory required for data: 2721691624
I0906 15:40:56.018802 34497 layer_factory.hpp:77] Creating layer inception_5a/output
I0906 15:40:56.018810 34497 net.cpp:115] Creating Layer inception_5a/output
I0906 15:40:56.018815 34497 net.cpp:516] inception_5a/output <- inception_5a/1x1
I0906 15:40:56.018821 34497 net.cpp:516] inception_5a/output <- inception_5a/3x3
I0906 15:40:56.018826 34497 net.cpp:516] inception_5a/output <- inception_5a/5x5
I0906 15:40:56.018831 34497 net.cpp:516] inception_5a/output <- inception_5a/pool_proj
I0906 15:40:56.018841 34497 net.cpp:490] inception_5a/output -> inception_5a/output
I0906 15:40:56.018870 34497 net.cpp:153] Setting up inception_5a/output
I0906 15:40:56.018880 34497 net.cpp:160] Top shape: 50 832 7 7 (2038400)
I0906 15:40:56.018885 34497 net.cpp:168] Memory required for data: 2729845224
I0906 15:40:56.018890 34497 layer_factory.hpp:77] Creating layer inception_5a/output_inception_5a/output_0_split
I0906 15:40:56.018898 34497 net.cpp:115] Creating Layer inception_5a/output_inception_5a/output_0_split
I0906 15:40:56.018903 34497 net.cpp:516] inception_5a/output_inception_5a/output_0_split <- inception_5a/output
I0906 15:40:56.018910 34497 net.cpp:490] inception_5a/output_inception_5a/output_0_split -> inception_5a/output_inception_5a/output_0_split_0
I0906 15:40:56.018918 34497 net.cpp:490] inception_5a/output_inception_5a/output_0_split -> inception_5a/output_inception_5a/output_0_split_1
I0906 15:40:56.018929 34497 net.cpp:490] inception_5a/output_inception_5a/output_0_split -> inception_5a/output_inception_5a/output_0_split_2
I0906 15:40:56.018936 34497 net.cpp:490] inception_5a/output_inception_5a/output_0_split -> inception_5a/output_inception_5a/output_0_split_3
I0906 15:40:56.019001 34497 net.cpp:153] Setting up inception_5a/output_inception_5a/output_0_split
I0906 15:40:56.019011 34497 net.cpp:160] Top shape: 50 832 7 7 (2038400)
I0906 15:40:56.019016 34497 net.cpp:160] Top shape: 50 832 7 7 (2038400)
I0906 15:40:56.019021 34497 net.cpp:160] Top shape: 50 832 7 7 (2038400)
I0906 15:40:56.019027 34497 net.cpp:160] Top shape: 50 832 7 7 (2038400)
I0906 15:40:56.019032 34497 net.cpp:168] Memory required for data: 2762459624
I0906 15:40:56.019037 34497 layer_factory.hpp:77] Creating layer inception_5b/1x1
I0906 15:40:56.019054 34497 net.cpp:115] Creating Layer inception_5b/1x1
I0906 15:40:56.019060 34497 net.cpp:516] inception_5b/1x1 <- inception_5a/output_inception_5a/output_0_split_0
I0906 15:40:56.019070 34497 net.cpp:490] inception_5b/1x1 -> inception_5b/1x1
I0906 15:40:56.022478 34497 net.cpp:153] Setting up inception_5b/1x1
I0906 15:40:56.022506 34497 net.cpp:160] Top shape: 50 384 7 7 (940800)
I0906 15:40:56.022512 34497 net.cpp:168] Memory required for data: 2766222824
I0906 15:40:56.022521 34497 layer_factory.hpp:77] Creating layer inception_5b/relu_1x1
I0906 15:40:56.022529 34497 net.cpp:115] Creating Layer inception_5b/relu_1x1
I0906 15:40:56.022536 34497 net.cpp:516] inception_5b/relu_1x1 <- inception_5b/1x1
I0906 15:40:56.022542 34497 net.cpp:477] inception_5b/relu_1x1 -> inception_5b/1x1 (in-place)
I0906 15:40:56.022550 34497 net.cpp:153] Setting up inception_5b/relu_1x1
I0906 15:40:56.022557 34497 net.cpp:160] Top shape: 50 384 7 7 (940800)
I0906 15:40:56.022562 34497 net.cpp:168] Memory required for data: 2769986024
I0906 15:40:56.022565 34497 layer_factory.hpp:77] Creating layer inception_5b/3x3_reduce
I0906 15:40:56.022578 34497 net.cpp:115] Creating Layer inception_5b/3x3_reduce
I0906 15:40:56.022586 34497 net.cpp:516] inception_5b/3x3_reduce <- inception_5a/output_inception_5a/output_0_split_1
I0906 15:40:56.022594 34497 net.cpp:490] inception_5b/3x3_reduce -> inception_5b/3x3_reduce
I0906 15:40:56.023783 34497 net.cpp:153] Setting up inception_5b/3x3_reduce
I0906 15:40:56.023797 34497 net.cpp:160] Top shape: 50 192 7 7 (470400)
I0906 15:40:56.023802 34497 net.cpp:168] Memory required for data: 2771867624
I0906 15:40:56.023810 34497 layer_factory.hpp:77] Creating layer inception_5b/relu_3x3_reduce
I0906 15:40:56.023818 34497 net.cpp:115] Creating Layer inception_5b/relu_3x3_reduce
I0906 15:40:56.023823 34497 net.cpp:516] inception_5b/relu_3x3_reduce <- inception_5b/3x3_reduce
I0906 15:40:56.023833 34497 net.cpp:477] inception_5b/relu_3x3_reduce -> inception_5b/3x3_reduce (in-place)
I0906 15:40:56.023840 34497 net.cpp:153] Setting up inception_5b/relu_3x3_reduce
I0906 15:40:56.023847 34497 net.cpp:160] Top shape: 50 192 7 7 (470400)
I0906 15:40:56.023851 34497 net.cpp:168] Memory required for data: 2773749224
I0906 15:40:56.023856 34497 layer_factory.hpp:77] Creating layer inception_5b/3x3
I0906 15:40:56.023866 34497 net.cpp:115] Creating Layer inception_5b/3x3
I0906 15:40:56.023871 34497 net.cpp:516] inception_5b/3x3 <- inception_5b/3x3_reduce
I0906 15:40:56.023881 34497 net.cpp:490] inception_5b/3x3 -> inception_5b/3x3
I0906 15:40:56.029533 34497 net.cpp:153] Setting up inception_5b/3x3
I0906 15:40:56.029551 34497 net.cpp:160] Top shape: 50 384 7 7 (940800)
I0906 15:40:56.029556 34497 net.cpp:168] Memory required for data: 2777512424
I0906 15:40:56.029563 34497 layer_factory.hpp:77] Creating layer inception_5b/relu_3x3
I0906 15:40:56.029574 34497 net.cpp:115] Creating Layer inception_5b/relu_3x3
I0906 15:40:56.029580 34497 net.cpp:516] inception_5b/relu_3x3 <- inception_5b/3x3
I0906 15:40:56.029587 34497 net.cpp:477] inception_5b/relu_3x3 -> inception_5b/3x3 (in-place)
I0906 15:40:56.029595 34497 net.cpp:153] Setting up inception_5b/relu_3x3
I0906 15:40:56.029602 34497 net.cpp:160] Top shape: 50 384 7 7 (940800)
I0906 15:40:56.029606 34497 net.cpp:168] Memory required for data: 2781275624
I0906 15:40:56.029611 34497 layer_factory.hpp:77] Creating layer inception_5b/5x5_reduce
I0906 15:40:56.029623 34497 net.cpp:115] Creating Layer inception_5b/5x5_reduce
I0906 15:40:56.029630 34497 net.cpp:516] inception_5b/5x5_reduce <- inception_5a/output_inception_5a/output_0_split_2
I0906 15:40:56.029639 34497 net.cpp:490] inception_5b/5x5_reduce -> inception_5b/5x5_reduce
I0906 15:40:56.030139 34497 net.cpp:153] Setting up inception_5b/5x5_reduce
I0906 15:40:56.030151 34497 net.cpp:160] Top shape: 50 48 7 7 (117600)
I0906 15:40:56.030156 34497 net.cpp:168] Memory required for data: 2781746024
I0906 15:40:56.030164 34497 layer_factory.hpp:77] Creating layer inception_5b/relu_5x5_reduce
I0906 15:40:56.030172 34497 net.cpp:115] Creating Layer inception_5b/relu_5x5_reduce
I0906 15:40:56.030177 34497 net.cpp:516] inception_5b/relu_5x5_reduce <- inception_5b/5x5_reduce
I0906 15:40:56.030184 34497 net.cpp:477] inception_5b/relu_5x5_reduce -> inception_5b/5x5_reduce (in-place)
I0906 15:40:56.030192 34497 net.cpp:153] Setting up inception_5b/relu_5x5_reduce
I0906 15:40:56.030212 34497 net.cpp:160] Top shape: 50 48 7 7 (117600)
I0906 15:40:56.030217 34497 net.cpp:168] Memory required for data: 2782216424
I0906 15:40:56.030222 34497 layer_factory.hpp:77] Creating layer inception_5b/5x5
I0906 15:40:56.030236 34497 net.cpp:115] Creating Layer inception_5b/5x5
I0906 15:40:56.030241 34497 net.cpp:516] inception_5b/5x5 <- inception_5b/5x5_reduce
I0906 15:40:56.030251 34497 net.cpp:490] inception_5b/5x5 -> inception_5b/5x5
I0906 15:40:56.033195 34497 net.cpp:153] Setting up inception_5b/5x5
I0906 15:40:56.033210 34497 net.cpp:160] Top shape: 50 128 7 7 (313600)
I0906 15:40:56.033215 34497 net.cpp:168] Memory required for data: 2783470824
I0906 15:40:56.033222 34497 layer_factory.hpp:77] Creating layer inception_5b/relu_5x5
I0906 15:40:56.033231 34497 net.cpp:115] Creating Layer inception_5b/relu_5x5
I0906 15:40:56.033236 34497 net.cpp:516] inception_5b/relu_5x5 <- inception_5b/5x5
I0906 15:40:56.033243 34497 net.cpp:477] inception_5b/relu_5x5 -> inception_5b/5x5 (in-place)
I0906 15:40:56.033252 34497 net.cpp:153] Setting up inception_5b/relu_5x5
I0906 15:40:56.033257 34497 net.cpp:160] Top shape: 50 128 7 7 (313600)
I0906 15:40:56.033262 34497 net.cpp:168] Memory required for data: 2784725224
I0906 15:40:56.033267 34497 layer_factory.hpp:77] Creating layer inception_5b/pool
I0906 15:40:56.033275 34497 net.cpp:115] Creating Layer inception_5b/pool
I0906 15:40:56.033280 34497 net.cpp:516] inception_5b/pool <- inception_5a/output_inception_5a/output_0_split_3
I0906 15:40:56.033290 34497 net.cpp:490] inception_5b/pool -> inception_5b/pool
I0906 15:40:56.033335 34497 net.cpp:153] Setting up inception_5b/pool
I0906 15:40:56.033345 34497 net.cpp:160] Top shape: 50 832 7 7 (2038400)
I0906 15:40:56.033350 34497 net.cpp:168] Memory required for data: 2792878824
I0906 15:40:56.033355 34497 layer_factory.hpp:77] Creating layer inception_5b/pool_proj
I0906 15:40:56.033371 34497 net.cpp:115] Creating Layer inception_5b/pool_proj
I0906 15:40:56.033377 34497 net.cpp:516] inception_5b/pool_proj <- inception_5b/pool
I0906 15:40:56.033385 34497 net.cpp:490] inception_5b/pool_proj -> inception_5b/pool_proj
I0906 15:40:56.034237 34497 net.cpp:153] Setting up inception_5b/pool_proj
I0906 15:40:56.034250 34497 net.cpp:160] Top shape: 50 128 7 7 (313600)
I0906 15:40:56.034255 34497 net.cpp:168] Memory required for data: 2794133224
I0906 15:40:56.034262 34497 layer_factory.hpp:77] Creating layer inception_5b/relu_pool_proj
I0906 15:40:56.034271 34497 net.cpp:115] Creating Layer inception_5b/relu_pool_proj
I0906 15:40:56.034276 34497 net.cpp:516] inception_5b/relu_pool_proj <- inception_5b/pool_proj
I0906 15:40:56.034286 34497 net.cpp:477] inception_5b/relu_pool_proj -> inception_5b/pool_proj (in-place)
I0906 15:40:56.034293 34497 net.cpp:153] Setting up inception_5b/relu_pool_proj
I0906 15:40:56.034299 34497 net.cpp:160] Top shape: 50 128 7 7 (313600)
I0906 15:40:56.034304 34497 net.cpp:168] Memory required for data: 2795387624
I0906 15:40:56.034309 34497 layer_factory.hpp:77] Creating layer inception_5b/output
I0906 15:40:56.034317 34497 net.cpp:115] Creating Layer inception_5b/output
I0906 15:40:56.034322 34497 net.cpp:516] inception_5b/output <- inception_5b/1x1
I0906 15:40:56.034327 34497 net.cpp:516] inception_5b/output <- inception_5b/3x3
I0906 15:40:56.034333 34497 net.cpp:516] inception_5b/output <- inception_5b/5x5
I0906 15:40:56.034338 34497 net.cpp:516] inception_5b/output <- inception_5b/pool_proj
I0906 15:40:56.034345 34497 net.cpp:490] inception_5b/output -> inception_5b/output
I0906 15:40:56.034376 34497 net.cpp:153] Setting up inception_5b/output
I0906 15:40:56.034385 34497 net.cpp:160] Top shape: 50 1024 7 7 (2508800)
I0906 15:40:56.034390 34497 net.cpp:168] Memory required for data: 2805422824
I0906 15:40:56.034395 34497 layer_factory.hpp:77] Creating layer pool5/7x7_s1
I0906 15:40:56.034404 34497 net.cpp:115] Creating Layer pool5/7x7_s1
I0906 15:40:56.034409 34497 net.cpp:516] pool5/7x7_s1 <- inception_5b/output
I0906 15:40:56.034418 34497 net.cpp:490] pool5/7x7_s1 -> pool5/7x7_s1
I0906 15:40:56.034461 34497 net.cpp:153] Setting up pool5/7x7_s1
I0906 15:40:56.034471 34497 net.cpp:160] Top shape: 50 1024 1 1 (51200)
I0906 15:40:56.034476 34497 net.cpp:168] Memory required for data: 2805627624
I0906 15:40:56.034482 34497 layer_factory.hpp:77] Creating layer pool5/drop_7x7_s1
I0906 15:40:56.034493 34497 net.cpp:115] Creating Layer pool5/drop_7x7_s1
I0906 15:40:56.034499 34497 net.cpp:516] pool5/drop_7x7_s1 <- pool5/7x7_s1
I0906 15:40:56.034505 34497 net.cpp:477] pool5/drop_7x7_s1 -> pool5/7x7_s1 (in-place)
I0906 15:40:56.034535 34497 net.cpp:153] Setting up pool5/drop_7x7_s1
I0906 15:40:56.034544 34497 net.cpp:160] Top shape: 50 1024 1 1 (51200)
I0906 15:40:56.034548 34497 net.cpp:168] Memory required for data: 2805832424
I0906 15:40:56.034554 34497 layer_factory.hpp:77] Creating layer loss3/classifier
I0906 15:40:56.034566 34497 net.cpp:115] Creating Layer loss3/classifier
I0906 15:40:56.034572 34497 net.cpp:516] loss3/classifier <- pool5/7x7_s1
I0906 15:40:56.034580 34497 net.cpp:490] loss3/classifier -> loss3/classifier
I0906 15:40:56.042682 34497 net.cpp:153] Setting up loss3/classifier
I0906 15:40:56.042701 34497 net.cpp:160] Top shape: 50 1000 (50000)
I0906 15:40:56.042707 34497 net.cpp:168] Memory required for data: 2806032424
I0906 15:40:56.042716 34497 layer_factory.hpp:77] Creating layer loss3/classifier_loss3/classifier_0_split
I0906 15:40:56.042726 34497 net.cpp:115] Creating Layer loss3/classifier_loss3/classifier_0_split
I0906 15:40:56.042732 34497 net.cpp:516] loss3/classifier_loss3/classifier_0_split <- loss3/classifier
I0906 15:40:56.042739 34497 net.cpp:490] loss3/classifier_loss3/classifier_0_split -> loss3/classifier_loss3/classifier_0_split_0
I0906 15:40:56.042750 34497 net.cpp:490] loss3/classifier_loss3/classifier_0_split -> loss3/classifier_loss3/classifier_0_split_1
I0906 15:40:56.042759 34497 net.cpp:490] loss3/classifier_loss3/classifier_0_split -> loss3/classifier_loss3/classifier_0_split_2
I0906 15:40:56.042814 34497 net.cpp:153] Setting up loss3/classifier_loss3/classifier_0_split
I0906 15:40:56.042824 34497 net.cpp:160] Top shape: 50 1000 (50000)
I0906 15:40:56.042829 34497 net.cpp:160] Top shape: 50 1000 (50000)
I0906 15:40:56.042834 34497 net.cpp:160] Top shape: 50 1000 (50000)
I0906 15:40:56.042839 34497 net.cpp:168] Memory required for data: 2806632424
I0906 15:40:56.042843 34497 layer_factory.hpp:77] Creating layer loss3/loss3
I0906 15:40:56.042851 34497 net.cpp:115] Creating Layer loss3/loss3
I0906 15:40:56.042857 34497 net.cpp:516] loss3/loss3 <- loss3/classifier_loss3/classifier_0_split_0
I0906 15:40:56.042863 34497 net.cpp:516] loss3/loss3 <- label_data_1_split_6
…
