…
I0909 16:23:07.024061 62239 net.cpp:347] The NetState phase (1) differed from the phase (0) specified by a rule in layer data
I0909 16:23:07.025391 62239 net.cpp:82] Initializing net from parameters: 
name: "GoogleNet"
state {
  phase: TEST
  level: 0
  stage: ""
}
layer {
  name: "data"
  type: "Data"
  top: "data"
  top: "label"
  include {
    phase: TEST
  }
  transform_param {
    mirror: false
    crop_size: 224
    mean_value: 104
    mean_value: 117
    mean_value: 123
  }
  data_param {
    source: "/mllib/imagenet/ilsvrc12/lmdb_resize/ilsvrc12_val_lmdb"
    batch_size: 50
    backend: LMDB
  }
}
layer {
  name: "conv1/7x7_s2"
  type: "Convolution"
  bottom: "data"
  top: "conv1/7x7_s2"
  param {
    lr_mult: 1
    decay_mult: 1
  }
  param {
    lr_mult: 2
    decay_mult: 0
  }
  convolution_param {
    num_output: 64
    pad: 3
    kernel_size: 7
    stride: 2
    weight_filler {
      type: "xavier"
    }
    bias_filler {
      type: "constant"
      value: 0.2
    }
  }
}
layer {
  name: "conv1/relu_7x7"
  type: "ReLU"
  bottom: "conv1/7x7_s2"
  top: "conv1/7x7_s2"
}
layer {
  name: "pool1/3x3_s2"
  type: "Pooling"
  bottom: "conv1/7x7_s2"
  top: "pool1/3x3_s2"
  pooling_param {
    pool: MAX
    kernel_size: 3
    stride: 2
  }
}
layer {
  name: "pool1/norm1"
  type: "LRNRistretto"
  bottom: "pool1/3x3_s2"
  top: "pool1/norm1"
  lrn_param {
    local_size: 5
    alpha: 0.0001
    beta: 0.75
  }
  quantization_param {
    bw_layer_in: 8
    bw_layer_out: 8
    fl_layer_in: -6
    fl_layer_out: -1
  }
}
layer {
  name: "conv2/3x3_reduce"
  type: "Convolution"
  bottom: "pool1/norm1"
  top: "conv2/3x3_reduce"
  param {
    lr_mult: 1
    decay_mult: 1
  }
  param {
    lr_mult: 2
    decay_mult: 0
  }
  convolution_param {
    num_output: 64
    kernel_size: 1
    weight_filler {
      type: "xavier"
    }
    bias_filler {
      type: "constant"
      value: 0.2
    }
  }
}
layer {
  name: "conv2/relu_3x3_reduce"
  type: "ReLU"
  bottom: "conv2/3x3_reduce"
  top: "conv2/3x3_reduce"
}
layer {
  name: "conv2/3x3"
  type: "Convolution"
  bottom: "conv2/3x3_reduce"
  top: "conv2/3x3"
  param {
    lr_mult: 1
    decay_mult: 1
  }
  param {
    lr_mult: 2
    decay_mult: 0
  }
  convolution_param {
    num_output: 192
    pad: 1
    kernel_size: 3
    weight_filler {
      type: "xavier"
    }
    bias_filler {
      type: "constant"
      value: 0.2
    }
  }
}
layer {
  name: "conv2/relu_3x3"
  type: "ReLU"
  bottom: "conv2/3x3"
  top: "conv2/3x3"
}
layer {
  name: "conv2/norm2"
  type: "LRNRistretto"
  bottom: "conv2/3x3"
  top: "conv2/norm2"
  lrn_param {
    local_size: 5
    alpha: 0.0001
    beta: 0.75
  }
  quantization_param {
    bw_layer_in: 8
    bw_layer_out: 8
    fl_layer_in: -3
    fl_layer_out: -1
  }
}
layer {
  name: "pool2/3x3_s2"
  type: "Pooling"
  bottom: "conv2/norm2"
  top: "pool2/3x3_s2"
  pooling_param {
    pool: MAX
    kernel_size: 3
    stride: 2
  }
}
layer {
  name: "inception_3a/1x1"
  type: "Convolution"
  bottom: "pool2/3x3_s2"
  top: "inception_3a/1x1"
  param {
    lr_mult: 1
    decay_mult: 1
  }
  param {
    lr_mult: 2
    decay_mult: 0
  }
  convolution_param {
    num_output: 64
    kernel_size: 1
    weight_filler {
      type: "xavier"
    }
    bias_filler {
      type: "constant"
      value: 0.2
    }
  }
}
layer {
  name: "inception_3a/relu_1x1"
  type: "ReLU"
  bottom: "inception_3a/1x1"
  top: "inception_3a/1x1"
}
layer {
  name: "inception_3a/3x3_reduce"
  type: "Convolution"
  bottom: "pool2/3x3_s2"
  top: "inception_3a/3x3_reduce"
  param {
    lr_mult: 1
    decay_mult: 1
  }
  param {
    lr_mult: 2
    decay_mult: 0
  }
  convolution_param {
    num_output: 96
    kernel_size: 1
    weight_filler {
      type: "xavier"
    }
    bias_filler {
      type: "constant"
      value: 0.2
    }
  }
}
layer {
  name: "inception_3a/relu_3x3_reduce"
  type: "ReLU"
  bottom: "inception_3a/3x3_reduce"
  top: "inception_3a/3x3_reduce"
}
layer {
  name: "inception_3a/3x3"
  type: "Convolution"
  bottom: "inception_3a/3x3_reduce"
  top: "inception_3a/3x3"
  param {
    lr_mult: 1
    decay_mult: 1
  }
  param {
    lr_mult: 2
    decay_mult: 0
  }
  convolution_param {
    num_output: 128
    pad: 1
    kernel_size: 3
    weight_filler {
      type: "xavier"
    }
    bias_filler {
      type: "constant"
      value: 0.2
    }
  }
}
layer {
  name: "inception_3a/relu_3x3"
  type: "ReLU"
  bottom: "inception_3a/3x3"
  top: "inception_3a/3x3"
}
layer {
  name: "inception_3a/5x5_reduce"
  type: "Convolution"
  bottom: "pool2/3x3_s2"
  top: "inception_3a/5x5_reduce"
  param {
    lr_mult: 1
    decay_mult: 1
  }
  param {
    lr_mult: 2
    decay_mult: 0
  }
  convolution_param {
    num_output: 16
    kernel_size: 1
    weight_filler {
      type: "xavier"
    }
    bias_filler {
      type: "constant"
      value: 0.2
    }
  }
}
layer {
  name: "inception_3a/relu_5x5_reduce"
  type: "ReLU"
  bottom: "inception_3a/5x5_reduce"
  top: "inception_3a/5x5_reduce"
}
layer {
  name: "inception_3a/5x5"
  type: "Convolution"
  bottom: "inception_3a/5x5_reduce"
  top: "inception_3a/5x5"
  param {
    lr_mult: 1
    decay_mult: 1
  }
  param {
    lr_mult: 2
    decay_mult: 0
  }
  convolution_param {
    num_output: 32
    pad: 2
    kernel_size: 5
    weight_filler {
      type: "xavier"
    }
    bias_filler {
      type: "constant"
      value: 0.2
    }
  }
}
layer {
  name: "inception_3a/relu_5x5"
  type: "ReLU"
  bottom: "inception_3a/5x5"
  top: "inception_3a/5x5"
}
layer {
  name: "inception_3a/pool"
  type: "Pooling"
  bottom: "pool2/3x3_s2"
  top: "inception_3a/pool"
  pooling_param {
    pool: MAX
    kernel_size: 3
    stride: 1
    pad: 1
  }
}
layer {
  name: "inception_3a/pool_proj"
  type: "Convolution"
  bottom: "inception_3a/pool"
  top: "inception_3a/pool_proj"
  param {
    lr_mult: 1
    decay_mult: 1
  }
  param {
    lr_mult: 2
    decay_mult: 0
  }
  convolution_param {
    num_output: 32
    kernel_size: 1
    weight_filler {
      type: "xavier"
    }
    bias_filler {
      type: "constant"
      value: 0.2
    }
  }
}
layer {
  name: "inception_3a/relu_pool_proj"
  type: "ReLU"
  bottom: "inception_3a/pool_proj"
  top: "inception_3a/pool_proj"
}
layer {
  name: "inception_3a/output"
  type: "Concat"
  bottom: "inception_3a/1x1"
  bottom: "inception_3a/3x3"
  bottom: "inception_3a/5x5"
  bottom: "inception_3a/pool_proj"
  top: "inception_3a/output"
}
layer {
  name: "inception_3b/1x1"
  type: "Convolution"
  bottom: "inception_3a/output"
  top: "inception_3b/1x1"
  param {
    lr_mult: 1
    decay_mult: 1
  }
  param {
    lr_mult: 2
    decay_mult: 0
  }
  convolution_param {
    num_output: 128
    kernel_size: 1
    weight_filler {
      type: "xavier"
    }
    bias_filler {
      type: "constant"
      value: 0.2
    }
  }
}
layer {
  name: "inception_3b/relu_1x1"
  type: "ReLU"
  bottom: "inception_3b/1x1"
  top: "inception_3b/1x1"
}
layer {
  name: "inception_3b/3x3_reduce"
  type: "Convolution"
  bottom: "inception_3a/output"
  top: "inception_3b/3x3_reduce"
  param {
    lr_mult: 1
    decay_mult: 1
  }
  param {
    lr_mult: 2
    decay_mult: 0
  }
  convolution_param {
    num_output: 128
    kernel_size: 1
    weight_filler {
      type: "xavier"
    }
    bias_filler {
      type: "constant"
      value: 0.2
    }
  }
}
layer {
  name: "inception_3b/relu_3x3_reduce"
  type: "ReLU"
  bottom: "inception_3b/3x3_reduce"
  top: "inception_3b/3x3_reduce"
}
layer {
  name: "inception_3b/3x3"
  type: "Convolution"
  bottom: "inception_3b/3x3_reduce"
  top: "inception_3b/3x3"
  param {
    lr_mult: 1
    decay_mult: 1
  }
  param {
    lr_mult: 2
    decay_mult: 0
  }
  convolution_param {
    num_output: 192
    pad: 1
    kernel_size: 3
    weight_filler {
      type: "xavier"
    }
    bias_filler {
      type: "constant"
      value: 0.2
    }
  }
}
layer {
  name: "inception_3b/relu_3x3"
  type: "ReLU"
  bottom: "inception_3b/3x3"
  top: "inception_3b/3x3"
}
layer {
  name: "inception_3b/5x5_reduce"
  type: "Convolution"
  bottom: "inception_3a/output"
  top: "inception_3b/5x5_reduce"
  param {
    lr_mult: 1
    decay_mult: 1
  }
  param {
    lr_mult: 2
    decay_mult: 0
  }
  convolution_param {
    num_output: 32
    kernel_size: 1
    weight_filler {
      type: "xavier"
    }
    bias_filler {
      type: "constant"
      value: 0.2
    }
  }
}
layer {
  name: "inception_3b/relu_5x5_reduce"
  type: "ReLU"
  bottom: "inception_3b/5x5_reduce"
  top: "inception_3b/5x5_reduce"
}
layer {
  name: "inception_3b/5x5"
  type: "Convolution"
  bottom: "inception_3b/5x5_reduce"
  top: "inception_3b/5x5"
  param {
    lr_mult: 1
    decay_mult: 1
  }
  param {
    lr_mult: 2
    decay_mult: 0
  }
  convolution_param {
    num_output: 96
    pad: 2
    kernel_size: 5
    weight_filler {
      type: "xavier"
    }
    bias_filler {
      type: "constant"
      value: 0.2
    }
  }
}
layer {
  name: "inception_3b/relu_5x5"
  type: "ReLU"
  bottom: "inception_3b/5x5"
  top: "inception_3b/5x5"
}
layer {
  name: "inception_3b/pool"
  type: "Pooling"
  bottom: "inception_3a/output"
  top: "inception_3b/pool"
  pooling_param {
    pool: MAX
    kernel_size: 3
    stride: 1
    pad: 1
  }
}
layer {
  name: "inception_3b/pool_proj"
  type: "Convolution"
  bottom: "inception_3b/pool"
  top: "inception_3b/pool_proj"
  param {
    lr_mult: 1
    decay_mult: 1
  }
  param {
    lr_mult: 2
    decay_mult: 0
  }
  convolution_param {
    num_output: 64
    kernel_size: 1
    weight_filler {
      type: "xavier"
    }
    bias_filler {
      type: "constant"
      value: 0.2
    }
  }
}
layer {
  name: "inception_3b/relu_pool_proj"
  type: "ReLU"
  bottom: "inception_3b/pool_proj"
  top: "inception_3b/pool_proj"
}
layer {
  name: "inception_3b/output"
  type: "Concat"
  bottom: "inception_3b/1x1"
  bottom: "inception_3b/3x3"
  bottom: "inception_3b/5x5"
  bottom: "inception_3b/pool_proj"
  top: "inception_3b/output"
}
layer {
  name: "pool3/3x3_s2"
  type: "Pooling"
  bottom: "inception_3b/output"
  top: "pool3/3x3_s2"
  pooling_param {
    pool: MAX
    kernel_size: 3
    stride: 2
  }
}
layer {
  name: "inception_4a/1x1"
  type: "Convolution"
  bottom: "pool3/3x3_s2"
  top: "inception_4a/1x1"
  param {
    lr_mult: 1
    decay_mult: 1
  }
  param {
    lr_mult: 2
    decay_mult: 0
  }
  convolution_param {
    num_output: 192
    kernel_size: 1
    weight_filler {
      type: "xavier"
    }
    bias_filler {
      type: "constant"
      value: 0.2
    }
  }
}
layer {
  name: "inception_4a/relu_1x1"
  type: "ReLU"
  bottom: "inception_4a/1x1"
  top: "inception_4a/1x1"
}
layer {
  name: "inception_4a/3x3_reduce"
  type: "Convolution"
  bottom: "pool3/3x3_s2"
  top: "inception_4a/3x3_reduce"
  param {
    lr_mult: 1
    decay_mult: 1
  }
  param {
    lr_mult: 2
    decay_mult: 0
  }
  convolution_param {
    num_output: 96
    kernel_size: 1
    weight_filler {
      type: "xavier"
    }
    bias_filler {
      type: "constant"
      value: 0.2
    }
  }
}
layer {
  name: "inception_4a/relu_3x3_reduce"
  type: "ReLU"
  bottom: "inception_4a/3x3_reduce"
  top: "inception_4a/3x3_reduce"
}
layer {
  name: "inception_4a/3x3"
  type: "Convolution"
  bottom: "inception_4a/3x3_reduce"
  top: "inception_4a/3x3"
  param {
    lr_mult: 1
    decay_mult: 1
  }
  param {
    lr_mult: 2
    decay_mult: 0
  }
  convolution_param {
    num_output: 208
    pad: 1
    kernel_size: 3
    weight_filler {
      type: "xavier"
    }
    bias_filler {
      type: "constant"
      value: 0.2
    }
  }
}
layer {
  name: "inception_4a/relu_3x3"
  type: "ReLU"
  bottom: "inception_4a/3x3"
  top: "inception_4a/3x3"
}
layer {
  name: "inception_4a/5x5_reduce"
  type: "Convolution"
  bottom: "pool3/3x3_s2"
  top: "inception_4a/5x5_reduce"
  param {
    lr_mult: 1
    decay_mult: 1
  }
  param {
    lr_mult: 2
    decay_mult: 0
  }
  convolution_param {
    num_output: 16
    kernel_size: 1
    weight_filler {
      type: "xavier"
    }
    bias_filler {
      type: "constant"
      value: 0.2
    }
  }
}
layer {
  name: "inception_4a/relu_5x5_reduce"
  type: "ReLU"
  bottom: "inception_4a/5x5_reduce"
  top: "inception_4a/5x5_reduce"
}
layer {
  name: "inception_4a/5x5"
  type: "Convolution"
  bottom: "inception_4a/5x5_reduce"
  top: "inception_4a/5x5"
  param {
    lr_mult: 1
    decay_mult: 1
  }
  param {
    lr_mult: 2
    decay_mult: 0
  }
  convolution_param {
    num_output: 48
    pad: 2
    kernel_size: 5
    weight_filler {
      type: "xavier"
    }
    bias_filler {
      type: "constant"
      value: 0.2
    }
  }
}
layer {
  name: "inception_4a/relu_5x5"
  type: "ReLU"
  bottom: "inception_4a/5x5"
  top: "inception_4a/5x5"
}
layer {
  name: "inception_4a/pool"
  type: "Pooling"
  bottom: "pool3/3x3_s2"
  top: "inception_4a/pool"
  pooling_param {
    pool: MAX
    kernel_size: 3
    stride: 1
    pad: 1
  }
}
layer {
  name: "inception_4a/pool_proj"
  type: "Convolution"
  bottom: "inception_4a/pool"
  top: "inception_4a/pool_proj"
  param {
    lr_mult: 1
    decay_mult: 1
  }
  param {
    lr_mult: 2
    decay_mult: 0
  }
  convolution_param {
    num_output: 64
    kernel_size: 1
    weight_filler {
      type: "xavier"
    }
    bias_filler {
      type: "constant"
      value: 0.2
    }
  }
}
layer {
  name: "inception_4a/relu_pool_proj"
  type: "ReLU"
  bottom: "inception_4a/pool_proj"
  top: "inception_4a/pool_proj"
}
layer {
  name: "inception_4a/output"
  type: "Concat"
  bottom: "inception_4a/1x1"
  bottom: "inception_4a/3x3"
  bottom: "inception_4a/5x5"
  bottom: "inception_4a/pool_proj"
  top: "inception_4a/output"
}
layer {
  name: "loss1/ave_pool"
  type: "Pooling"
  bottom: "inception_4a/output"
  top: "loss1/ave_pool"
  pooling_param {
    pool: AVE
    kernel_size: 5
    stride: 3
  }
}
layer {
  name: "loss1/conv"
  type: "Convolution"
  bottom: "loss1/ave_pool"
  top: "loss1/conv"
  param {
    lr_mult: 1
    decay_mult: 1
  }
  param {
    lr_mult: 2
    decay_mult: 0
  }
  convolution_param {
    num_output: 128
    kernel_size: 1
    weight_filler {
      type: "xavier"
    }
    bias_filler {
      type: "constant"
      value: 0.2
    }
  }
}
layer {
  name: "loss1/relu_conv"
  type: "ReLU"
  bottom: "loss1/conv"
  top: "loss1/conv"
}
layer {
  name: "loss1/fc"
  type: "InnerProduct"
  bottom: "loss1/conv"
  top: "loss1/fc"
  param {
    lr_mult: 1
    decay_mult: 1
  }
  param {
    lr_mult: 2
    decay_mult: 0
  }
  inner_product_param {
    num_output: 1024
    weight_filler {
      type: "xavier"
    }
    bias_filler {
      type: "constant"
      value: 0.2
    }
  }
}
layer {
  name: "loss1/relu_fc"
  type: "ReLU"
  bottom: "loss1/fc"
  top: "loss1/fc"
}
layer {
  name: "loss1/drop_fc"
  type: "Dropout"
  bottom: "loss1/fc"
  top: "loss1/fc"
  dropout_param {
    dropout_ratio: 0.7
  }
}
layer {
  name: "loss1/classifier"
  type: "InnerProduct"
  bottom: "loss1/fc"
  top: "loss1/classifier"
  param {
    lr_mult: 1
    decay_mult: 1
  }
  param {
    lr_mult: 2
    decay_mult: 0
  }
  inner_product_param {
    num_output: 1000
    weight_filler {
      type: "xavier"
    }
    bias_filler {
      type: "constant"
      value: 0
    }
  }
}
layer {
  name: "loss1/loss"
  type: "SoftmaxWithLoss"
  bottom: "loss1/classifier"
  bottom: "label"
  top: "loss1/loss1"
  loss_weight: 0.3
}
layer {
  name: "loss1/top-1"
  type: "Accuracy"
  bottom: "loss1/classifier"
  bottom: "label"
  top: "loss1/top-1"
  include {
    phase: TEST
  }
}
layer {
  name: "loss1/top-5"
  type: "Accuracy"
  bottom: "loss1/classifier"
  bottom: "label"
  top: "loss1/top-5"
  include {
    phase: TEST
  }
  accuracy_param {
    top_k: 5
  }
}
layer {
  name: "inception_4b/1x1"
  type: "Convolution"
  bottom: "inception_4a/output"
  top: "inception_4b/1x1"
  param {
    lr_mult: 1
    decay_mult: 1
  }
  param {
    lr_mult: 2
    decay_mult: 0
  }
  convolution_param {
    num_output: 160
    kernel_size: 1
    weight_filler {
      type: "xavier"
    }
    bias_filler {
      type: "constant"
      value: 0.2
    }
  }
}
layer {
  name: "inception_4b/relu_1x1"
  type: "ReLU"
  bottom: "inception_4b/1x1"
  top: "inception_4b/1x1"
}
layer {
  name: "inception_4b/3x3_reduce"
  type: "Convolution"
  bottom: "inception_4a/output"
  top: "inception_4b/3x3_reduce"
  param {
    lr_mult: 1
    decay_mult: 1
  }
  param {
    lr_mult: 2
    decay_mult: 0
  }
  convolution_param {
    num_output: 112
    kernel_size: 1
    weight_filler {
      type: "xavier"
    }
    bias_filler {
      type: "constant"
      value: 0.2
    }
  }
}
layer {
  name: "inception_4b/relu_3x3_reduce"
  type: "ReLU"
  bottom: "inception_4b/3x3_reduce"
  top: "inception_4b/3x3_reduce"
}
layer {
  name: "inception_4b/3x3"
  type: "Convolution"
  bottom: "inception_4b/3x3_reduce"
  top: "inception_4b/3x3"
  param {
    lr_mult: 1
    decay_mult: 1
  }
  param {
    lr_mult: 2
    decay_mult: 0
  }
  convolution_param {
    num_output: 224
    pad: 1
    kernel_size: 3
    weight_filler {
      type: "xavier"
    }
    bias_filler {
      type: "constant"
      value: 0.2
    }
  }
}
layer {
  name: "inception_4b/relu_3x3"
  type: "ReLU"
  bottom: "inception_4b/3x3"
  top: "inception_4b/3x3"
}
layer {
  name: "inception_4b/5x5_reduce"
  type: "Convolution"
  bottom: "inception_4a/output"
  top: "inception_4b/5x5_reduce"
  param {
    lr_mult: 1
    decay_mult: 1
  }
  param {
    lr_mult: 2
    decay_mult: 0
  }
  convolution_param {
    num_output: 24
    kernel_size: 1
    weight_filler {
      type: "xavier"
    }
    bias_filler {
      type: "constant"
      value: 0.2
    }
  }
}
layer {
  name: "inception_4b/relu_5x5_reduce"
  type: "ReLU"
  bottom: "inception_4b/5x5_reduce"
  top: "inception_4b/5x5_reduce"
}
layer {
  name: "inception_4b/5x5"
  type: "Convolution"
  bottom: "inception_4b/5x5_reduce"
  top: "inception_4b/5x5"
  param {
    lr_mult: 1
    decay_mult: 1
  }
  param {
    lr_mult: 2
    decay_mult: 0
  }
  convolution_param {
    num_output: 64
    pad: 2
    kernel_size: 5
    weight_filler {
      type: "xavier"
    }
    bias_filler {
      type: "constant"
      value: 0.2
    }
  }
}
layer {
  name: "inception_4b/relu_5x5"
  type: "ReLU"
  bottom: "inception_4b/5x5"
  top: "inception_4b/5x5"
}
layer {
  name: "inception_4b/pool"
  type: "Pooling"
  bottom: "inception_4a/output"
  top: "inception_4b/pool"
  pooling_param {
    pool: MAX
    kernel_size: 3
    stride: 1
    pad: 1
  }
}
layer {
  name: "inception_4b/pool_proj"
  type: "Convolution"
  bottom: "inception_4b/pool"
  top: "inception_4b/pool_proj"
  param {
    lr_mult: 1
    decay_mult: 1
  }
  param {
    lr_mult: 2
    decay_mult: 0
  }
  convolution_param {
    num_output: 64
    kernel_size: 1
    weight_filler {
      type: "xavier"
    }
    bias_filler {
      type: "constant"
      value: 0.2
    }
  }
}
layer {
  name: "inception_4b/relu_pool_proj"
  type: "ReLU"
  bottom: "inception_4b/pool_proj"
  top: "inception_4b/pool_proj"
}
layer {
  name: "inception_4b/output"
  type: "Concat"
  bottom: "inception_4b/1x1"
  bottom: "inception_4b/3x3"
  bottom: "inception_4b/5x5"
  bottom: "inception_4b/pool_proj"
  top: "inception_4b/output"
}
layer {
  name: "inception_4c/1x1"
  type: "Convolution"
  bottom: "inception_4b/output"
  top: "inception_4c/1x1"
  param {
    lr_mult: 1
    decay_mult: 1
  }
  param {
    lr_mult: 2
    decay_mult: 0
  }
  convolution_param {
    num_output: 128
    kernel_size: 1
    weight_filler {
      type: "xavier"
    }
    bias_filler {
      type: "constant"
      value: 0.2
    }
  }
}
layer {
  name: "inception_4c/relu_1x1"
  type: "ReLU"
  bottom: "inception_4c/1x1"
  top: "inception_4c/1x1"
}
layer {
  name: "inception_4c/3x3_reduce"
  type: "Convolution"
  bottom: "inception_4b/output"
  top: "inception_4c/3x3_reduce"
  param {
    lr_mult: 1
    decay_mult: 1
  }
  param {
    lr_mult: 2
    decay_mult: 0
  }
  convolution_param {
    num_output: 128
    kernel_size: 1
    weight_filler {
      type: "xavier"
    }
    bias_filler {
      type: "constant"
      value: 0.2
    }
  }
}
layer {
  name: "inception_4c/relu_3x3_reduce"
  type: "ReLU"
  bottom: "inception_4c/3x3_reduce"
  top: "inception_4c/3x3_reduce"
}
layer {
  name: "inception_4c/3x3"
  type: "Convolution"
  bottom: "inception_4c/3x3_reduce"
  top: "inception_4c/3x3"
  param {
    lr_mult: 1
    decay_mult: 1
  }
  param {
    lr_mult: 2
    decay_mult: 0
  }
  convolution_param {
    num_output: 256
    pad: 1
    kernel_size: 3
    weight_filler {
      type: "xavier"
    }
    bias_filler {
      type: "constant"
      value: 0.2
    }
  }
}
layer {
  name: "inception_4c/relu_3x3"
  type: "ReLU"
  bottom: "inception_4c/3x3"
  top: "inception_4c/3x3"
}
layer {
  name: "inception_4c/5x5_reduce"
  type: "Convolution"
  bottom: "inception_4b/output"
  top: "inception_4c/5x5_reduce"
  param {
    lr_mult: 1
    decay_mult: 1
  }
  param {
    lr_mult: 2
    decay_mult: 0
  }
  convolution_param {
    num_output: 24
    kernel_size: 1
    weight_filler {
      type: "xavier"
    }
    bias_filler {
      type: "constant"
      value: 0.2
    }
  }
}
layer {
  name: "inception_4c/relu_5x5_reduce"
  type: "ReLU"
  bottom: "inception_4c/5x5_reduce"
  top: "inception_4c/5x5_reduce"
}
layer {
  name: "inception_4c/5x5"
  type: "Convolution"
  bottom: "inception_4c/5x5_reduce"
  top: "inception_4c/5x5"
  param {
    lr_mult: 1
    decay_mult: 1
  }
  param {
    lr_mult: 2
    decay_mult: 0
  }
  convolution_param {
    num_output: 64
    pad: 2
    kernel_size: 5
    weight_filler {
      type: "xavier"
    }
    bias_filler {
      type: "constant"
      value: 0.2
    }
  }
}
layer {
  name: "inception_4c/relu_5x5"
  type: "ReLU"
  bottom: "inception_4c/5x5"
  top: "inception_4c/5x5"
}
layer {
  name: "inception_4c/pool"
  type: "Pooling"
  bottom: "inception_4b/output"
  top: "inception_4c/pool"
  pooling_param {
    pool: MAX
    kernel_size: 3
    stride: 1
    pad: 1
  }
}
layer {
  name: "inception_4c/pool_proj"
  type: "Convolution"
  bottom: "inception_4c/pool"
  top: "inception_4c/pool_proj"
  param {
    lr_mult: 1
    decay_mult: 1
  }
  param {
    lr_mult: 2
    decay_mult: 0
  }
  convolution_param {
    num_output: 64
    kernel_size: 1
    weight_filler {
      type: "xavier"
    }
    bias_filler {
      type: "constant"
      value: 0.2
    }
  }
}
layer {
  name: "inception_4c/relu_pool_proj"
  type: "ReLU"
  bottom: "inception_4c/pool_proj"
  top: "inception_4c/pool_proj"
}
layer {
  name: "inception_4c/output"
  type: "Concat"
  bottom: "inception_4c/1x1"
  bottom: "inception_4c/3x3"
  bottom: "inception_4c/5x5"
  bottom: "inception_4c/pool_proj"
  top: "inception_4c/output"
}
layer {
  name: "inception_4d/1x1"
  type: "Convolution"
  bottom: "inception_4c/output"
  top: "inception_4d/1x1"
  param {
    lr_mult: 1
    decay_mult: 1
  }
  param {
    lr_mult: 2
    decay_mult: 0
  }
  convolution_param {
    num_output: 112
    kernel_size: 1
    weight_filler {
      type: "xavier"
    }
    bias_filler {
      type: "constant"
      value: 0.2
    }
  }
}
layer {
  name: "inception_4d/relu_1x1"
  type: "ReLU"
  bottom: "inception_4d/1x1"
  top: "inception_4d/1x1"
}
layer {
  name: "inception_4d/3x3_reduce"
  type: "Convolution"
  bottom: "inception_4c/output"
  top: "inception_4d/3x3_reduce"
  param {
    lr_mult: 1
    decay_mult: 1
  }
  param {
    lr_mult: 2
    decay_mult: 0
  }
  convolution_param {
    num_output: 144
    kernel_size: 1
    weight_filler {
      type: "xavier"
    }
    bias_filler {
      type: "constant"
      value: 0.2
    }
  }
}
layer {
  name: "inception_4d/relu_3x3_reduce"
  type: "ReLU"
  bottom: "inception_4d/3x3_reduce"
  top: "inception_4d/3x3_reduce"
}
layer {
  name: "inception_4d/3x3"
  type: "Convolution"
  bottom: "inception_4d/3x3_reduce"
  top: "inception_4d/3x3"
  param {
    lr_mult: 1
    decay_mult: 1
  }
  param {
    lr_mult: 2
    decay_mult: 0
  }
  convolution_param {
    num_output: 288
    pad: 1
    kernel_size: 3
    weight_filler {
      type: "xavier"
    }
    bias_filler {
      type: "constant"
      value: 0.2
    }
  }
}
layer {
  name: "inception_4d/relu_3x3"
  type: "ReLU"
  bottom: "inception_4d/3x3"
  top: "inception_4d/3x3"
}
layer {
  name: "inception_4d/5x5_reduce"
  type: "Convolution"
  bottom: "inception_4c/output"
  top: "inception_4d/5x5_reduce"
  param {
    lr_mult: 1
    decay_mult: 1
  }
  param {
    lr_mult: 2
    decay_mult: 0
  }
  convolution_param {
    num_output: 32
    kernel_size: 1
    weight_filler {
      type: "xavier"
    }
    bias_filler {
      type: "constant"
      value: 0.2
    }
  }
}
layer {
  name: "inception_4d/relu_5x5_reduce"
  type: "ReLU"
  bottom: "inception_4d/5x5_reduce"
  top: "inception_4d/5x5_reduce"
}
layer {
  name: "inception_4d/5x5"
  type: "Convolution"
  bottom: "inception_4d/5x5_reduce"
  top: "inception_4d/5x5"
  param {
    lr_mult: 1
    decay_mult: 1
  }
  param {
    lr_mult: 2
    decay_mult: 0
  }
  convolution_param {
    num_output: 64
    pad: 2
    kernel_size: 5
    weight_filler {
      type: "xavier"
    }
    bias_filler {
      type: "constant"
      value: 0.2
    }
  }
}
layer {
  name: "inception_4d/relu_5x5"
  type: "ReLU"
  bottom: "inception_4d/5x5"
  top: "inception_4d/5x5"
}
layer {
  name: "inception_4d/pool"
  type: "Pooling"
  bottom: "inception_4c/output"
  top: "inception_4d/pool"
  pooling_param {
    pool: MAX
    kernel_size: 3
    stride: 1
    pad: 1
  }
}
layer {
  name: "inception_4d/pool_proj"
  type: "Convolution"
  bottom: "inception_4d/pool"
  top: "inception_4d/pool_proj"
  param {
    lr_mult: 1
    decay_mult: 1
  }
  param {
    lr_mult: 2
    decay_mult: 0
  }
  convolution_param {
    num_output: 64
    kernel_size: 1
    weight_filler {
      type: "xavier"
    }
    bias_filler {
      type: "constant"
      value: 0.2
    }
  }
}
layer {
  name: "inception_4d/relu_pool_proj"
  type: "ReLU"
  bottom: "inception_4d/pool_proj"
  top: "inception_4d/pool_proj"
}
layer {
  name: "inception_4d/output"
  type: "Concat"
  bottom: "inception_4d/1x1"
  bottom: "inception_4d/3x3"
  bottom: "inception_4d/5x5"
  bottom: "inception_4d/pool_proj"
  top: "inception_4d/output"
}
layer {
  name: "loss2/ave_pool"
  type: "Pooling"
  bottom: "inception_4d/output"
  top: "loss2/ave_pool"
  pooling_param {
    pool: AVE
    kernel_size: 5
    stride: 3
  }
}
layer {
  name: "loss2/conv"
  type: "Convolution"
  bottom: "loss2/ave_pool"
  top: "loss2/conv"
  param {
    lr_mult: 1
    decay_mult: 1
  }
  param {
    lr_mult: 2
    decay_mult: 0
  }
  convolution_param {
    num_output: 128
    kernel_size: 1
    weight_filler {
      type: "xavier"
    }
    bias_filler {
      type: "constant"
      value: 0.2
    }
  }
}
layer {
  name: "loss2/relu_conv"
  type: "ReLU"
  bottom: "loss2/conv"
  top: "loss2/conv"
}
layer {
  name: "loss2/fc"
  type: "InnerProduct"
  bottom: "loss2/conv"
  top: "loss2/fc"
  param {
    lr_mult: 1
    decay_mult: 1
  }
  param {
    lr_mult: 2
    decay_mult: 0
  }
  inner_product_param {
    num_output: 1024
    weight_filler {
      type: "xavier"
    }
    bias_filler {
      type: "constant"
      value: 0.2
    }
  }
}
layer {
  name: "loss2/relu_fc"
  type: "ReLU"
  bottom: "loss2/fc"
  top: "loss2/fc"
}
layer {
  name: "loss2/drop_fc"
  type: "Dropout"
  bottom: "loss2/fc"
  top: "loss2/fc"
  dropout_param {
    dropout_ratio: 0.7
  }
}
layer {
  name: "loss2/classifier"
  type: "InnerProduct"
  bottom: "loss2/fc"
  top: "loss2/classifier"
  param {
    lr_mult: 1
    decay_mult: 1
  }
  param {
    lr_mult: 2
    decay_mult: 0
  }
  inner_product_param {
    num_output: 1000
    weight_filler {
      type: "xavier"
    }
    bias_filler {
      type: "constant"
      value: 0
    }
  }
}
layer {
  name: "loss2/loss"
  type: "SoftmaxWithLoss"
  bottom: "loss2/classifier"
  bottom: "label"
  top: "loss2/loss2"
  loss_weight: 0.3
}
layer {
  name: "loss2/top-1"
  type: "Accuracy"
  bottom: "loss2/classifier"
  bottom: "label"
  top: "loss2/top-1"
  include {
    phase: TEST
  }
}
layer {
  name: "loss2/top-5"
  type: "Accuracy"
  bottom: "loss2/classifier"
  bottom: "label"
  top: "loss2/top-5"
  include {
    phase: TEST
  }
  accuracy_param {
    top_k: 5
  }
}
layer {
  name: "inception_4e/1x1"
  type: "Convolution"
  bottom: "inception_4d/output"
  top: "inception_4e/1x1"
  param {
    lr_mult: 1
    decay_mult: 1
  }
  param {
    lr_mult: 2
    decay_mult: 0
  }
  convolution_param {
    num_output: 256
    kernel_size: 1
    weight_filler {
      type: "xavier"
    }
    bias_filler {
      type: "constant"
      value: 0.2
    }
  }
}
layer {
  name: "inception_4e/relu_1x1"
  type: "ReLU"
  bottom: "inception_4e/1x1"
  top: "inception_4e/1x1"
}
layer {
  name: "inception_4e/3x3_reduce"
  type: "Convolution"
  bottom: "inception_4d/output"
  top: "inception_4e/3x3_reduce"
  param {
    lr_mult: 1
    decay_mult: 1
  }
  param {
    lr_mult: 2
    decay_mult: 0
  }
  convolution_param {
    num_output: 160
    kernel_size: 1
    weight_filler {
      type: "xavier"
    }
    bias_filler {
      type: "constant"
      value: 0.2
    }
  }
}
layer {
  name: "inception_4e/relu_3x3_reduce"
  type: "ReLU"
  bottom: "inception_4e/3x3_reduce"
  top: "inception_4e/3x3_reduce"
}
layer {
  name: "inception_4e/3x3"
  type: "Convolution"
  bottom: "inception_4e/3x3_reduce"
  top: "inception_4e/3x3"
  param {
    lr_mult: 1
    decay_mult: 1
  }
  param {
    lr_mult: 2
    decay_mult: 0
  }
  convolution_param {
    num_output: 320
    pad: 1
    kernel_size: 3
    weight_filler {
      type: "xavier"
    }
    bias_filler {
      type: "constant"
      value: 0.2
    }
  }
}
layer {
  name: "inception_4e/relu_3x3"
  type: "ReLU"
  bottom: "inception_4e/3x3"
  top: "inception_4e/3x3"
}
layer {
  name: "inception_4e/5x5_reduce"
  type: "Convolution"
  bottom: "inception_4d/output"
  top: "inception_4e/5x5_reduce"
  param {
    lr_mult: 1
    decay_mult: 1
  }
  param {
    lr_mult: 2
    decay_mult: 0
  }
  convolution_param {
    num_output: 32
    kernel_siz
I0909 16:23:07.026310 62239 layer_factory.hpp:77] Creating layer data
I0909 16:23:07.026458 62239 db_lmdb.cpp:35] Opened lmdb /mllib/imagenet/ilsvrc12/lmdb_resize/ilsvrc12_val_lmdb
I0909 16:23:07.026496 62239 net.cpp:115] Creating Layer data
I0909 16:23:07.026512 62239 net.cpp:490] data -> data
I0909 16:23:07.026547 62239 net.cpp:490] data -> label
I0909 16:23:07.053334 62239 data_layer.cpp:45] output data size: 50,3,224,224
I0909 16:23:07.151280 62239 net.cpp:153] Setting up data
I0909 16:23:07.151350 62239 net.cpp:160] Top shape: 50 3 224 224 (7526400)
I0909 16:23:07.151360 62239 net.cpp:160] Top shape: 50 (50)
I0909 16:23:07.151365 62239 net.cpp:168] Memory required for data: 30105800
I0909 16:23:07.151379 62239 layer_factory.hpp:77] Creating layer label_data_1_split
I0909 16:23:07.151401 62239 net.cpp:115] Creating Layer label_data_1_split
I0909 16:23:07.151413 62239 net.cpp:516] label_data_1_split <- label
I0909 16:23:07.151434 62239 net.cpp:490] label_data_1_split -> label_data_1_split_0
I0909 16:23:07.151451 62239 net.cpp:490] label_data_1_split -> label_data_1_split_1
I0909 16:23:07.151463 62239 net.cpp:490] label_data_1_split -> label_data_1_split_2
I0909 16:23:07.151471 62239 net.cpp:490] label_data_1_split -> label_data_1_split_3
I0909 16:23:07.151479 62239 net.cpp:490] label_data_1_split -> label_data_1_split_4
I0909 16:23:07.151486 62239 net.cpp:490] label_data_1_split -> label_data_1_split_5
I0909 16:23:07.151494 62239 net.cpp:490] label_data_1_split -> label_data_1_split_6
I0909 16:23:07.151504 62239 net.cpp:490] label_data_1_split -> label_data_1_split_7
I0909 16:23:07.151510 62239 net.cpp:490] label_data_1_split -> label_data_1_split_8
I0909 16:23:07.151625 62239 net.cpp:153] Setting up label_data_1_split
I0909 16:23:07.151638 62239 net.cpp:160] Top shape: 50 (50)
I0909 16:23:07.151644 62239 net.cpp:160] Top shape: 50 (50)
I0909 16:23:07.151650 62239 net.cpp:160] Top shape: 50 (50)
I0909 16:23:07.151656 62239 net.cpp:160] Top shape: 50 (50)
I0909 16:23:07.151662 62239 net.cpp:160] Top shape: 50 (50)
I0909 16:23:07.151667 62239 net.cpp:160] Top shape: 50 (50)
I0909 16:23:07.151674 62239 net.cpp:160] Top shape: 50 (50)
I0909 16:23:07.151679 62239 net.cpp:160] Top shape: 50 (50)
I0909 16:23:07.151685 62239 net.cpp:160] Top shape: 50 (50)
I0909 16:23:07.151690 62239 net.cpp:168] Memory required for data: 30107600
I0909 16:23:07.151695 62239 layer_factory.hpp:77] Creating layer conv1/7x7_s2
I0909 16:23:07.151721 62239 net.cpp:115] Creating Layer conv1/7x7_s2
I0909 16:23:07.151729 62239 net.cpp:516] conv1/7x7_s2 <- data
I0909 16:23:07.151765 62239 net.cpp:490] conv1/7x7_s2 -> conv1/7x7_s2
I0909 16:23:07.153398 62239 net.cpp:153] Setting up conv1/7x7_s2
I0909 16:23:07.153415 62239 net.cpp:160] Top shape: 50 64 112 112 (40140800)
I0909 16:23:07.153421 62239 net.cpp:168] Memory required for data: 190670800
I0909 16:23:07.153439 62239 layer_factory.hpp:77] Creating layer conv1/relu_7x7
I0909 16:23:07.153451 62239 net.cpp:115] Creating Layer conv1/relu_7x7
I0909 16:23:07.153457 62239 net.cpp:516] conv1/relu_7x7 <- conv1/7x7_s2
I0909 16:23:07.153465 62239 net.cpp:477] conv1/relu_7x7 -> conv1/7x7_s2 (in-place)
I0909 16:23:07.153475 62239 net.cpp:153] Setting up conv1/relu_7x7
I0909 16:23:07.153482 62239 net.cpp:160] Top shape: 50 64 112 112 (40140800)
I0909 16:23:07.153488 62239 net.cpp:168] Memory required for data: 351234000
I0909 16:23:07.153493 62239 layer_factory.hpp:77] Creating layer pool1/3x3_s2
I0909 16:23:07.153503 62239 net.cpp:115] Creating Layer pool1/3x3_s2
I0909 16:23:07.153517 62239 net.cpp:516] pool1/3x3_s2 <- conv1/7x7_s2
I0909 16:23:07.153524 62239 net.cpp:490] pool1/3x3_s2 -> pool1/3x3_s2
I0909 16:23:07.153578 62239 net.cpp:153] Setting up pool1/3x3_s2
I0909 16:23:07.153591 62239 net.cpp:160] Top shape: 50 64 56 56 (10035200)
I0909 16:23:07.153596 62239 net.cpp:168] Memory required for data: 391374800
I0909 16:23:07.153602 62239 layer_factory.hpp:77] Creating layer pool1/norm1
I0909 16:23:07.153626 62239 net.cpp:115] Creating Layer pool1/norm1
I0909 16:23:07.153635 62239 net.cpp:516] pool1/norm1 <- pool1/3x3_s2
I0909 16:23:07.153642 62239 net.cpp:490] pool1/norm1 -> pool1/norm1
I0909 16:23:07.158215 62239 net.cpp:153] Setting up pool1/norm1
I0909 16:23:07.158229 62239 net.cpp:160] Top shape: 50 64 56 56 (10035200)
I0909 16:23:07.158234 62239 net.cpp:168] Memory required for data: 431515600
I0909 16:23:07.158241 62239 layer_factory.hpp:77] Creating layer conv2/3x3_reduce
I0909 16:23:07.158253 62239 net.cpp:115] Creating Layer conv2/3x3_reduce
I0909 16:23:07.158259 62239 net.cpp:516] conv2/3x3_reduce <- pool1/norm1
I0909 16:23:07.158267 62239 net.cpp:490] conv2/3x3_reduce -> conv2/3x3_reduce
I0909 16:23:07.159713 62239 net.cpp:153] Setting up conv2/3x3_reduce
I0909 16:23:07.159731 62239 net.cpp:160] Top shape: 50 64 56 56 (10035200)
I0909 16:23:07.159737 62239 net.cpp:168] Memory required for data: 471656400
I0909 16:23:07.159749 62239 layer_factory.hpp:77] Creating layer conv2/relu_3x3_reduce
I0909 16:23:07.159757 62239 net.cpp:115] Creating Layer conv2/relu_3x3_reduce
I0909 16:23:07.159763 62239 net.cpp:516] conv2/relu_3x3_reduce <- conv2/3x3_reduce
I0909 16:23:07.159771 62239 net.cpp:477] conv2/relu_3x3_reduce -> conv2/3x3_reduce (in-place)
I0909 16:23:07.159781 62239 net.cpp:153] Setting up conv2/relu_3x3_reduce
I0909 16:23:07.159787 62239 net.cpp:160] Top shape: 50 64 56 56 (10035200)
I0909 16:23:07.159792 62239 net.cpp:168] Memory required for data: 511797200
I0909 16:23:07.159797 62239 layer_factory.hpp:77] Creating layer conv2/3x3
I0909 16:23:07.159811 62239 net.cpp:115] Creating Layer conv2/3x3
I0909 16:23:07.159821 62239 net.cpp:516] conv2/3x3 <- conv2/3x3_reduce
I0909 16:23:07.159829 62239 net.cpp:490] conv2/3x3 -> conv2/3x3
I0909 16:23:07.161954 62239 net.cpp:153] Setting up conv2/3x3
I0909 16:23:07.161983 62239 net.cpp:160] Top shape: 50 192 56 56 (30105600)
I0909 16:23:07.161988 62239 net.cpp:168] Memory required for data: 632219600
I0909 16:23:07.162003 62239 layer_factory.hpp:77] Creating layer conv2/relu_3x3
I0909 16:23:07.162014 62239 net.cpp:115] Creating Layer conv2/relu_3x3
I0909 16:23:07.162021 62239 net.cpp:516] conv2/relu_3x3 <- conv2/3x3
I0909 16:23:07.162029 62239 net.cpp:477] conv2/relu_3x3 -> conv2/3x3 (in-place)
I0909 16:23:07.162040 62239 net.cpp:153] Setting up conv2/relu_3x3
I0909 16:23:07.162046 62239 net.cpp:160] Top shape: 50 192 56 56 (30105600)
I0909 16:23:07.162051 62239 net.cpp:168] Memory required for data: 752642000
I0909 16:23:07.162056 62239 layer_factory.hpp:77] Creating layer conv2/norm2
I0909 16:23:07.162067 62239 net.cpp:115] Creating Layer conv2/norm2
I0909 16:23:07.162072 62239 net.cpp:516] conv2/norm2 <- conv2/3x3
I0909 16:23:07.162116 62239 net.cpp:490] conv2/norm2 -> conv2/norm2
I0909 16:23:07.162159 62239 net.cpp:153] Setting up conv2/norm2
I0909 16:23:07.162173 62239 net.cpp:160] Top shape: 50 192 56 56 (30105600)
I0909 16:23:07.162178 62239 net.cpp:168] Memory required for data: 873064400
I0909 16:23:07.162183 62239 layer_factory.hpp:77] Creating layer pool2/3x3_s2
I0909 16:23:07.162191 62239 net.cpp:115] Creating Layer pool2/3x3_s2
I0909 16:23:07.162197 62239 net.cpp:516] pool2/3x3_s2 <- conv2/norm2
I0909 16:23:07.162204 62239 net.cpp:490] pool2/3x3_s2 -> pool2/3x3_s2
I0909 16:23:07.162241 62239 net.cpp:153] Setting up pool2/3x3_s2
I0909 16:23:07.162252 62239 net.cpp:160] Top shape: 50 192 28 28 (7526400)
I0909 16:23:07.162258 62239 net.cpp:168] Memory required for data: 903170000
I0909 16:23:07.162263 62239 layer_factory.hpp:77] Creating layer pool2/3x3_s2_pool2/3x3_s2_0_split
I0909 16:23:07.162272 62239 net.cpp:115] Creating Layer pool2/3x3_s2_pool2/3x3_s2_0_split
I0909 16:23:07.162278 62239 net.cpp:516] pool2/3x3_s2_pool2/3x3_s2_0_split <- pool2/3x3_s2
I0909 16:23:07.162286 62239 net.cpp:490] pool2/3x3_s2_pool2/3x3_s2_0_split -> pool2/3x3_s2_pool2/3x3_s2_0_split_0
I0909 16:23:07.162294 62239 net.cpp:490] pool2/3x3_s2_pool2/3x3_s2_0_split -> pool2/3x3_s2_pool2/3x3_s2_0_split_1
I0909 16:23:07.162302 62239 net.cpp:490] pool2/3x3_s2_pool2/3x3_s2_0_split -> pool2/3x3_s2_pool2/3x3_s2_0_split_2
I0909 16:23:07.162309 62239 net.cpp:490] pool2/3x3_s2_pool2/3x3_s2_0_split -> pool2/3x3_s2_pool2/3x3_s2_0_split_3
I0909 16:23:07.162370 62239 net.cpp:153] Setting up pool2/3x3_s2_pool2/3x3_s2_0_split
I0909 16:23:07.162382 62239 net.cpp:160] Top shape: 50 192 28 28 (7526400)
I0909 16:23:07.162389 62239 net.cpp:160] Top shape: 50 192 28 28 (7526400)
I0909 16:23:07.162395 62239 net.cpp:160] Top shape: 50 192 28 28 (7526400)
I0909 16:23:07.162400 62239 net.cpp:160] Top shape: 50 192 28 28 (7526400)
I0909 16:23:07.162405 62239 net.cpp:168] Memory required for data: 1023592400
I0909 16:23:07.162410 62239 layer_factory.hpp:77] Creating layer inception_3a/1x1
I0909 16:23:07.162428 62239 net.cpp:115] Creating Layer inception_3a/1x1
I0909 16:23:07.162436 62239 net.cpp:516] inception_3a/1x1 <- pool2/3x3_s2_pool2/3x3_s2_0_split_0
I0909 16:23:07.162446 62239 net.cpp:490] inception_3a/1x1 -> inception_3a/1x1
I0909 16:23:07.164007 62239 net.cpp:153] Setting up inception_3a/1x1
I0909 16:23:07.164028 62239 net.cpp:160] Top shape: 50 64 28 28 (2508800)
I0909 16:23:07.164034 62239 net.cpp:168] Memory required for data: 1033627600
I0909 16:23:07.164044 62239 layer_factory.hpp:77] Creating layer inception_3a/relu_1x1
I0909 16:23:07.164053 62239 net.cpp:115] Creating Layer inception_3a/relu_1x1
I0909 16:23:07.164059 62239 net.cpp:516] inception_3a/relu_1x1 <- inception_3a/1x1
I0909 16:23:07.164070 62239 net.cpp:477] inception_3a/relu_1x1 -> inception_3a/1x1 (in-place)
I0909 16:23:07.164088 62239 net.cpp:153] Setting up inception_3a/relu_1x1
I0909 16:23:07.164099 62239 net.cpp:160] Top shape: 50 64 28 28 (2508800)
I0909 16:23:07.164104 62239 net.cpp:168] Memory required for data: 1043662800
I0909 16:23:07.164109 62239 layer_factory.hpp:77] Creating layer inception_3a/3x3_reduce
I0909 16:23:07.164124 62239 net.cpp:115] Creating Layer inception_3a/3x3_reduce
I0909 16:23:07.164131 62239 net.cpp:516] inception_3a/3x3_reduce <- pool2/3x3_s2_pool2/3x3_s2_0_split_1
I0909 16:23:07.164139 62239 net.cpp:490] inception_3a/3x3_reduce -> inception_3a/3x3_reduce
I0909 16:23:07.165807 62239 net.cpp:153] Setting up inception_3a/3x3_reduce
I0909 16:23:07.165829 62239 net.cpp:160] Top shape: 50 96 28 28 (3763200)
I0909 16:23:07.165835 62239 net.cpp:168] Memory required for data: 1058715600
I0909 16:23:07.165848 62239 layer_factory.hpp:77] Creating layer inception_3a/relu_3x3_reduce
I0909 16:23:07.165863 62239 net.cpp:115] Creating Layer inception_3a/relu_3x3_reduce
I0909 16:23:07.165870 62239 net.cpp:516] inception_3a/relu_3x3_reduce <- inception_3a/3x3_reduce
I0909 16:23:07.165879 62239 net.cpp:477] inception_3a/relu_3x3_reduce -> inception_3a/3x3_reduce (in-place)
I0909 16:23:07.165911 62239 net.cpp:153] Setting up inception_3a/relu_3x3_reduce
I0909 16:23:07.165920 62239 net.cpp:160] Top shape: 50 96 28 28 (3763200)
I0909 16:23:07.165925 62239 net.cpp:168] Memory required for data: 1073768400
I0909 16:23:07.165930 62239 layer_factory.hpp:77] Creating layer inception_3a/3x3
I0909 16:23:07.165941 62239 net.cpp:115] Creating Layer inception_3a/3x3
I0909 16:23:07.165951 62239 net.cpp:516] inception_3a/3x3 <- inception_3a/3x3_reduce
I0909 16:23:07.165963 62239 net.cpp:490] inception_3a/3x3 -> inception_3a/3x3
I0909 16:23:07.166914 62239 net.cpp:153] Setting up inception_3a/3x3
I0909 16:23:07.166930 62239 net.cpp:160] Top shape: 50 128 28 28 (5017600)
I0909 16:23:07.166935 62239 net.cpp:168] Memory required for data: 1093838800
I0909 16:23:07.166944 62239 layer_factory.hpp:77] Creating layer inception_3a/relu_3x3
I0909 16:23:07.166951 62239 net.cpp:115] Creating Layer inception_3a/relu_3x3
I0909 16:23:07.166957 62239 net.cpp:516] inception_3a/relu_3x3 <- inception_3a/3x3
I0909 16:23:07.166965 62239 net.cpp:477] inception_3a/relu_3x3 -> inception_3a/3x3 (in-place)
I0909 16:23:07.166972 62239 net.cpp:153] Setting up inception_3a/relu_3x3
I0909 16:23:07.166980 62239 net.cpp:160] Top shape: 50 128 28 28 (5017600)
I0909 16:23:07.166983 62239 net.cpp:168] Memory required for data: 1113909200
I0909 16:23:07.166988 62239 layer_factory.hpp:77] Creating layer inception_3a/5x5_reduce
I0909 16:23:07.167001 62239 net.cpp:115] Creating Layer inception_3a/5x5_reduce
I0909 16:23:07.167008 62239 net.cpp:516] inception_3a/5x5_reduce <- pool2/3x3_s2_pool2/3x3_s2_0_split_2
I0909 16:23:07.167018 62239 net.cpp:490] inception_3a/5x5_reduce -> inception_3a/5x5_reduce
I0909 16:23:07.167269 62239 net.cpp:153] Setting up inception_3a/5x5_reduce
I0909 16:23:07.167284 62239 net.cpp:160] Top shape: 50 16 28 28 (627200)
I0909 16:23:07.167289 62239 net.cpp:168] Memory required for data: 1116418000
I0909 16:23:07.167297 62239 layer_factory.hpp:77] Creating layer inception_3a/relu_5x5_reduce
I0909 16:23:07.167307 62239 net.cpp:115] Creating Layer inception_3a/relu_5x5_reduce
I0909 16:23:07.167313 62239 net.cpp:516] inception_3a/relu_5x5_reduce <- inception_3a/5x5_reduce
I0909 16:23:07.167320 62239 net.cpp:477] inception_3a/relu_5x5_reduce -> inception_3a/5x5_reduce (in-place)
I0909 16:23:07.167328 62239 net.cpp:153] Setting up inception_3a/relu_5x5_reduce
I0909 16:23:07.167335 62239 net.cpp:160] Top shape: 50 16 28 28 (627200)
I0909 16:23:07.167340 62239 net.cpp:168] Memory required for data: 1118926800
I0909 16:23:07.167345 62239 layer_factory.hpp:77] Creating layer inception_3a/5x5
I0909 16:23:07.167357 62239 net.cpp:115] Creating Layer inception_3a/5x5
I0909 16:23:07.167364 62239 net.cpp:516] inception_3a/5x5 <- inception_3a/5x5_reduce
I0909 16:23:07.167374 62239 net.cpp:490] inception_3a/5x5 -> inception_3a/5x5
I0909 16:23:07.167675 62239 net.cpp:153] Setting up inception_3a/5x5
I0909 16:23:07.167687 62239 net.cpp:160] Top shape: 50 32 28 28 (1254400)
I0909 16:23:07.167693 62239 net.cpp:168] Memory required for data: 1123944400
I0909 16:23:07.167701 62239 layer_factory.hpp:77] Creating layer inception_3a/relu_5x5
I0909 16:23:07.167708 62239 net.cpp:115] Creating Layer inception_3a/relu_5x5
I0909 16:23:07.167714 62239 net.cpp:516] inception_3a/relu_5x5 <- inception_3a/5x5
I0909 16:23:07.167721 62239 net.cpp:477] inception_3a/relu_5x5 -> inception_3a/5x5 (in-place)
I0909 16:23:07.167728 62239 net.cpp:153] Setting up inception_3a/relu_5x5
I0909 16:23:07.167735 62239 net.cpp:160] Top shape: 50 32 28 28 (1254400)
I0909 16:23:07.167740 62239 net.cpp:168] Memory required for data: 1128962000
I0909 16:23:07.167745 62239 layer_factory.hpp:77] Creating layer inception_3a/pool
I0909 16:23:07.167753 62239 net.cpp:115] Creating Layer inception_3a/pool
I0909 16:23:07.167759 62239 net.cpp:516] inception_3a/pool <- pool2/3x3_s2_pool2/3x3_s2_0_split_3
I0909 16:23:07.167768 62239 net.cpp:490] inception_3a/pool -> inception_3a/pool
I0909 16:23:07.167814 62239 net.cpp:153] Setting up inception_3a/pool
I0909 16:23:07.167839 62239 net.cpp:160] Top shape: 50 192 28 28 (7526400)
I0909 16:23:07.167845 62239 net.cpp:168] Memory required for data: 1159067600
I0909 16:23:07.167850 62239 layer_factory.hpp:77] Creating layer inception_3a/pool_proj
I0909 16:23:07.167867 62239 net.cpp:115] Creating Layer inception_3a/pool_proj
I0909 16:23:07.167876 62239 net.cpp:516] inception_3a/pool_proj <- inception_3a/pool
I0909 16:23:07.167883 62239 net.cpp:490] inception_3a/pool_proj -> inception_3a/pool_proj
I0909 16:23:07.168138 62239 net.cpp:153] Setting up inception_3a/pool_proj
I0909 16:23:07.168151 62239 net.cpp:160] Top shape: 50 32 28 28 (1254400)
I0909 16:23:07.168156 62239 net.cpp:168] Memory required for data: 1164085200
I0909 16:23:07.168170 62239 layer_factory.hpp:77] Creating layer inception_3a/relu_pool_proj
I0909 16:23:07.168179 62239 net.cpp:115] Creating Layer inception_3a/relu_pool_proj
I0909 16:23:07.168184 62239 net.cpp:516] inception_3a/relu_pool_proj <- inception_3a/pool_proj
I0909 16:23:07.168190 62239 net.cpp:477] inception_3a/relu_pool_proj -> inception_3a/pool_proj (in-place)
I0909 16:23:07.168198 62239 net.cpp:153] Setting up inception_3a/relu_pool_proj
I0909 16:23:07.168205 62239 net.cpp:160] Top shape: 50 32 28 28 (1254400)
I0909 16:23:07.168210 62239 net.cpp:168] Memory required for data: 1169102800
I0909 16:23:07.168215 62239 layer_factory.hpp:77] Creating layer inception_3a/output
I0909 16:23:07.168226 62239 net.cpp:115] Creating Layer inception_3a/output
I0909 16:23:07.168233 62239 net.cpp:516] inception_3a/output <- inception_3a/1x1
I0909 16:23:07.168241 62239 net.cpp:516] inception_3a/output <- inception_3a/3x3
I0909 16:23:07.168246 62239 net.cpp:516] inception_3a/output <- inception_3a/5x5
I0909 16:23:07.168251 62239 net.cpp:516] inception_3a/output <- inception_3a/pool_proj
I0909 16:23:07.168260 62239 net.cpp:490] inception_3a/output -> inception_3a/output
I0909 16:23:07.168299 62239 net.cpp:153] Setting up inception_3a/output
I0909 16:23:07.168311 62239 net.cpp:160] Top shape: 50 256 28 28 (10035200)
I0909 16:23:07.168316 62239 net.cpp:168] Memory required for data: 1209243600
I0909 16:23:07.168321 62239 layer_factory.hpp:77] Creating layer inception_3a/output_inception_3a/output_0_split
I0909 16:23:07.168329 62239 net.cpp:115] Creating Layer inception_3a/output_inception_3a/output_0_split
I0909 16:23:07.168335 62239 net.cpp:516] inception_3a/output_inception_3a/output_0_split <- inception_3a/output
I0909 16:23:07.168342 62239 net.cpp:490] inception_3a/output_inception_3a/output_0_split -> inception_3a/output_inception_3a/output_0_split_0
I0909 16:23:07.168354 62239 net.cpp:490] inception_3a/output_inception_3a/output_0_split -> inception_3a/output_inception_3a/output_0_split_1
I0909 16:23:07.168361 62239 net.cpp:490] inception_3a/output_inception_3a/output_0_split -> inception_3a/output_inception_3a/output_0_split_2
I0909 16:23:07.168371 62239 net.cpp:490] inception_3a/output_inception_3a/output_0_split -> inception_3a/output_inception_3a/output_0_split_3
I0909 16:23:07.168433 62239 net.cpp:153] Setting up inception_3a/output_inception_3a/output_0_split
I0909 16:23:07.168445 62239 net.cpp:160] Top shape: 50 256 28 28 (10035200)
I0909 16:23:07.168452 62239 net.cpp:160] Top shape: 50 256 28 28 (10035200)
I0909 16:23:07.168460 62239 net.cpp:160] Top shape: 50 256 28 28 (10035200)
I0909 16:23:07.168467 62239 net.cpp:160] Top shape: 50 256 28 28 (10035200)
I0909 16:23:07.168471 62239 net.cpp:168] Memory required for data: 1369806800
I0909 16:23:07.168476 62239 layer_factory.hpp:77] Creating layer inception_3b/1x1
I0909 16:23:07.168490 62239 net.cpp:115] Creating Layer inception_3b/1x1
I0909 16:23:07.168498 62239 net.cpp:516] inception_3b/1x1 <- inception_3a/output_inception_3a/output_0_split_0
I0909 16:23:07.168506 62239 net.cpp:490] inception_3b/1x1 -> inception_3b/1x1
I0909 16:23:07.168926 62239 net.cpp:153] Setting up inception_3b/1x1
I0909 16:23:07.168942 62239 net.cpp:160] Top shape: 50 128 28 28 (5017600)
I0909 16:23:07.168947 62239 net.cpp:168] Memory required for data: 1389877200
I0909 16:23:07.168956 62239 layer_factory.hpp:77] Creating layer inception_3b/relu_1x1
I0909 16:23:07.168975 62239 net.cpp:115] Creating Layer inception_3b/relu_1x1
I0909 16:23:07.168982 62239 net.cpp:516] inception_3b/relu_1x1 <- inception_3b/1x1
I0909 16:23:07.168992 62239 net.cpp:477] inception_3b/relu_1x1 -> inception_3b/1x1 (in-place)
I0909 16:23:07.169003 62239 net.cpp:153] Setting up inception_3b/relu_1x1
I0909 16:23:07.169010 62239 net.cpp:160] Top shape: 50 128 28 28 (5017600)
I0909 16:23:07.169014 62239 net.cpp:168] Memory required for data: 1409947600
I0909 16:23:07.169020 62239 layer_factory.hpp:77] Creating layer inception_3b/3x3_reduce
I0909 16:23:07.169030 62239 net.cpp:115] Creating Layer inception_3b/3x3_reduce
I0909 16:23:07.169036 62239 net.cpp:516] inception_3b/3x3_reduce <- inception_3a/output_inception_3a/output_0_split_1
I0909 16:23:07.169046 62239 net.cpp:490] inception_3b/3x3_reduce -> inception_3b/3x3_reduce
I0909 16:23:07.169473 62239 net.cpp:153] Setting up inception_3b/3x3_reduce
I0909 16:23:07.169488 62239 net.cpp:160] Top shape: 50 128 28 28 (5017600)
I0909 16:23:07.169493 62239 net.cpp:168] Memory required for data: 1430018000
I0909 16:23:07.169502 62239 layer_factory.hpp:77] Creating layer inception_3b/relu_3x3_reduce
I0909 16:23:07.169509 62239 net.cpp:115] Creating Layer inception_3b/relu_3x3_reduce
I0909 16:23:07.169514 62239 net.cpp:516] inception_3b/relu_3x3_reduce <- inception_3b/3x3_reduce
I0909 16:23:07.169523 62239 net.cpp:477] inception_3b/relu_3x3_reduce -> inception_3b/3x3_reduce (in-place)
I0909 16:23:07.169530 62239 net.cpp:153] Setting up inception_3b/relu_3x3_reduce
I0909 16:23:07.169536 62239 net.cpp:160] Top shape: 50 128 28 28 (5017600)
I0909 16:23:07.169541 62239 net.cpp:168] Memory required for data: 1450088400
I0909 16:23:07.169546 62239 layer_factory.hpp:77] Creating layer inception_3b/3x3
I0909 16:23:07.169564 62239 net.cpp:115] Creating Layer inception_3b/3x3
I0909 16:23:07.169574 62239 net.cpp:516] inception_3b/3x3 <- inception_3b/3x3_reduce
I0909 16:23:07.169581 62239 net.cpp:490] inception_3b/3x3 -> inception_3b/3x3
I0909 16:23:07.171262 62239 net.cpp:153] Setting up inception_3b/3x3
I0909 16:23:07.171279 62239 net.cpp:160] Top shape: 50 192 28 28 (7526400)
I0909 16:23:07.171284 62239 net.cpp:168] Memory required for data: 1480194000
I0909 16:23:07.171293 62239 layer_factory.hpp:77] Creating layer inception_3b/relu_3x3
I0909 16:23:07.171300 62239 net.cpp:115] Creating Layer inception_3b/relu_3x3
I0909 16:23:07.171306 62239 net.cpp:516] inception_3b/relu_3x3 <- inception_3b/3x3
I0909 16:23:07.171316 62239 net.cpp:477] inception_3b/relu_3x3 -> inception_3b/3x3 (in-place)
I0909 16:23:07.171327 62239 net.cpp:153] Setting up inception_3b/relu_3x3
I0909 16:23:07.171334 62239 net.cpp:160] Top shape: 50 192 28 28 (7526400)
I0909 16:23:07.171339 62239 net.cpp:168] Memory required for data: 1510299600
I0909 16:23:07.171344 62239 layer_factory.hpp:77] Creating layer inception_3b/5x5_reduce
I0909 16:23:07.171355 62239 net.cpp:115] Creating Layer inception_3b/5x5_reduce
I0909 16:23:07.171360 62239 net.cpp:516] inception_3b/5x5_reduce <- inception_3a/output_inception_3a/output_0_split_2
I0909 16:23:07.171370 62239 net.cpp:490] inception_3b/5x5_reduce -> inception_3b/5x5_reduce
I0909 16:23:07.171653 62239 net.cpp:153] Setting up inception_3b/5x5_reduce
I0909 16:23:07.171667 62239 net.cpp:160] Top shape: 50 32 28 28 (1254400)
I0909 16:23:07.171672 62239 net.cpp:168] Memory required for data: 1515317200
I0909 16:23:07.171680 62239 layer_factory.hpp:77] Creating layer inception_3b/relu_5x5_reduce
I0909 16:23:07.171687 62239 net.cpp:115] Creating Layer inception_3b/relu_5x5_reduce
I0909 16:23:07.171694 62239 net.cpp:516] inception_3b/relu_5x5_reduce <- inception_3b/5x5_reduce
I0909 16:23:07.171700 62239 net.cpp:477] inception_3b/relu_5x5_reduce -> inception_3b/5x5_reduce (in-place)
I0909 16:23:07.171708 62239 net.cpp:153] Setting up inception_3b/relu_5x5_reduce
I0909 16:23:07.171715 62239 net.cpp:160] Top shape: 50 32 28 28 (1254400)
I0909 16:23:07.171720 62239 net.cpp:168] Memory required for data: 1520334800
I0909 16:23:07.171739 62239 layer_factory.hpp:77] Creating layer inception_3b/5x5
I0909 16:23:07.171753 62239 net.cpp:115] Creating Layer inception_3b/5x5
I0909 16:23:07.171762 62239 net.cpp:516] inception_3b/5x5 <- inception_3b/5x5_reduce
I0909 16:23:07.171771 62239 net.cpp:490] inception_3b/5x5 -> inception_3b/5x5
I0909 16:23:07.172499 62239 net.cpp:153] Setting up inception_3b/5x5
I0909 16:23:07.172514 62239 net.cpp:160] Top shape: 50 96 28 28 (3763200)
I0909 16:23:07.172520 62239 net.cpp:168] Memory required for data: 1535387600
I0909 16:23:07.172528 62239 layer_factory.hpp:77] Creating layer inception_3b/relu_5x5
I0909 16:23:07.172536 62239 net.cpp:115] Creating Layer inception_3b/relu_5x5
I0909 16:23:07.172541 62239 net.cpp:516] inception_3b/relu_5x5 <- inception_3b/5x5
I0909 16:23:07.172551 62239 net.cpp:477] inception_3b/relu_5x5 -> inception_3b/5x5 (in-place)
I0909 16:23:07.172560 62239 net.cpp:153] Setting up inception_3b/relu_5x5
I0909 16:23:07.172567 62239 net.cpp:160] Top shape: 50 96 28 28 (3763200)
I0909 16:23:07.172572 62239 net.cpp:168] Memory required for data: 1550440400
I0909 16:23:07.172577 62239 layer_factory.hpp:77] Creating layer inception_3b/pool
I0909 16:23:07.172585 62239 net.cpp:115] Creating Layer inception_3b/pool
I0909 16:23:07.172590 62239 net.cpp:516] inception_3b/pool <- inception_3a/output_inception_3a/output_0_split_3
I0909 16:23:07.172597 62239 net.cpp:490] inception_3b/pool -> inception_3b/pool
I0909 16:23:07.172641 62239 net.cpp:153] Setting up inception_3b/pool
I0909 16:23:07.172653 62239 net.cpp:160] Top shape: 50 256 28 28 (10035200)
I0909 16:23:07.172658 62239 net.cpp:168] Memory required for data: 1590581200
I0909 16:23:07.172663 62239 layer_factory.hpp:77] Creating layer inception_3b/pool_proj
I0909 16:23:07.172677 62239 net.cpp:115] Creating Layer inception_3b/pool_proj
I0909 16:23:07.172683 62239 net.cpp:516] inception_3b/pool_proj <- inception_3b/pool
I0909 16:23:07.172694 62239 net.cpp:490] inception_3b/pool_proj -> inception_3b/pool_proj
I0909 16:23:07.173027 62239 net.cpp:153] Setting up inception_3b/pool_proj
I0909 16:23:07.173041 62239 net.cpp:160] Top shape: 50 64 28 28 (2508800)
I0909 16:23:07.173046 62239 net.cpp:168] Memory required for data: 1600616400
I0909 16:23:07.173054 62239 layer_factory.hpp:77] Creating layer inception_3b/relu_pool_proj
I0909 16:23:07.173064 62239 net.cpp:115] Creating Layer inception_3b/relu_pool_proj
I0909 16:23:07.173070 62239 net.cpp:516] inception_3b/relu_pool_proj <- inception_3b/pool_proj
I0909 16:23:07.173077 62239 net.cpp:477] inception_3b/relu_pool_proj -> inception_3b/pool_proj (in-place)
I0909 16:23:07.173085 62239 net.cpp:153] Setting up inception_3b/relu_pool_proj
I0909 16:23:07.173092 62239 net.cpp:160] Top shape: 50 64 28 28 (2508800)
I0909 16:23:07.173097 62239 net.cpp:168] Memory required for data: 1610651600
I0909 16:23:07.173102 62239 layer_factory.hpp:77] Creating layer inception_3b/output
I0909 16:23:07.173110 62239 net.cpp:115] Creating Layer inception_3b/output
I0909 16:23:07.173115 62239 net.cpp:516] inception_3b/output <- inception_3b/1x1
I0909 16:23:07.173120 62239 net.cpp:516] inception_3b/output <- inception_3b/3x3
I0909 16:23:07.173126 62239 net.cpp:516] inception_3b/output <- inception_3b/5x5
I0909 16:23:07.173131 62239 net.cpp:516] inception_3b/output <- inception_3b/pool_proj
I0909 16:23:07.173141 62239 net.cpp:490] inception_3b/output -> inception_3b/output
I0909 16:23:07.173167 62239 net.cpp:153] Setting up inception_3b/output
I0909 16:23:07.173179 62239 net.cpp:160] Top shape: 50 480 28 28 (18816000)
I0909 16:23:07.173184 62239 net.cpp:168] Memory required for data: 1685915600
I0909 16:23:07.173189 62239 layer_factory.hpp:77] Creating layer pool3/3x3_s2
I0909 16:23:07.173200 62239 net.cpp:115] Creating Layer pool3/3x3_s2
I0909 16:23:07.173207 62239 net.cpp:516] pool3/3x3_s2 <- inception_3b/output
I0909 16:23:07.173215 62239 net.cpp:490] pool3/3x3_s2 -> pool3/3x3_s2
I0909 16:23:07.173256 62239 net.cpp:153] Setting up pool3/3x3_s2
I0909 16:23:07.173269 62239 net.cpp:160] Top shape: 50 480 14 14 (4704000)
I0909 16:23:07.173286 62239 net.cpp:168] Memory required for data: 1704731600
I0909 16:23:07.173293 62239 layer_factory.hpp:77] Creating layer pool3/3x3_s2_pool3/3x3_s2_0_split
I0909 16:23:07.173301 62239 net.cpp:115] Creating Layer pool3/3x3_s2_pool3/3x3_s2_0_split
I0909 16:23:07.173307 62239 net.cpp:516] pool3/3x3_s2_pool3/3x3_s2_0_split <- pool3/3x3_s2
I0909 16:23:07.173323 62239 net.cpp:490] pool3/3x3_s2_pool3/3x3_s2_0_split -> pool3/3x3_s2_pool3/3x3_s2_0_split_0
I0909 16:23:07.173334 62239 net.cpp:490] pool3/3x3_s2_pool3/3x3_s2_0_split -> pool3/3x3_s2_pool3/3x3_s2_0_split_1
I0909 16:23:07.173342 62239 net.cpp:490] pool3/3x3_s2_pool3/3x3_s2_0_split -> pool3/3x3_s2_pool3/3x3_s2_0_split_2
I0909 16:23:07.173349 62239 net.cpp:490] pool3/3x3_s2_pool3/3x3_s2_0_split -> pool3/3x3_s2_pool3/3x3_s2_0_split_3
I0909 16:23:07.173409 62239 net.cpp:153] Setting up pool3/3x3_s2_pool3/3x3_s2_0_split
I0909 16:23:07.173424 62239 net.cpp:160] Top shape: 50 480 14 14 (4704000)
I0909 16:23:07.173430 62239 net.cpp:160] Top shape: 50 480 14 14 (4704000)
I0909 16:23:07.173435 62239 net.cpp:160] Top shape: 50 480 14 14 (4704000)
I0909 16:23:07.173441 62239 net.cpp:160] Top shape: 50 480 14 14 (4704000)
I0909 16:23:07.173446 62239 net.cpp:168] Memory required for data: 1779995600
I0909 16:23:07.173451 62239 layer_factory.hpp:77] Creating layer inception_4a/1x1
I0909 16:23:07.173465 62239 net.cpp:115] Creating Layer inception_4a/1x1
I0909 16:23:07.173471 62239 net.cpp:516] inception_4a/1x1 <- pool3/3x3_s2_pool3/3x3_s2_0_split_0
I0909 16:23:07.173480 62239 net.cpp:490] inception_4a/1x1 -> inception_4a/1x1
I0909 16:23:07.175699 62239 net.cpp:153] Setting up inception_4a/1x1
I0909 16:23:07.175720 62239 net.cpp:160] Top shape: 50 192 14 14 (1881600)
I0909 16:23:07.175726 62239 net.cpp:168] Memory required for data: 1787522000
I0909 16:23:07.175735 62239 layer_factory.hpp:77] Creating layer inception_4a/relu_1x1
I0909 16:23:07.175747 62239 net.cpp:115] Creating Layer inception_4a/relu_1x1
I0909 16:23:07.175755 62239 net.cpp:516] inception_4a/relu_1x1 <- inception_4a/1x1
I0909 16:23:07.175763 62239 net.cpp:477] inception_4a/relu_1x1 -> inception_4a/1x1 (in-place)
I0909 16:23:07.175773 62239 net.cpp:153] Setting up inception_4a/relu_1x1
I0909 16:23:07.175782 62239 net.cpp:160] Top shape: 50 192 14 14 (1881600)
I0909 16:23:07.175787 62239 net.cpp:168] Memory required for data: 1795048400
I0909 16:23:07.175792 62239 layer_factory.hpp:77] Creating layer inception_4a/3x3_reduce
I0909 16:23:07.175806 62239 net.cpp:115] Creating Layer inception_4a/3x3_reduce
I0909 16:23:07.175813 62239 net.cpp:516] inception_4a/3x3_reduce <- pool3/3x3_s2_pool3/3x3_s2_0_split_1
I0909 16:23:07.175822 62239 net.cpp:490] inception_4a/3x3_reduce -> inception_4a/3x3_reduce
I0909 16:23:07.176373 62239 net.cpp:153] Setting up inception_4a/3x3_reduce
I0909 16:23:07.176388 62239 net.cpp:160] Top shape: 50 96 14 14 (940800)
I0909 16:23:07.176393 62239 net.cpp:168] Memory required for data: 1798811600
I0909 16:23:07.176412 62239 layer_factory.hpp:77] Creating layer inception_4a/relu_3x3_reduce
I0909 16:23:07.176421 62239 net.cpp:115] Creating Layer inception_4a/relu_3x3_reduce
I0909 16:23:07.176429 62239 net.cpp:516] inception_4a/relu_3x3_reduce <- inception_4a/3x3_reduce
I0909 16:23:07.176435 62239 net.cpp:477] inception_4a/relu_3x3_reduce -> inception_4a/3x3_reduce (in-place)
I0909 16:23:07.176443 62239 net.cpp:153] Setting up inception_4a/relu_3x3_reduce
I0909 16:23:07.176450 62239 net.cpp:160] Top shape: 50 96 14 14 (940800)
I0909 16:23:07.176455 62239 net.cpp:168] Memory required for data: 1802574800
I0909 16:23:07.176460 62239 layer_factory.hpp:77] Creating layer inception_4a/3x3
I0909 16:23:07.176472 62239 net.cpp:115] Creating Layer inception_4a/3x3
I0909 16:23:07.176479 62239 net.cpp:516] inception_4a/3x3 <- inception_4a/3x3_reduce
I0909 16:23:07.176487 62239 net.cpp:490] inception_4a/3x3 -> inception_4a/3x3
I0909 16:23:07.177851 62239 net.cpp:153] Setting up inception_4a/3x3
I0909 16:23:07.177867 62239 net.cpp:160] Top shape: 50 208 14 14 (2038400)
I0909 16:23:07.177872 62239 net.cpp:168] Memory required for data: 1810728400
I0909 16:23:07.177902 62239 layer_factory.hpp:77] Creating layer inception_4a/relu_3x3
I0909 16:23:07.177912 62239 net.cpp:115] Creating Layer inception_4a/relu_3x3
I0909 16:23:07.177918 62239 net.cpp:516] inception_4a/relu_3x3 <- inception_4a/3x3
I0909 16:23:07.177928 62239 net.cpp:477] inception_4a/relu_3x3 -> inception_4a/3x3 (in-place)
I0909 16:23:07.177937 62239 net.cpp:153] Setting up inception_4a/relu_3x3
I0909 16:23:07.177943 62239 net.cpp:160] Top shape: 50 208 14 14 (2038400)
I0909 16:23:07.177948 62239 net.cpp:168] Memory required for data: 1818882000
I0909 16:23:07.177953 62239 layer_factory.hpp:77] Creating layer inception_4a/5x5_reduce
I0909 16:23:07.177966 62239 net.cpp:115] Creating Layer inception_4a/5x5_reduce
I0909 16:23:07.177973 62239 net.cpp:516] inception_4a/5x5_reduce <- pool3/3x3_s2_pool3/3x3_s2_0_split_2
I0909 16:23:07.177979 62239 net.cpp:490] inception_4a/5x5_reduce -> inception_4a/5x5_reduce
I0909 16:23:07.178258 62239 net.cpp:153] Setting up inception_4a/5x5_reduce
I0909 16:23:07.178272 62239 net.cpp:160] Top shape: 50 16 14 14 (156800)
I0909 16:23:07.178277 62239 net.cpp:168] Memory required for data: 1819509200
I0909 16:23:07.178311 62239 layer_factory.hpp:77] Creating layer inception_4a/relu_5x5_reduce
I0909 16:23:07.178319 62239 net.cpp:115] Creating Layer inception_4a/relu_5x5_reduce
I0909 16:23:07.178325 62239 net.cpp:516] inception_4a/relu_5x5_reduce <- inception_4a/5x5_reduce
I0909 16:23:07.178335 62239 net.cpp:477] inception_4a/relu_5x5_reduce -> inception_4a/5x5_reduce (in-place)
I0909 16:23:07.178344 62239 net.cpp:153] Setting up inception_4a/relu_5x5_reduce
I0909 16:23:07.178351 62239 net.cpp:160] Top shape: 50 16 14 14 (156800)
I0909 16:23:07.178356 62239 net.cpp:168] Memory required for data: 1820136400
I0909 16:23:07.178360 62239 layer_factory.hpp:77] Creating layer inception_4a/5x5
I0909 16:23:07.178371 62239 net.cpp:115] Creating Layer inception_4a/5x5
I0909 16:23:07.178376 62239 net.cpp:516] inception_4a/5x5 <- inception_4a/5x5_reduce
I0909 16:23:07.178387 62239 net.cpp:490] inception_4a/5x5 -> inception_4a/5x5
I0909 16:23:07.178738 62239 net.cpp:153] Setting up inception_4a/5x5
I0909 16:23:07.178753 62239 net.cpp:160] Top shape: 50 48 14 14 (470400)
I0909 16:23:07.178758 62239 net.cpp:168] Memory required for data: 1822018000
I0909 16:23:07.178766 62239 layer_factory.hpp:77] Creating layer inception_4a/relu_5x5
I0909 16:23:07.178774 62239 net.cpp:115] Creating Layer inception_4a/relu_5x5
I0909 16:23:07.178779 62239 net.cpp:516] inception_4a/relu_5x5 <- inception_4a/5x5
I0909 16:23:07.178789 62239 net.cpp:477] inception_4a/relu_5x5 -> inception_4a/5x5 (in-place)
I0909 16:23:07.178799 62239 net.cpp:153] Setting up inception_4a/relu_5x5
I0909 16:23:07.178805 62239 net.cpp:160] Top shape: 50 48 14 14 (470400)
I0909 16:23:07.178810 62239 net.cpp:168] Memory required for data: 1823899600
I0909 16:23:07.178815 62239 layer_factory.hpp:77] Creating layer inception_4a/pool
I0909 16:23:07.178823 62239 net.cpp:115] Creating Layer inception_4a/pool
I0909 16:23:07.178829 62239 net.cpp:516] inception_4a/pool <- pool3/3x3_s2_pool3/3x3_s2_0_split_3
I0909 16:23:07.178836 62239 net.cpp:490] inception_4a/pool -> inception_4a/pool
I0909 16:23:07.178889 62239 net.cpp:153] Setting up inception_4a/pool
I0909 16:23:07.178900 62239 net.cpp:160] Top shape: 50 480 14 14 (4704000)
I0909 16:23:07.178906 62239 net.cpp:168] Memory required for data: 1842715600
I0909 16:23:07.178911 62239 layer_factory.hpp:77] Creating layer inception_4a/pool_proj
I0909 16:23:07.178925 62239 net.cpp:115] Creating Layer inception_4a/pool_proj
I0909 16:23:07.178931 62239 net.cpp:516] inception_4a/pool_proj <- inception_4a/pool
I0909 16:23:07.178942 62239 net.cpp:490] inception_4a/pool_proj -> inception_4a/pool_proj
I0909 16:23:07.179386 62239 net.cpp:153] Setting up inception_4a/pool_proj
I0909 16:23:07.179401 62239 net.cpp:160] Top shape: 50 64 14 14 (627200)
I0909 16:23:07.179406 62239 net.cpp:168] Memory required for data: 1845224400
I0909 16:23:07.179414 62239 layer_factory.hpp:77] Creating layer inception_4a/relu_pool_proj
I0909 16:23:07.179437 62239 net.cpp:115] Creating Layer inception_4a/relu_pool_proj
I0909 16:23:07.179445 62239 net.cpp:516] inception_4a/relu_pool_proj <- inception_4a/pool_proj
I0909 16:23:07.179451 62239 net.cpp:477] inception_4a/relu_pool_proj -> inception_4a/pool_proj (in-place)
I0909 16:23:07.179460 62239 net.cpp:153] Setting up inception_4a/relu_pool_proj
I0909 16:23:07.179466 62239 net.cpp:160] Top shape: 50 64 14 14 (627200)
I0909 16:23:07.179471 62239 net.cpp:168] Memory required for data: 1847733200
I0909 16:23:07.179476 62239 layer_factory.hpp:77] Creating layer inception_4a/output
I0909 16:23:07.179483 62239 net.cpp:115] Creating Layer inception_4a/output
I0909 16:23:07.179489 62239 net.cpp:516] inception_4a/output <- inception_4a/1x1
I0909 16:23:07.179496 62239 net.cpp:516] inception_4a/output <- inception_4a/3x3
I0909 16:23:07.179502 62239 net.cpp:516] inception_4a/output <- inception_4a/5x5
I0909 16:23:07.179507 62239 net.cpp:516] inception_4a/output <- inception_4a/pool_proj
I0909 16:23:07.179515 62239 net.cpp:490] inception_4a/output -> inception_4a/output
I0909 16:23:07.179548 62239 net.cpp:153] Setting up inception_4a/output
I0909 16:23:07.179559 62239 net.cpp:160] Top shape: 50 512 14 14 (5017600)
I0909 16:23:07.179564 62239 net.cpp:168] Memory required for data: 1867803600
I0909 16:23:07.179570 62239 layer_factory.hpp:77] Creating layer inception_4a/output_inception_4a/output_0_split
I0909 16:23:07.179579 62239 net.cpp:115] Creating Layer inception_4a/output_inception_4a/output_0_split
I0909 16:23:07.179584 62239 net.cpp:516] inception_4a/output_inception_4a/output_0_split <- inception_4a/output
I0909 16:23:07.179607 62239 net.cpp:490] inception_4a/output_inception_4a/output_0_split -> inception_4a/output_inception_4a/output_0_split_0
I0909 16:23:07.179616 62239 net.cpp:490] inception_4a/output_inception_4a/output_0_split -> inception_4a/output_inception_4a/output_0_split_1
I0909 16:23:07.179627 62239 net.cpp:490] inception_4a/output_inception_4a/output_0_split -> inception_4a/output_inception_4a/output_0_split_2
I0909 16:23:07.179636 62239 net.cpp:490] inception_4a/output_inception_4a/output_0_split -> inception_4a/output_inception_4a/output_0_split_3
I0909 16:23:07.179642 62239 net.cpp:490] inception_4a/output_inception_4a/output_0_split -> inception_4a/output_inception_4a/output_0_split_4
I0909 16:23:07.179716 62239 net.cpp:153] Setting up inception_4a/output_inception_4a/output_0_split
I0909 16:23:07.179728 62239 net.cpp:160] Top shape: 50 512 14 14 (5017600)
I0909 16:23:07.179734 62239 net.cpp:160] Top shape: 50 512 14 14 (5017600)
I0909 16:23:07.179740 62239 net.cpp:160] Top shape: 50 512 14 14 (5017600)
I0909 16:23:07.179746 62239 net.cpp:160] Top shape: 50 512 14 14 (5017600)
I0909 16:23:07.179751 62239 net.cpp:160] Top shape: 50 512 14 14 (5017600)
I0909 16:23:07.179756 62239 net.cpp:168] Memory required for data: 1968155600
I0909 16:23:07.179761 62239 layer_factory.hpp:77] Creating layer loss1/ave_pool
I0909 16:23:07.179771 62239 net.cpp:115] Creating Layer loss1/ave_pool
I0909 16:23:07.179780 62239 net.cpp:516] loss1/ave_pool <- inception_4a/output_inception_4a/output_0_split_0
I0909 16:23:07.179786 62239 net.cpp:490] loss1/ave_pool -> loss1/ave_pool
I0909 16:23:07.179816 62239 net.cpp:153] Setting up loss1/ave_pool
I0909 16:23:07.179827 62239 net.cpp:160] Top shape: 50 512 4 4 (409600)
I0909 16:23:07.179832 62239 net.cpp:168] Memory required for data: 1969794000
I0909 16:23:07.179837 62239 layer_factory.hpp:77] Creating layer loss1/conv
I0909 16:23:07.179850 62239 net.cpp:115] Creating Layer loss1/conv
I0909 16:23:07.179855 62239 net.cpp:516] loss1/conv <- loss1/ave_pool
I0909 16:23:07.179863 62239 net.cpp:490] loss1/conv -> loss1/conv
I0909 16:23:07.180508 62239 net.cpp:153] Setting up loss1/conv
I0909 16:23:07.180521 62239 net.cpp:160] Top shape: 50 128 4 4 (102400)
I0909 16:23:07.180526 62239 net.cpp:168] Memory required for data: 1970203600
I0909 16:23:07.180534 62239 layer_factory.hpp:77] Creating layer loss1/relu_conv
I0909 16:23:07.180553 62239 net.cpp:115] Creating Layer loss1/relu_conv
I0909 16:23:07.180560 62239 net.cpp:516] loss1/relu_conv <- loss1/conv
I0909 16:23:07.180572 62239 net.cpp:477] loss1/relu_conv -> loss1/conv (in-place)
I0909 16:23:07.180579 62239 net.cpp:153] Setting up loss1/relu_conv
I0909 16:23:07.180586 62239 net.cpp:160] Top shape: 50 128 4 4 (102400)
I0909 16:23:07.180591 62239 net.cpp:168] Memory required for data: 1970613200
I0909 16:23:07.180596 62239 layer_factory.hpp:77] Creating layer loss1/fc
I0909 16:23:07.180611 62239 net.cpp:115] Creating Layer loss1/fc
I0909 16:23:07.180618 62239 net.cpp:516] loss1/fc <- loss1/conv
I0909 16:23:07.180626 62239 net.cpp:490] loss1/fc -> loss1/fc
I0909 16:23:07.199645 62239 net.cpp:153] Setting up loss1/fc
I0909 16:23:07.199681 62239 net.cpp:160] Top shape: 50 1024 (51200)
I0909 16:23:07.199687 62239 net.cpp:168] Memory required for data: 1970818000
I0909 16:23:07.199700 62239 layer_factory.hpp:77] Creating layer loss1/relu_fc
I0909 16:23:07.199715 62239 net.cpp:115] Creating Layer loss1/relu_fc
I0909 16:23:07.199723 62239 net.cpp:516] loss1/relu_fc <- loss1/fc
I0909 16:23:07.199733 62239 net.cpp:477] loss1/relu_fc -> loss1/fc (in-place)
I0909 16:23:07.199748 62239 net.cpp:153] Setting up loss1/relu_fc
I0909 16:23:07.199759 62239 net.cpp:160] Top shape: 50 1024 (51200)
I0909 16:23:07.199764 62239 net.cpp:168] Memory required for data: 1971022800
I0909 16:23:07.199769 62239 layer_factory.hpp:77] Creating layer loss1/drop_fc
I0909 16:23:07.199796 62239 net.cpp:115] Creating Layer loss1/drop_fc
I0909 16:23:07.199805 62239 net.cpp:516] loss1/drop_fc <- loss1/fc
I0909 16:23:07.199811 62239 net.cpp:477] loss1/drop_fc -> loss1/fc (in-place)
I0909 16:23:07.199848 62239 net.cpp:153] Setting up loss1/drop_fc
I0909 16:23:07.199861 62239 net.cpp:160] Top shape: 50 1024 (51200)
I0909 16:23:07.199865 62239 net.cpp:168] Memory required for data: 1971227600
I0909 16:23:07.199872 62239 layer_factory.hpp:77] Creating layer loss1/classifier
I0909 16:23:07.199885 62239 net.cpp:115] Creating Layer loss1/classifier
I0909 16:23:07.199892 62239 net.cpp:516] loss1/classifier <- loss1/fc
I0909 16:23:07.199903 62239 net.cpp:490] loss1/classifier -> loss1/classifier
I0909 16:23:07.208670 62239 net.cpp:153] Setting up loss1/classifier
I0909 16:23:07.208709 62239 net.cpp:160] Top shape: 50 1000 (50000)
I0909 16:23:07.208715 62239 net.cpp:168] Memory required for data: 1971427600
I0909 16:23:07.208729 62239 layer_factory.hpp:77] Creating layer loss1/classifier_loss1/classifier_0_split
I0909 16:23:07.208742 62239 net.cpp:115] Creating Layer loss1/classifier_loss1/classifier_0_split
I0909 16:23:07.208750 62239 net.cpp:516] loss1/classifier_loss1/classifier_0_split <- loss1/classifier
I0909 16:23:07.208762 62239 net.cpp:490] loss1/classifier_loss1/classifier_0_split -> loss1/classifier_loss1/classifier_0_split_0
I0909 16:23:07.208796 62239 net.cpp:490] loss1/classifier_loss1/classifier_0_split -> loss1/classifier_loss1/classifier_0_split_1
I0909 16:23:07.208808 62239 net.cpp:490] loss1/classifier_loss1/classifier_0_split -> loss1/classifier_loss1/classifier_0_split_2
I0909 16:23:07.208866 62239 net.cpp:153] Setting up loss1/classifier_loss1/classifier_0_split
I0909 16:23:07.208878 62239 net.cpp:160] Top shape: 50 1000 (50000)
I0909 16:23:07.208884 62239 net.cpp:160] Top shape: 50 1000 (50000)
I0909 16:23:07.208889 62239 net.cpp:160] Top shape: 50 1000 (50000)
I0909 16:23:07.208894 62239 net.cpp:168] Memory required for data: 1972027600
I0909 16:23:07.208900 62239 layer_factory.hpp:77] Creating layer loss1/loss
I0909 16:23:07.208919 62239 net.cpp:115] Creating Layer loss1/loss
I0909 16:23:07.208925 62239 net.cpp:516] loss1/loss <- loss1/classifier_loss1/classifier_0_split_0
I0909 16:23:07.208933 62239 net.cpp:516] loss1/loss <- label_data_1_split_0
…
I0909 16:23:07.209344 62239 net.cpp:153] Setting up loss1/top-5
I0909 16:23:07.209352 62239 net.cpp:160] Top shape: (1)
I0909 16:23:07.209357 62239 net.cpp:168] Memory required for data: 1972027612
I0909 16:23:07.209362 62239 layer_factory.hpp:77] Creating layer inception_4b/1x1
I0909 16:23:07.209378 62239 net.cpp:115] Creating Layer inception_4b/1x1
I0909 16:23:07.209384 62239 net.cpp:516] inception_4b/1x1 <- inception_4a/output_inception_4a/output_0_split_1
I0909 16:23:07.209393 62239 net.cpp:490] inception_4b/1x1 -> inception_4b/1x1
I0909 16:23:07.210168 62239 net.cpp:153] Setting up inception_4b/1x1
I0909 16:23:07.210181 62239 net.cpp:160] Top shape: 50 160 14 14 (1568000)
I0909 16:23:07.210186 62239 net.cpp:168] Memory required for data: 1978299612
I0909 16:23:07.210194 62239 layer_factory.hpp:77] Creating layer inception_4b/relu_1x1
I0909 16:23:07.210203 62239 net.cpp:115] Creating Layer inception_4b/relu_1x1
I0909 16:23:07.210209 62239 net.cpp:516] inception_4b/relu_1x1 <- inception_4b/1x1
I0909 16:23:07.210216 62239 net.cpp:477] inception_4b/relu_1x1 -> inception_4b/1x1 (in-place)
I0909 16:23:07.210228 62239 net.cpp:153] Setting up inception_4b/relu_1x1
I0909 16:23:07.210235 62239 net.cpp:160] Top shape: 50 160 14 14 (1568000)
I0909 16:23:07.210240 62239 net.cpp:168] Memory required for data: 1984571612
I0909 16:23:07.210244 62239 layer_factory.hpp:77] Creating layer inception_4b/3x3_reduce
I0909 16:23:07.210255 62239 net.cpp:115] Creating Layer inception_4b/3x3_reduce
I0909 16:23:07.210260 62239 net.cpp:516] inception_4b/3x3_reduce <- inception_4a/output_inception_4a/output_0_split_2
I0909 16:23:07.210271 62239 net.cpp:490] inception_4b/3x3_reduce -> inception_4b/3x3_reduce
I0909 16:23:07.210897 62239 net.cpp:153] Setting up inception_4b/3x3_reduce
I0909 16:23:07.210911 62239 net.cpp:160] Top shape: 50 112 14 14 (1097600)
I0909 16:23:07.210916 62239 net.cpp:168] Memory required for data: 1988962012
I0909 16:23:07.210923 62239 layer_factory.hpp:77] Creating layer inception_4b/relu_3x3_reduce
I0909 16:23:07.210932 62239 net.cpp:115] Creating Layer inception_4b/relu_3x3_reduce
I0909 16:23:07.210937 62239 net.cpp:516] inception_4b/relu_3x3_reduce <- inception_4b/3x3_reduce
I0909 16:23:07.210947 62239 net.cpp:477] inception_4b/relu_3x3_reduce -> inception_4b/3x3_reduce (in-place)
I0909 16:23:07.210955 62239 net.cpp:153] Setting up inception_4b/relu_3x3_reduce
I0909 16:23:07.210961 62239 net.cpp:160] Top shape: 50 112 14 14 (1097600)
I0909 16:23:07.210966 62239 net.cpp:168] Memory required for data: 1993352412
I0909 16:23:07.210971 62239 layer_factory.hpp:77] Creating layer inception_4b/3x3
I0909 16:23:07.210984 62239 net.cpp:115] Creating Layer inception_4b/3x3
I0909 16:23:07.210990 62239 net.cpp:516] inception_4b/3x3 <- inception_4b/3x3_reduce
I0909 16:23:07.210997 62239 net.cpp:490] inception_4b/3x3 -> inception_4b/3x3
I0909 16:23:07.214108 62239 net.cpp:153] Setting up inception_4b/3x3
I0909 16:23:07.214130 62239 net.cpp:160] Top shape: 50 224 14 14 (2195200)
I0909 16:23:07.214162 62239 net.cpp:168] Memory required for data: 2002133212
I0909 16:23:07.214174 62239 layer_factory.hpp:77] Creating layer inception_4b/relu_3x3
I0909 16:23:07.214184 62239 net.cpp:115] Creating Layer inception_4b/relu_3x3
I0909 16:23:07.214191 62239 net.cpp:516] inception_4b/relu_3x3 <- inception_4b/3x3
I0909 16:23:07.214207 62239 net.cpp:477] inception_4b/relu_3x3 -> inception_4b/3x3 (in-place)
I0909 16:23:07.214217 62239 net.cpp:153] Setting up inception_4b/relu_3x3
I0909 16:23:07.214224 62239 net.cpp:160] Top shape: 50 224 14 14 (2195200)
I0909 16:23:07.214229 62239 net.cpp:168] Memory required for data: 2010914012
I0909 16:23:07.214234 62239 layer_factory.hpp:77] Creating layer inception_4b/5x5_reduce
I0909 16:23:07.214249 62239 net.cpp:115] Creating Layer inception_4b/5x5_reduce
I0909 16:23:07.214257 62239 net.cpp:516] inception_4b/5x5_reduce <- inception_4a/output_inception_4a/output_0_split_3
I0909 16:23:07.214264 62239 net.cpp:490] inception_4b/5x5_reduce -> inception_4b/5x5_reduce
I0909 16:23:07.214584 62239 net.cpp:153] Setting up inception_4b/5x5_reduce
I0909 16:23:07.214596 62239 net.cpp:160] Top shape: 50 24 14 14 (235200)
I0909 16:23:07.214601 62239 net.cpp:168] Memory required for data: 2011854812
I0909 16:23:07.214609 62239 layer_factory.hpp:77] Creating layer inception_4b/relu_5x5_reduce
I0909 16:23:07.214620 62239 net.cpp:115] Creating Layer inception_4b/relu_5x5_reduce
I0909 16:23:07.214627 62239 net.cpp:516] inception_4b/relu_5x5_reduce <- inception_4b/5x5_reduce
I0909 16:23:07.214634 62239 net.cpp:477] inception_4b/relu_5x5_reduce -> inception_4b/5x5_reduce (in-place)
I0909 16:23:07.214643 62239 net.cpp:153] Setting up inception_4b/relu_5x5_reduce
I0909 16:23:07.214649 62239 net.cpp:160] Top shape: 50 24 14 14 (235200)
I0909 16:23:07.214654 62239 net.cpp:168] Memory required for data: 2012795612
I0909 16:23:07.214659 62239 layer_factory.hpp:77] Creating layer inception_4b/5x5
I0909 16:23:07.214673 62239 net.cpp:115] Creating Layer inception_4b/5x5
I0909 16:23:07.214678 62239 net.cpp:516] inception_4b/5x5 <- inception_4b/5x5_reduce
I0909 16:23:07.214685 62239 net.cpp:490] inception_4b/5x5 -> inception_4b/5x5
I0909 16:23:07.215173 62239 net.cpp:153] Setting up inception_4b/5x5
I0909 16:23:07.215185 62239 net.cpp:160] Top shape: 50 64 14 14 (627200)
I0909 16:23:07.215190 62239 net.cpp:168] Memory required for data: 2015304412
I0909 16:23:07.215198 62239 layer_factory.hpp:77] Creating layer inception_4b/relu_5x5
I0909 16:23:07.215206 62239 net.cpp:115] Creating Layer inception_4b/relu_5x5
I0909 16:23:07.215211 62239 net.cpp:516] inception_4b/relu_5x5 <- inception_4b/5x5
I0909 16:23:07.215221 62239 net.cpp:477] inception_4b/relu_5x5 -> inception_4b/5x5 (in-place)
I0909 16:23:07.215229 62239 net.cpp:153] Setting up inception_4b/relu_5x5
I0909 16:23:07.215236 62239 net.cpp:160] Top shape: 50 64 14 14 (627200)
I0909 16:23:07.215241 62239 net.cpp:168] Memory required for data: 2017813212
I0909 16:23:07.215246 62239 layer_factory.hpp:77] Creating layer inception_4b/pool
I0909 16:23:07.215256 62239 net.cpp:115] Creating Layer inception_4b/pool
I0909 16:23:07.215261 62239 net.cpp:516] inception_4b/pool <- inception_4a/output_inception_4a/output_0_split_4
I0909 16:23:07.215271 62239 net.cpp:490] inception_4b/pool -> inception_4b/pool
I0909 16:23:07.215317 62239 net.cpp:153] Setting up inception_4b/pool
I0909 16:23:07.215327 62239 net.cpp:160] Top shape: 50 512 14 14 (5017600)
I0909 16:23:07.215332 62239 net.cpp:168] Memory required for data: 2037883612
I0909 16:23:07.215337 62239 layer_factory.hpp:77] Creating layer inception_4b/pool_proj
I0909 16:23:07.215349 62239 net.cpp:115] Creating Layer inception_4b/pool_proj
I0909 16:23:07.215355 62239 net.cpp:516] inception_4b/pool_proj <- inception_4b/pool
I0909 16:23:07.215365 62239 net.cpp:490] inception_4b/pool_proj -> inception_4b/pool_proj
I0909 16:23:07.215804 62239 net.cpp:153] Setting up inception_4b/pool_proj
I0909 16:23:07.215817 62239 net.cpp:160] Top shape: 50 64 14 14 (627200)
I0909 16:23:07.215821 62239 net.cpp:168] Memory required for data: 2040392412
I0909 16:23:07.215842 62239 layer_factory.hpp:77] Creating layer inception_4b/relu_pool_proj
I0909 16:23:07.215852 62239 net.cpp:115] Creating Layer inception_4b/relu_pool_proj
I0909 16:23:07.215857 62239 net.cpp:516] inception_4b/relu_pool_proj <- inception_4b/pool_proj
I0909 16:23:07.215864 62239 net.cpp:477] inception_4b/relu_pool_proj -> inception_4b/pool_proj (in-place)
I0909 16:23:07.215873 62239 net.cpp:153] Setting up inception_4b/relu_pool_proj
I0909 16:23:07.215878 62239 net.cpp:160] Top shape: 50 64 14 14 (627200)
I0909 16:23:07.215883 62239 net.cpp:168] Memory required for data: 2042901212
I0909 16:23:07.215888 62239 layer_factory.hpp:77] Creating layer inception_4b/output
I0909 16:23:07.215896 62239 net.cpp:115] Creating Layer inception_4b/output
I0909 16:23:07.215901 62239 net.cpp:516] inception_4b/output <- inception_4b/1x1
I0909 16:23:07.215910 62239 net.cpp:516] inception_4b/output <- inception_4b/3x3
I0909 16:23:07.215916 62239 net.cpp:516] inception_4b/output <- inception_4b/5x5
I0909 16:23:07.215924 62239 net.cpp:516] inception_4b/output <- inception_4b/pool_proj
I0909 16:23:07.215929 62239 net.cpp:490] inception_4b/output -> inception_4b/output
I0909 16:23:07.215961 62239 net.cpp:153] Setting up inception_4b/output
I0909 16:23:07.215971 62239 net.cpp:160] Top shape: 50 512 14 14 (5017600)
I0909 16:23:07.215976 62239 net.cpp:168] Memory required for data: 2062971612
I0909 16:23:07.215981 62239 layer_factory.hpp:77] Creating layer inception_4b/output_inception_4b/output_0_split
I0909 16:23:07.215991 62239 net.cpp:115] Creating Layer inception_4b/output_inception_4b/output_0_split
I0909 16:23:07.215996 62239 net.cpp:516] inception_4b/output_inception_4b/output_0_split <- inception_4b/output
I0909 16:23:07.216002 62239 net.cpp:490] inception_4b/output_inception_4b/output_0_split -> inception_4b/output_inception_4b/output_0_split_0
I0909 16:23:07.216015 62239 net.cpp:490] inception_4b/output_inception_4b/output_0_split -> inception_4b/output_inception_4b/output_0_split_1
I0909 16:23:07.216023 62239 net.cpp:490] inception_4b/output_inception_4b/output_0_split -> inception_4b/output_inception_4b/output_0_split_2
I0909 16:23:07.216032 62239 net.cpp:490] inception_4b/output_inception_4b/output_0_split -> inception_4b/output_inception_4b/output_0_split_3
I0909 16:23:07.216099 62239 net.cpp:153] Setting up inception_4b/output_inception_4b/output_0_split
I0909 16:23:07.216109 62239 net.cpp:160] Top shape: 50 512 14 14 (5017600)
I0909 16:23:07.216115 62239 net.cpp:160] Top shape: 50 512 14 14 (5017600)
I0909 16:23:07.216121 62239 net.cpp:160] Top shape: 50 512 14 14 (5017600)
I0909 16:23:07.216127 62239 net.cpp:160] Top shape: 50 512 14 14 (5017600)
I0909 16:23:07.216131 62239 net.cpp:168] Memory required for data: 2143253212
I0909 16:23:07.216137 62239 layer_factory.hpp:77] Creating layer inception_4c/1x1
I0909 16:23:07.216150 62239 net.cpp:115] Creating Layer inception_4c/1x1
I0909 16:23:07.216156 62239 net.cpp:516] inception_4c/1x1 <- inception_4b/output_inception_4b/output_0_split_0
I0909 16:23:07.216166 62239 net.cpp:490] inception_4c/1x1 -> inception_4c/1x1
I0909 16:23:07.216825 62239 net.cpp:153] Setting up inception_4c/1x1
I0909 16:23:07.216837 62239 net.cpp:160] Top shape: 50 128 14 14 (1254400)
I0909 16:23:07.216842 62239 net.cpp:168] Memory required for data: 2148270812
I0909 16:23:07.216850 62239 layer_factory.hpp:77] Creating layer inception_4c/relu_1x1
I0909 16:23:07.216861 62239 net.cpp:115] Creating Layer inception_4c/relu_1x1
I0909 16:23:07.216866 62239 net.cpp:516] inception_4c/relu_1x1 <- inception_4c/1x1
I0909 16:23:07.216873 62239 net.cpp:477] inception_4c/relu_1x1 -> inception_4c/1x1 (in-place)
I0909 16:23:07.216881 62239 net.cpp:153] Setting up inception_4c/relu_1x1
I0909 16:23:07.216888 62239 net.cpp:160] Top shape: 50 128 14 14 (1254400)
I0909 16:23:07.216893 62239 net.cpp:168] Memory required for data: 2153288412
I0909 16:23:07.216898 62239 layer_factory.hpp:77] Creating layer inception_4c/3x3_reduce
I0909 16:23:07.216912 62239 net.cpp:115] Creating Layer inception_4c/3x3_reduce
I0909 16:23:07.216929 62239 net.cpp:516] inception_4c/3x3_reduce <- inception_4b/output_inception_4b/output_0_split_1
I0909 16:23:07.216943 62239 net.cpp:490] inception_4c/3x3_reduce -> inception_4c/3x3_reduce
I0909 16:23:07.218969 62239 net.cpp:153] Setting up inception_4c/3x3_reduce
I0909 16:23:07.218986 62239 net.cpp:160] Top shape: 50 128 14 14 (1254400)
I0909 16:23:07.218991 62239 net.cpp:168] Memory required for data: 2158306012
I0909 16:23:07.219000 62239 layer_factory.hpp:77] Creating layer inception_4c/relu_3x3_reduce
I0909 16:23:07.219012 62239 net.cpp:115] Creating Layer inception_4c/relu_3x3_reduce
I0909 16:23:07.219018 62239 net.cpp:516] inception_4c/relu_3x3_reduce <- inception_4c/3x3_reduce
I0909 16:23:07.219027 62239 net.cpp:477] inception_4c/relu_3x3_reduce -> inception_4c/3x3_reduce (in-place)
I0909 16:23:07.219035 62239 net.cpp:153] Setting up inception_4c/relu_3x3_reduce
I0909 16:23:07.219043 62239 net.cpp:160] Top shape: 50 128 14 14 (1254400)
I0909 16:23:07.219048 62239 net.cpp:168] Memory required for data: 2163323612
I0909 16:23:07.219053 62239 layer_factory.hpp:77] Creating layer inception_4c/3x3
I0909 16:23:07.219065 62239 net.cpp:115] Creating Layer inception_4c/3x3
I0909 16:23:07.219071 62239 net.cpp:516] inception_4c/3x3 <- inception_4c/3x3_reduce
I0909 16:23:07.219079 62239 net.cpp:490] inception_4c/3x3 -> inception_4c/3x3
I0909 16:23:07.221245 62239 net.cpp:153] Setting up inception_4c/3x3
I0909 16:23:07.221258 62239 net.cpp:160] Top shape: 50 256 14 14 (2508800)
I0909 16:23:07.221264 62239 net.cpp:168] Memory required for data: 2173358812
I0909 16:23:07.221288 62239 layer_factory.hpp:77] Creating layer inception_4c/relu_3x3
I0909 16:23:07.221299 62239 net.cpp:115] Creating Layer inception_4c/relu_3x3
I0909 16:23:07.221307 62239 net.cpp:516] inception_4c/relu_3x3 <- inception_4c/3x3
I0909 16:23:07.221313 62239 net.cpp:477] inception_4c/relu_3x3 -> inception_4c/3x3 (in-place)
I0909 16:23:07.221323 62239 net.cpp:153] Setting up inception_4c/relu_3x3
I0909 16:23:07.221329 62239 net.cpp:160] Top shape: 50 256 14 14 (2508800)
I0909 16:23:07.221334 62239 net.cpp:168] Memory required for data: 2183394012
I0909 16:23:07.221339 62239 layer_factory.hpp:77] Creating layer inception_4c/5x5_reduce
I0909 16:23:07.221349 62239 net.cpp:115] Creating Layer inception_4c/5x5_reduce
I0909 16:23:07.221355 62239 net.cpp:516] inception_4c/5x5_reduce <- inception_4b/output_inception_4b/output_0_split_2
I0909 16:23:07.221366 62239 net.cpp:490] inception_4c/5x5_reduce -> inception_4c/5x5_reduce
I0909 16:23:07.221688 62239 net.cpp:153] Setting up inception_4c/5x5_reduce
I0909 16:23:07.221700 62239 net.cpp:160] Top shape: 50 24 14 14 (235200)
I0909 16:23:07.221705 62239 net.cpp:168] Memory required for data: 2184334812
I0909 16:23:07.221714 62239 layer_factory.hpp:77] Creating layer inception_4c/relu_5x5_reduce
I0909 16:23:07.221721 62239 net.cpp:115] Creating Layer inception_4c/relu_5x5_reduce
I0909 16:23:07.221729 62239 net.cpp:516] inception_4c/relu_5x5_reduce <- inception_4c/5x5_reduce
I0909 16:23:07.221736 62239 net.cpp:477] inception_4c/relu_5x5_reduce -> inception_4c/5x5_reduce (in-place)
I0909 16:23:07.221745 62239 net.cpp:153] Setting up inception_4c/relu_5x5_reduce
I0909 16:23:07.221751 62239 net.cpp:160] Top shape: 50 24 14 14 (235200)
I0909 16:23:07.221755 62239 net.cpp:168] Memory required for data: 2185275612
I0909 16:23:07.221760 62239 layer_factory.hpp:77] Creating layer inception_4c/5x5
I0909 16:23:07.221776 62239 net.cpp:115] Creating Layer inception_4c/5x5
I0909 16:23:07.221781 62239 net.cpp:516] inception_4c/5x5 <- inception_4c/5x5_reduce
I0909 16:23:07.221792 62239 net.cpp:490] inception_4c/5x5 -> inception_4c/5x5
I0909 16:23:07.222276 62239 net.cpp:153] Setting up inception_4c/5x5
I0909 16:23:07.222288 62239 net.cpp:160] Top shape: 50 64 14 14 (627200)
I0909 16:23:07.222293 62239 net.cpp:168] Memory required for data: 2187784412
I0909 16:23:07.222301 62239 layer_factory.hpp:77] Creating layer inception_4c/relu_5x5
I0909 16:23:07.222309 62239 net.cpp:115] Creating Layer inception_4c/relu_5x5
I0909 16:23:07.222342 62239 net.cpp:516] inception_4c/relu_5x5 <- inception_4c/5x5
I0909 16:23:07.222357 62239 net.cpp:477] inception_4c/relu_5x5 -> inception_4c/5x5 (in-place)
I0909 16:23:07.222367 62239 net.cpp:153] Setting up inception_4c/relu_5x5
I0909 16:23:07.222373 62239 net.cpp:160] Top shape: 50 64 14 14 (627200)
I0909 16:23:07.222378 62239 net.cpp:168] Memory required for data: 2190293212
I0909 16:23:07.222383 62239 layer_factory.hpp:77] Creating layer inception_4c/pool
I0909 16:23:07.222393 62239 net.cpp:115] Creating Layer inception_4c/pool
I0909 16:23:07.222398 62239 net.cpp:516] inception_4c/pool <- inception_4b/output_inception_4b/output_0_split_3
I0909 16:23:07.222406 62239 net.cpp:490] inception_4c/pool -> inception_4c/pool
I0909 16:23:07.222455 62239 net.cpp:153] Setting up inception_4c/pool
I0909 16:23:07.222465 62239 net.cpp:160] Top shape: 50 512 14 14 (5017600)
I0909 16:23:07.222470 62239 net.cpp:168] Memory required for data: 2210363612
I0909 16:23:07.222476 62239 layer_factory.hpp:77] Creating layer inception_4c/pool_proj
I0909 16:23:07.222487 62239 net.cpp:115] Creating Layer inception_4c/pool_proj
I0909 16:23:07.222493 62239 net.cpp:516] inception_4c/pool_proj <- inception_4c/pool
I0909 16:23:07.222506 62239 net.cpp:490] inception_4c/pool_proj -> inception_4c/pool_proj
I0909 16:23:07.222939 62239 net.cpp:153] Setting up inception_4c/pool_proj
I0909 16:23:07.222951 62239 net.cpp:160] Top shape: 50 64 14 14 (627200)
I0909 16:23:07.222956 62239 net.cpp:168] Memory required for data: 2212872412
I0909 16:23:07.222965 62239 layer_factory.hpp:77] Creating layer inception_4c/relu_pool_proj
I0909 16:23:07.222975 62239 net.cpp:115] Creating Layer inception_4c/relu_pool_proj
I0909 16:23:07.222981 62239 net.cpp:516] inception_4c/relu_pool_proj <- inception_4c/pool_proj
I0909 16:23:07.222988 62239 net.cpp:477] inception_4c/relu_pool_proj -> inception_4c/pool_proj (in-place)
I0909 16:23:07.222996 62239 net.cpp:153] Setting up inception_4c/relu_pool_proj
I0909 16:23:07.223003 62239 net.cpp:160] Top shape: 50 64 14 14 (627200)
I0909 16:23:07.223008 62239 net.cpp:168] Memory required for data: 2215381212
I0909 16:23:07.223013 62239 layer_factory.hpp:77] Creating layer inception_4c/output
I0909 16:23:07.223021 62239 net.cpp:115] Creating Layer inception_4c/output
I0909 16:23:07.223026 62239 net.cpp:516] inception_4c/output <- inception_4c/1x1
I0909 16:23:07.223033 62239 net.cpp:516] inception_4c/output <- inception_4c/3x3
I0909 16:23:07.223038 62239 net.cpp:516] inception_4c/output <- inception_4c/5x5
I0909 16:23:07.223044 62239 net.cpp:516] inception_4c/output <- inception_4c/pool_proj
I0909 16:23:07.223053 62239 net.cpp:490] inception_4c/output -> inception_4c/output
I0909 16:23:07.223083 62239 net.cpp:153] Setting up inception_4c/output
I0909 16:23:07.223091 62239 net.cpp:160] Top shape: 50 512 14 14 (5017600)
I0909 16:23:07.223098 62239 net.cpp:168] Memory required for data: 2235451612
I0909 16:23:07.223103 62239 layer_factory.hpp:77] Creating layer inception_4c/output_inception_4c/output_0_split
I0909 16:23:07.223114 62239 net.cpp:115] Creating Layer inception_4c/output_inception_4c/output_0_split
I0909 16:23:07.223119 62239 net.cpp:516] inception_4c/output_inception_4c/output_0_split <- inception_4c/output
I0909 16:23:07.223126 62239 net.cpp:490] inception_4c/output_inception_4c/output_0_split -> inception_4c/output_inception_4c/output_0_split_0
I0909 16:23:07.223134 62239 net.cpp:490] inception_4c/output_inception_4c/output_0_split -> inception_4c/output_inception_4c/output_0_split_1
I0909 16:23:07.223145 62239 net.cpp:490] inception_4c/output_inception_4c/output_0_split -> inception_4c/output_inception_4c/output_0_split_2
I0909 16:23:07.223152 62239 net.cpp:490] inception_4c/output_inception_4c/output_0_split -> inception_4c/output_inception_4c/output_0_split_3
I0909 16:23:07.223215 62239 net.cpp:153] Setting up inception_4c/output_inception_4c/output_0_split
I0909 16:23:07.223225 62239 net.cpp:160] Top shape: 50 512 14 14 (5017600)
I0909 16:23:07.223232 62239 net.cpp:160] Top shape: 50 512 14 14 (5017600)
I0909 16:23:07.223249 62239 net.cpp:160] Top shape: 50 512 14 14 (5017600)
I0909 16:23:07.223255 62239 net.cpp:160] Top shape: 50 512 14 14 (5017600)
I0909 16:23:07.223260 62239 net.cpp:168] Memory required for data: 2315733212
I0909 16:23:07.223266 62239 layer_factory.hpp:77] Creating layer inception_4d/1x1
I0909 16:23:07.223279 62239 net.cpp:115] Creating Layer inception_4d/1x1
I0909 16:23:07.223285 62239 net.cpp:516] inception_4d/1x1 <- inception_4c/output_inception_4c/output_0_split_0
I0909 16:23:07.223297 62239 net.cpp:490] inception_4d/1x1 -> inception_4d/1x1
I0909 16:23:07.223896 62239 net.cpp:153] Setting up inception_4d/1x1
I0909 16:23:07.223907 62239 net.cpp:160] Top shape: 50 112 14 14 (1097600)
I0909 16:23:07.223912 62239 net.cpp:168] Memory required for data: 2320123612
I0909 16:23:07.223920 62239 layer_factory.hpp:77] Creating layer inception_4d/relu_1x1
I0909 16:23:07.223928 62239 net.cpp:115] Creating Layer inception_4d/relu_1x1
I0909 16:23:07.223934 62239 net.cpp:516] inception_4d/relu_1x1 <- inception_4d/1x1
I0909 16:23:07.223942 62239 net.cpp:477] inception_4d/relu_1x1 -> inception_4d/1x1 (in-place)
I0909 16:23:07.223949 62239 net.cpp:153] Setting up inception_4d/relu_1x1
I0909 16:23:07.223955 62239 net.cpp:160] Top shape: 50 112 14 14 (1097600)
I0909 16:23:07.223960 62239 net.cpp:168] Memory required for data: 2324514012
I0909 16:23:07.223965 62239 layer_factory.hpp:77] Creating layer inception_4d/3x3_reduce
I0909 16:23:07.223978 62239 net.cpp:115] Creating Layer inception_4d/3x3_reduce
I0909 16:23:07.223984 62239 net.cpp:516] inception_4d/3x3_reduce <- inception_4c/output_inception_4c/output_0_split_1
I0909 16:23:07.223994 62239 net.cpp:490] inception_4d/3x3_reduce -> inception_4d/3x3_reduce
I0909 16:23:07.224714 62239 net.cpp:153] Setting up inception_4d/3x3_reduce
I0909 16:23:07.224726 62239 net.cpp:160] Top shape: 50 144 14 14 (1411200)
I0909 16:23:07.224731 62239 net.cpp:168] Memory required for data: 2330158812
I0909 16:23:07.224740 62239 layer_factory.hpp:77] Creating layer inception_4d/relu_3x3_reduce
I0909 16:23:07.224750 62239 net.cpp:115] Creating Layer inception_4d/relu_3x3_reduce
I0909 16:23:07.224756 62239 net.cpp:516] inception_4d/relu_3x3_reduce <- inception_4d/3x3_reduce
I0909 16:23:07.224762 62239 net.cpp:477] inception_4d/relu_3x3_reduce -> inception_4d/3x3_reduce (in-place)
I0909 16:23:07.224771 62239 net.cpp:153] Setting up inception_4d/relu_3x3_reduce
I0909 16:23:07.224777 62239 net.cpp:160] Top shape: 50 144 14 14 (1411200)
I0909 16:23:07.224782 62239 net.cpp:168] Memory required for data: 2335803612
I0909 16:23:07.224787 62239 layer_factory.hpp:77] Creating layer inception_4d/3x3
I0909 16:23:07.224812 62239 net.cpp:115] Creating Layer inception_4d/3x3
I0909 16:23:07.224818 62239 net.cpp:516] inception_4d/3x3 <- inception_4d/3x3_reduce
I0909 16:23:07.224826 62239 net.cpp:490] inception_4d/3x3 -> inception_4d/3x3
I0909 16:23:07.228886 62239 net.cpp:153] Setting up inception_4d/3x3
I0909 16:23:07.228905 62239 net.cpp:160] Top shape: 50 288 14 14 (2822400)
I0909 16:23:07.228911 62239 net.cpp:168] Memory required for data: 2347093212
I0909 16:23:07.228920 62239 layer_factory.hpp:77] Creating layer inception_4d/relu_3x3
I0909 16:23:07.228932 62239 net.cpp:115] Creating Layer inception_4d/relu_3x3
I0909 16:23:07.228940 62239 net.cpp:516] inception_4d/relu_3x3 <- inception_4d/3x3
I0909 16:23:07.228950 62239 net.cpp:477] inception_4d/relu_3x3 -> inception_4d/3x3 (in-place)
I0909 16:23:07.228960 62239 net.cpp:153] Setting up inception_4d/relu_3x3
I0909 16:23:07.228967 62239 net.cpp:160] Top shape: 50 288 14 14 (2822400)
I0909 16:23:07.228972 62239 net.cpp:168] Memory required for data: 2358382812
I0909 16:23:07.228977 62239 layer_factory.hpp:77] Creating layer inception_4d/5x5_reduce
I0909 16:23:07.228991 62239 net.cpp:115] Creating Layer inception_4d/5x5_reduce
I0909 16:23:07.228997 62239 net.cpp:516] inception_4d/5x5_reduce <- inception_4c/output_inception_4c/output_0_split_2
I0909 16:23:07.229008 62239 net.cpp:490] inception_4d/5x5_reduce -> inception_4d/5x5_reduce
I0909 16:23:07.229398 62239 net.cpp:153] Setting up inception_4d/5x5_reduce
I0909 16:23:07.229411 62239 net.cpp:160] Top shape: 50 32 14 14 (313600)
I0909 16:23:07.229416 62239 net.cpp:168] Memory required for data: 2359637212
I0909 16:23:07.229424 62239 layer_factory.hpp:77] Creating layer inception_4d/relu_5x5_reduce
I0909 16:23:07.229432 62239 net.cpp:115] Creating Layer inception_4d/relu_5x5_reduce
I0909 16:23:07.229439 62239 net.cpp:516] inception_4d/relu_5x5_reduce <- inception_4d/5x5_reduce
I0909 16:23:07.229445 62239 net.cpp:477] inception_4d/relu_5x5_reduce -> inception_4d/5x5_reduce (in-place)
I0909 16:23:07.229454 62239 net.cpp:153] Setting up inception_4d/relu_5x5_reduce
I0909 16:23:07.229460 62239 net.cpp:160] Top shape: 50 32 14 14 (313600)
I0909 16:23:07.229465 62239 net.cpp:168] Memory required for data: 2360891612
I0909 16:23:07.229470 62239 layer_factory.hpp:77] Creating layer inception_4d/5x5
I0909 16:23:07.229482 62239 net.cpp:115] Creating Layer inception_4d/5x5
I0909 16:23:07.229488 62239 net.cpp:516] inception_4d/5x5 <- inception_4d/5x5_reduce
I0909 16:23:07.229499 62239 net.cpp:490] inception_4d/5x5 -> inception_4d/5x5
I0909 16:23:07.230082 62239 net.cpp:153] Setting up inception_4d/5x5
I0909 16:23:07.230095 62239 net.cpp:160] Top shape: 50 64 14 14 (627200)
I0909 16:23:07.230100 62239 net.cpp:168] Memory required for data: 2363400412
I0909 16:23:07.230108 62239 layer_factory.hpp:77] Creating layer inception_4d/relu_5x5
I0909 16:23:07.230118 62239 net.cpp:115] Creating Layer inception_4d/relu_5x5
I0909 16:23:07.230124 62239 net.cpp:516] inception_4d/relu_5x5 <- inception_4d/5x5
I0909 16:23:07.230131 62239 net.cpp:477] inception_4d/relu_5x5 -> inception_4d/5x5 (in-place)
I0909 16:23:07.230139 62239 net.cpp:153] Setting up inception_4d/relu_5x5
I0909 16:23:07.230146 62239 net.cpp:160] Top shape: 50 64 14 14 (627200)
I0909 16:23:07.230151 62239 net.cpp:168] Memory required for data: 2365909212
I0909 16:23:07.230156 62239 layer_factory.hpp:77] Creating layer inception_4d/pool
I0909 16:23:07.230166 62239 net.cpp:115] Creating Layer inception_4d/pool
I0909 16:23:07.230172 62239 net.cpp:516] inception_4d/pool <- inception_4c/output_inception_4c/output_0_split_3
I0909 16:23:07.230180 62239 net.cpp:490] inception_4d/pool -> inception_4d/pool
I0909 16:23:07.230226 62239 net.cpp:153] Setting up inception_4d/pool
I0909 16:23:07.230237 62239 net.cpp:160] Top shape: 50 512 14 14 (5017600)
I0909 16:23:07.230242 62239 net.cpp:168] Memory required for data: 2385979612
I0909 16:23:07.230248 62239 layer_factory.hpp:77] Creating layer inception_4d/pool_proj
I0909 16:23:07.230260 62239 net.cpp:115] Creating Layer inception_4d/pool_proj
I0909 16:23:07.230268 62239 net.cpp:516] inception_4d/pool_proj <- inception_4d/pool
I0909 16:23:07.230275 62239 net.cpp:490] inception_4d/pool_proj -> inception_4d/pool_proj
I0909 16:23:07.230721 62239 net.cpp:153] Setting up inception_4d/pool_proj
I0909 16:23:07.230733 62239 net.cpp:160] Top shape: 50 64 14 14 (627200)
I0909 16:23:07.230738 62239 net.cpp:168] Memory required for data: 2388488412
I0909 16:23:07.230746 62239 layer_factory.hpp:77] Creating layer inception_4d/relu_pool_proj
I0909 16:23:07.230754 62239 net.cpp:115] Creating Layer inception_4d/relu_pool_proj
I0909 16:23:07.230760 62239 net.cpp:516] inception_4d/relu_pool_proj <- inception_4d/pool_proj
I0909 16:23:07.230769 62239 net.cpp:477] inception_4d/relu_pool_proj -> inception_4d/pool_proj (in-place)
I0909 16:23:07.230778 62239 net.cpp:153] Setting up inception_4d/relu_pool_proj
I0909 16:23:07.230784 62239 net.cpp:160] Top shape: 50 64 14 14 (627200)
I0909 16:23:07.230789 62239 net.cpp:168] Memory required for data: 2390997212
I0909 16:23:07.230794 62239 layer_factory.hpp:77] Creating layer inception_4d/output
I0909 16:23:07.230803 62239 net.cpp:115] Creating Layer inception_4d/output
I0909 16:23:07.230808 62239 net.cpp:516] inception_4d/output <- inception_4d/1x1
I0909 16:23:07.230813 62239 net.cpp:516] inception_4d/output <- inception_4d/3x3
I0909 16:23:07.230819 62239 net.cpp:516] inception_4d/output <- inception_4d/5x5
I0909 16:23:07.230836 62239 net.cpp:516] inception_4d/output <- inception_4d/pool_proj
I0909 16:23:07.230844 62239 net.cpp:490] inception_4d/output -> inception_4d/output
I0909 16:23:07.230877 62239 net.cpp:153] Setting up inception_4d/output
I0909 16:23:07.230888 62239 net.cpp:160] Top shape: 50 528 14 14 (5174400)
I0909 16:23:07.230892 62239 net.cpp:168] Memory required for data: 2411694812
I0909 16:23:07.230898 62239 layer_factory.hpp:77] Creating layer inception_4d/output_inception_4d/output_0_split
I0909 16:23:07.230907 62239 net.cpp:115] Creating Layer inception_4d/output_inception_4d/output_0_split
I0909 16:23:07.230913 62239 net.cpp:516] inception_4d/output_inception_4d/output_0_split <- inception_4d/output
I0909 16:23:07.230924 62239 net.cpp:490] inception_4d/output_inception_4d/output_0_split -> inception_4d/output_inception_4d/output_0_split_0
I0909 16:23:07.230933 62239 net.cpp:490] inception_4d/output_inception_4d/output_0_split -> inception_4d/output_inception_4d/output_0_split_1
I0909 16:23:07.230942 62239 net.cpp:490] inception_4d/output_inception_4d/output_0_split -> inception_4d/output_inception_4d/output_0_split_2
I0909 16:23:07.230949 62239 net.cpp:490] inception_4d/output_inception_4d/output_0_split -> inception_4d/output_inception_4d/output_0_split_3
I0909 16:23:07.230957 62239 net.cpp:490] inception_4d/output_inception_4d/output_0_split -> inception_4d/output_inception_4d/output_0_split_4
I0909 16:23:07.231034 62239 net.cpp:153] Setting up inception_4d/output_inception_4d/output_0_split
I0909 16:23:07.231043 62239 net.cpp:160] Top shape: 50 528 14 14 (5174400)
I0909 16:23:07.231050 62239 net.cpp:160] Top shape: 50 528 14 14 (5174400)
I0909 16:23:07.231055 62239 net.cpp:160] Top shape: 50 528 14 14 (5174400)
I0909 16:23:07.231061 62239 net.cpp:160] Top shape: 50 528 14 14 (5174400)
I0909 16:23:07.231066 62239 net.cpp:160] Top shape: 50 528 14 14 (5174400)
I0909 16:23:07.231071 62239 net.cpp:168] Memory required for data: 2515182812
I0909 16:23:07.231076 62239 layer_factory.hpp:77] Creating layer loss2/ave_pool
I0909 16:23:07.231084 62239 net.cpp:115] Creating Layer loss2/ave_pool
I0909 16:23:07.231091 62239 net.cpp:516] loss2/ave_pool <- inception_4d/output_inception_4d/output_0_split_0
I0909 16:23:07.231101 62239 net.cpp:490] loss2/ave_pool -> loss2/ave_pool
I0909 16:23:07.231127 62239 net.cpp:153] Setting up loss2/ave_pool
I0909 16:23:07.231139 62239 net.cpp:160] Top shape: 50 528 4 4 (422400)
I0909 16:23:07.231145 62239 net.cpp:168] Memory required for data: 2516872412
I0909 16:23:07.231150 62239 layer_factory.hpp:77] Creating layer loss2/conv
I0909 16:23:07.231160 62239 net.cpp:115] Creating Layer loss2/conv
I0909 16:23:07.231166 62239 net.cpp:516] loss2/conv <- loss2/ave_pool
I0909 16:23:07.231185 62239 net.cpp:490] loss2/conv -> loss2/conv
I0909 16:23:07.231830 62239 net.cpp:153] Setting up loss2/conv
I0909 16:23:07.231843 62239 net.cpp:160] Top shape: 50 128 4 4 (102400)
I0909 16:23:07.231848 62239 net.cpp:168] Memory required for data: 2517282012
I0909 16:23:07.231856 62239 layer_factory.hpp:77] Creating layer loss2/relu_conv
I0909 16:23:07.231863 62239 net.cpp:115] Creating Layer loss2/relu_conv
I0909 16:23:07.231869 62239 net.cpp:516] loss2/relu_conv <- loss2/conv
I0909 16:23:07.231876 62239 net.cpp:477] loss2/relu_conv -> loss2/conv (in-place)
I0909 16:23:07.231884 62239 net.cpp:153] Setting up loss2/relu_conv
I0909 16:23:07.231891 62239 net.cpp:160] Top shape: 50 128 4 4 (102400)
I0909 16:23:07.231895 62239 net.cpp:168] Memory required for data: 2517691612
I0909 16:23:07.231900 62239 layer_factory.hpp:77] Creating layer loss2/fc
I0909 16:23:07.231914 62239 net.cpp:115] Creating Layer loss2/fc
I0909 16:23:07.231920 62239 net.cpp:516] loss2/fc <- loss2/conv
I0909 16:23:07.231927 62239 net.cpp:490] loss2/fc -> loss2/fc
I0909 16:23:07.249475 62239 net.cpp:153] Setting up loss2/fc
I0909 16:23:07.249511 62239 net.cpp:160] Top shape: 50 1024 (51200)
I0909 16:23:07.249516 62239 net.cpp:168] Memory required for data: 2517896412
I0909 16:23:07.249531 62239 layer_factory.hpp:77] Creating layer loss2/relu_fc
I0909 16:23:07.249583 62239 net.cpp:115] Creating Layer loss2/relu_fc
I0909 16:23:07.249593 62239 net.cpp:516] loss2/relu_fc <- loss2/fc
I0909 16:23:07.249606 62239 net.cpp:477] loss2/relu_fc -> loss2/fc (in-place)
I0909 16:23:07.249620 62239 net.cpp:153] Setting up loss2/relu_fc
I0909 16:23:07.249627 62239 net.cpp:160] Top shape: 50 1024 (51200)
I0909 16:23:07.249634 62239 net.cpp:168] Memory required for data: 2518101212
I0909 16:23:07.249639 62239 layer_factory.hpp:77] Creating layer loss2/drop_fc
I0909 16:23:07.249650 62239 net.cpp:115] Creating Layer loss2/drop_fc
I0909 16:23:07.249655 62239 net.cpp:516] loss2/drop_fc <- loss2/fc
I0909 16:23:07.249661 62239 net.cpp:477] loss2/drop_fc -> loss2/fc (in-place)
I0909 16:23:07.249696 62239 net.cpp:153] Setting up loss2/drop_fc
I0909 16:23:07.249706 62239 net.cpp:160] Top shape: 50 1024 (51200)
I0909 16:23:07.249711 62239 net.cpp:168] Memory required for data: 2518306012
I0909 16:23:07.249716 62239 layer_factory.hpp:77] Creating layer loss2/classifier
I0909 16:23:07.249729 62239 net.cpp:115] Creating Layer loss2/classifier
I0909 16:23:07.249735 62239 net.cpp:516] loss2/classifier <- loss2/fc
I0909 16:23:07.249743 62239 net.cpp:490] loss2/classifier -> loss2/classifier
I0909 16:23:07.258769 62239 net.cpp:153] Setting up loss2/classifier
I0909 16:23:07.258807 62239 net.cpp:160] Top shape: 50 1000 (50000)
I0909 16:23:07.258813 62239 net.cpp:168] Memory required for data: 2518506012
I0909 16:23:07.258826 62239 layer_factory.hpp:77] Creating layer loss2/classifier_loss2/classifier_0_split
I0909 16:23:07.258841 62239 net.cpp:115] Creating Layer loss2/classifier_loss2/classifier_0_split
I0909 16:23:07.258849 62239 net.cpp:516] loss2/classifier_loss2/classifier_0_split <- loss2/classifier
I0909 16:23:07.258860 62239 net.cpp:490] loss2/classifier_loss2/classifier_0_split -> loss2/classifier_loss2/classifier_0_split_0
I0909 16:23:07.258874 62239 net.cpp:490] loss2/classifier_loss2/classifier_0_split -> loss2/classifier_loss2/classifier_0_split_1
I0909 16:23:07.258883 62239 net.cpp:490] loss2/classifier_loss2/classifier_0_split -> loss2/classifier_loss2/classifier_0_split_2
I0909 16:23:07.258944 62239 net.cpp:153] Setting up loss2/classifier_loss2/classifier_0_split
I0909 16:23:07.258955 62239 net.cpp:160] Top shape: 50 1000 (50000)
I0909 16:23:07.258960 62239 net.cpp:160] Top shape: 50 1000 (50000)
I0909 16:23:07.258966 62239 net.cpp:160] Top shape: 50 1000 (50000)
I0909 16:23:07.258970 62239 net.cpp:168] Memory required for data: 2519106012
I0909 16:23:07.258976 62239 layer_factory.hpp:77] Creating layer loss2/loss
I0909 16:23:07.258985 62239 net.cpp:115] Creating Layer loss2/loss
I0909 16:23:07.258991 62239 net.cpp:516] loss2/loss <- loss2/classifier_loss2/classifier_0_split_0
I0909 16:23:07.258999 62239 net.cpp:516] loss2/loss <- label_data_1_split_3
…
I0909 16:23:07.259383 62239 net.cpp:153] Setting up loss2/top-5
I0909 16:23:07.259392 62239 net.cpp:160] Top shape: (1)
I0909 16:23:07.259395 62239 net.cpp:168] Memory required for data: 2519106024
I0909 16:23:07.259402 62239 layer_factory.hpp:77] Creating layer inception_4e/1x1
I0909 16:23:07.259421 62239 net.cpp:115] Creating Layer inception_4e/1x1
I0909 16:23:07.259428 62239 net.cpp:516] inception_4e/1x1 <- inception_4d/output_inception_4d/output_0_split_1
I0909 16:23:07.259440 62239 net.cpp:490] inception_4e/1x1 -> inception_4e/1x1
I0909 16:23:07.261989 62239 net.cpp:153] Setting up inception_4e/1x1
I0909 16:23:07.262006 62239 net.cpp:160] Top shape: 50 256 14 14 (2508800)
I0909 16:23:07.262012 62239 net.cpp:168] Memory required for data: 2529141224
I0909 16:23:07.262020 62239 layer_factory.hpp:77] Creating layer inception_4e/relu_1x1
I0909 16:23:07.262034 62239 net.cpp:115] Creating Layer inception_4e/relu_1x1
I0909 16:23:07.262042 62239 net.cpp:516] inception_4e/relu_1x1 <- inception_4e/1x1
I0909 16:23:07.262049 62239 net.cpp:477] inception_4e/relu_1x1 -> inception_4e/1x1 (in-place)
I0909 16:23:07.262059 62239 net.cpp:153] Setting up inception_4e/relu_1x1
I0909 16:23:07.262065 62239 net.cpp:160] Top shape: 50 256 14 14 (2508800)
I0909 16:23:07.262070 62239 net.cpp:168] Memory required for data: 2539176424
I0909 16:23:07.262075 62239 layer_factory.hpp:77] Creating layer inception_4e/3x3_reduce
I0909 16:23:07.262106 62239 net.cpp:115] Creating Layer inception_4e/3x3_reduce
I0909 16:23:07.262114 62239 net.cpp:516] inception_4e/3x3_reduce <- inception_4d/output_inception_4d/output_0_split_2
I0909 16:23:07.262122 62239 net.cpp:490] inception_4e/3x3_reduce -> inception_4e/3x3_reduce
I0909 16:23:07.262897 62239 net.cpp:153] Setting up inception_4e/3x3_reduce
I0909 16:23:07.262909 62239 net.cpp:160] Top shape: 50 160 14 14 (1568000)
I0909 16:23:07.262915 62239 net.cpp:168] Memory required for data: 2545448424
I0909 16:23:07.262923 62239 layer_factory.hpp:77] Creating layer inception_4e/relu_3x3_reduce
I0909 16:23:07.262933 62239 net.cpp:115] Creating Layer inception_4e/relu_3x3_reduce
I0909 16:23:07.262938 62239 net.cpp:516] inception_4e/relu_3x3_reduce <- inception_4e/3x3_reduce
I0909 16:23:07.262948 62239 net.cpp:477] inception_4e/relu_3x3_reduce -> inception_4e/3x3_reduce (in-place)
I0909 16:23:07.262956 62239 net.cpp:153] Setting up inception_4e/relu_3x3_reduce
I0909 16:23:07.262962 62239 net.cpp:160] Top shape: 50 160 14 14 (1568000)
I0909 16:23:07.262967 62239 net.cpp:168] Memory required for data: 2551720424
I0909 16:23:07.262974 62239 layer_factory.hpp:77] Creating layer inception_4e/3x3
I0909 16:23:07.262986 62239 net.cpp:115] Creating Layer inception_4e/3x3
I0909 16:23:07.262992 62239 net.cpp:516] inception_4e/3x3 <- inception_4e/3x3_reduce
I0909 16:23:07.263000 62239 net.cpp:490] inception_4e/3x3 -> inception_4e/3x3
I0909 16:23:07.267433 62239 net.cpp:153] Setting up inception_4e/3x3
I0909 16:23:07.267458 62239 net.cpp:160] Top shape: 50 320 14 14 (3136000)
I0909 16:23:07.267464 62239 net.cpp:168] Memory required for data: 2564264424
I0909 16:23:07.267474 62239 layer_factory.hpp:77] Creating layer inception_4e/relu_3x3
I0909 16:23:07.267488 62239 net.cpp:115] Creating Layer inception_4e/relu_3x3
I0909 16:23:07.267496 62239 net.cpp:516] inception_4e/relu_3x3 <- inception_4e/3x3
I0909 16:23:07.267505 62239 net.cpp:477] inception_4e/relu_3x3 -> inception_4e/3x3 (in-place)
I0909 16:23:07.267515 62239 net.cpp:153] Setting up inception_4e/relu_3x3
I0909 16:23:07.267523 62239 net.cpp:160] Top shape: 50 320 14 14 (3136000)
I0909 16:23:07.267527 62239 net.cpp:168] Memory required for data: 2576808424
I0909 16:23:07.267534 62239 layer_factory.hpp:77] Creating layer inception_4e/5x5_reduce
I0909 16:23:07.267549 62239 net.cpp:115] Creating Layer inception_4e/5x5_reduce
I0909 16:23:07.267555 62239 net.cpp:516] inception_4e/5x5_reduce <- inception_4d/output_inception_4d/output_0_split_3
I0909 16:23:07.267597 62239 net.cpp:490] inception_4e/5x5_reduce -> inception_4e/5x5_reduce
I0909 16:23:07.267985 62239 net.cpp:153] Setting up inception_4e/5x5_reduce
I0909 16:23:07.267998 62239 net.cpp:160] Top shape: 50 32 14 14 (313600)
I0909 16:23:07.268003 62239 net.cpp:168] Memory required for data: 2578062824
I0909 16:23:07.268012 62239 layer_factory.hpp:77] Creating layer inception_4e/relu_5x5_reduce
I0909 16:23:07.268021 62239 net.cpp:115] Creating Layer inception_4e/relu_5x5_reduce
I0909 16:23:07.268028 62239 net.cpp:516] inception_4e/relu_5x5_reduce <- inception_4e/5x5_reduce
I0909 16:23:07.268034 62239 net.cpp:477] inception_4e/relu_5x5_reduce -> inception_4e/5x5_reduce (in-place)
I0909 16:23:07.268043 62239 net.cpp:153] Setting up inception_4e/relu_5x5_reduce
I0909 16:23:07.268049 62239 net.cpp:160] Top shape: 50 32 14 14 (313600)
I0909 16:23:07.268054 62239 net.cpp:168] Memory required for data: 2579317224
I0909 16:23:07.268059 62239 layer_factory.hpp:77] Creating layer inception_4e/5x5
I0909 16:23:07.268071 62239 net.cpp:115] Creating Layer inception_4e/5x5
I0909 16:23:07.268079 62239 net.cpp:516] inception_4e/5x5 <- inception_4e/5x5_reduce
I0909 16:23:07.268090 62239 net.cpp:490] inception_4e/5x5 -> inception_4e/5x5
I0909 16:23:07.269008 62239 net.cpp:153] Setting up inception_4e/5x5
I0909 16:23:07.269022 62239 net.cpp:160] Top shape: 50 128 14 14 (1254400)
I0909 16:23:07.269027 62239 net.cpp:168] Memory required for data: 2584334824
I0909 16:23:07.269035 62239 layer_factory.hpp:77] Creating layer inception_4e/relu_5x5
I0909 16:23:07.269043 62239 net.cpp:115] Creating Layer inception_4e/relu_5x5
I0909 16:23:07.269049 62239 net.cpp:516] inception_4e/relu_5x5 <- inception_4e/5x5
I0909 16:23:07.269055 62239 net.cpp:477] inception_4e/relu_5x5 -> inception_4e/5x5 (in-place)
I0909 16:23:07.269064 62239 net.cpp:153] Setting up inception_4e/relu_5x5
I0909 16:23:07.269070 62239 net.cpp:160] Top shape: 50 128 14 14 (1254400)
I0909 16:23:07.269075 62239 net.cpp:168] Memory required for data: 2589352424
I0909 16:23:07.269080 62239 layer_factory.hpp:77] Creating layer inception_4e/pool
I0909 16:23:07.269089 62239 net.cpp:115] Creating Layer inception_4e/pool
I0909 16:23:07.269095 62239 net.cpp:516] inception_4e/pool <- inception_4d/output_inception_4d/output_0_split_4
I0909 16:23:07.269103 62239 net.cpp:490] inception_4e/pool -> inception_4e/pool
I0909 16:23:07.269150 62239 net.cpp:153] Setting up inception_4e/pool
I0909 16:23:07.269161 62239 net.cpp:160] Top shape: 50 528 14 14 (5174400)
I0909 16:23:07.269165 62239 net.cpp:168] Memory required for data: 2610050024
I0909 16:23:07.269171 62239 layer_factory.hpp:77] Creating layer inception_4e/pool_proj
I0909 16:23:07.269184 62239 net.cpp:115] Creating Layer inception_4e/pool_proj
I0909 16:23:07.269191 62239 net.cpp:516] inception_4e/pool_proj <- inception_4e/pool
I0909 16:23:07.269201 62239 net.cpp:490] inception_4e/pool_proj -> inception_4e/pool_proj
I0909 16:23:07.269873 62239 net.cpp:153] Setting up inception_4e/pool_proj
I0909 16:23:07.269886 62239 net.cpp:160] Top shape: 50 128 14 14 (1254400)
I0909 16:23:07.269891 62239 net.cpp:168] Memory required for data: 2615067624
I0909 16:23:07.269898 62239 layer_factory.hpp:77] Creating layer inception_4e/relu_pool_proj
I0909 16:23:07.269908 62239 net.cpp:115] Creating Layer inception_4e/relu_pool_proj
I0909 16:23:07.269915 62239 net.cpp:516] inception_4e/relu_pool_proj <- inception_4e/pool_proj
I0909 16:23:07.269922 62239 net.cpp:477] inception_4e/relu_pool_proj -> inception_4e/pool_proj (in-place)
I0909 16:23:07.269930 62239 net.cpp:153] Setting up inception_4e/relu_pool_proj
I0909 16:23:07.269937 62239 net.cpp:160] Top shape: 50 128 14 14 (1254400)
I0909 16:23:07.269942 62239 net.cpp:168] Memory required for data: 2620085224
I0909 16:23:07.269946 62239 layer_factory.hpp:77] Creating layer inception_4e/output
I0909 16:23:07.269954 62239 net.cpp:115] Creating Layer inception_4e/output
I0909 16:23:07.269963 62239 net.cpp:516] inception_4e/output <- inception_4e/1x1
I0909 16:23:07.269969 62239 net.cpp:516] inception_4e/output <- inception_4e/3x3
I0909 16:23:07.269989 62239 net.cpp:516] inception_4e/output <- inception_4e/5x5
I0909 16:23:07.269995 62239 net.cpp:516] inception_4e/output <- inception_4e/pool_proj
I0909 16:23:07.270002 62239 net.cpp:490] inception_4e/output -> inception_4e/output
I0909 16:23:07.270032 62239 net.cpp:153] Setting up inception_4e/output
I0909 16:23:07.270042 62239 net.cpp:160] Top shape: 50 832 14 14 (8153600)
I0909 16:23:07.270047 62239 net.cpp:168] Memory required for data: 2652699624
I0909 16:23:07.270052 62239 layer_factory.hpp:77] Creating layer pool4/3x3_s2
I0909 16:23:07.270064 62239 net.cpp:115] Creating Layer pool4/3x3_s2
I0909 16:23:07.270071 62239 net.cpp:516] pool4/3x3_s2 <- inception_4e/output
I0909 16:23:07.270078 62239 net.cpp:490] pool4/3x3_s2 -> pool4/3x3_s2
I0909 16:23:07.270123 62239 net.cpp:153] Setting up pool4/3x3_s2
I0909 16:23:07.270133 62239 net.cpp:160] Top shape: 50 832 7 7 (2038400)
I0909 16:23:07.270138 62239 net.cpp:168] Memory required for data: 2660853224
I0909 16:23:07.270144 62239 layer_factory.hpp:77] Creating layer pool4/3x3_s2_pool4/3x3_s2_0_split
I0909 16:23:07.270153 62239 net.cpp:115] Creating Layer pool4/3x3_s2_pool4/3x3_s2_0_split
I0909 16:23:07.270159 62239 net.cpp:516] pool4/3x3_s2_pool4/3x3_s2_0_split <- pool4/3x3_s2
I0909 16:23:07.270174 62239 net.cpp:490] pool4/3x3_s2_pool4/3x3_s2_0_split -> pool4/3x3_s2_pool4/3x3_s2_0_split_0
I0909 16:23:07.270181 62239 net.cpp:490] pool4/3x3_s2_pool4/3x3_s2_0_split -> pool4/3x3_s2_pool4/3x3_s2_0_split_1
I0909 16:23:07.270190 62239 net.cpp:490] pool4/3x3_s2_pool4/3x3_s2_0_split -> pool4/3x3_s2_pool4/3x3_s2_0_split_2
I0909 16:23:07.270213 62239 net.cpp:490] pool4/3x3_s2_pool4/3x3_s2_0_split -> pool4/3x3_s2_pool4/3x3_s2_0_split_3
I0909 16:23:07.270277 62239 net.cpp:153] Setting up pool4/3x3_s2_pool4/3x3_s2_0_split
I0909 16:23:07.270288 62239 net.cpp:160] Top shape: 50 832 7 7 (2038400)
I0909 16:23:07.270294 62239 net.cpp:160] Top shape: 50 832 7 7 (2038400)
I0909 16:23:07.270303 62239 net.cpp:160] Top shape: 50 832 7 7 (2038400)
I0909 16:23:07.270309 62239 net.cpp:160] Top shape: 50 832 7 7 (2038400)
I0909 16:23:07.270314 62239 net.cpp:168] Memory required for data: 2693467624
I0909 16:23:07.270319 62239 layer_factory.hpp:77] Creating layer inception_5a/1x1
I0909 16:23:07.270330 62239 net.cpp:115] Creating Layer inception_5a/1x1
I0909 16:23:07.270336 62239 net.cpp:516] inception_5a/1x1 <- pool4/3x3_s2_pool4/3x3_s2_0_split_0
I0909 16:23:07.270347 62239 net.cpp:490] inception_5a/1x1 -> inception_5a/1x1
I0909 16:23:07.279415 62239 net.cpp:153] Setting up inception_5a/1x1
I0909 16:23:07.279429 62239 net.cpp:160] Top shape: 50 256 7 7 (627200)
I0909 16:23:07.279435 62239 net.cpp:168] Memory required for data: 2695976424
I0909 16:23:07.279443 62239 layer_factory.hpp:77] Creating layer inception_5a/relu_1x1
I0909 16:23:07.279453 62239 net.cpp:115] Creating Layer inception_5a/relu_1x1
I0909 16:23:07.279458 62239 net.cpp:516] inception_5a/relu_1x1 <- inception_5a/1x1
I0909 16:23:07.279467 62239 net.cpp:477] inception_5a/relu_1x1 -> inception_5a/1x1 (in-place)
I0909 16:23:07.279476 62239 net.cpp:153] Setting up inception_5a/relu_1x1
I0909 16:23:07.279484 62239 net.cpp:160] Top shape: 50 256 7 7 (627200)
I0909 16:23:07.279489 62239 net.cpp:168] Memory required for data: 2698485224
I0909 16:23:07.279494 62239 layer_factory.hpp:77] Creating layer inception_5a/3x3_reduce
I0909 16:23:07.279505 62239 net.cpp:115] Creating Layer inception_5a/3x3_reduce
I0909 16:23:07.279510 62239 net.cpp:516] inception_5a/3x3_reduce <- pool4/3x3_s2_pool4/3x3_s2_0_split_1
I0909 16:23:07.279520 62239 net.cpp:490] inception_5a/3x3_reduce -> inception_5a/3x3_reduce
I0909 16:23:07.280582 62239 net.cpp:153] Setting up inception_5a/3x3_reduce
I0909 16:23:07.280596 62239 net.cpp:160] Top shape: 50 160 7 7 (392000)
I0909 16:23:07.280601 62239 net.cpp:168] Memory required for data: 2700053224
I0909 16:23:07.280609 62239 layer_factory.hpp:77] Creating layer inception_5a/relu_3x3_reduce
I0909 16:23:07.280616 62239 net.cpp:115] Creating Layer inception_5a/relu_3x3_reduce
I0909 16:23:07.280637 62239 net.cpp:516] inception_5a/relu_3x3_reduce <- inception_5a/3x3_reduce
I0909 16:23:07.280644 62239 net.cpp:477] inception_5a/relu_3x3_reduce -> inception_5a/3x3_reduce (in-place)
I0909 16:23:07.280653 62239 net.cpp:153] Setting up inception_5a/relu_3x3_reduce
I0909 16:23:07.280660 62239 net.cpp:160] Top shape: 50 160 7 7 (392000)
I0909 16:23:07.280665 62239 net.cpp:168] Memory required for data: 2701621224
I0909 16:23:07.280670 62239 layer_factory.hpp:77] Creating layer inception_5a/3x3
I0909 16:23:07.280683 62239 net.cpp:115] Creating Layer inception_5a/3x3
I0909 16:23:07.280689 62239 net.cpp:516] inception_5a/3x3 <- inception_5a/3x3_reduce
I0909 16:23:07.280699 62239 net.cpp:490] inception_5a/3x3 -> inception_5a/3x3
I0909 16:23:07.285116 62239 net.cpp:153] Setting up inception_5a/3x3
I0909 16:23:07.285140 62239 net.cpp:160] Top shape: 50 320 7 7 (784000)
I0909 16:23:07.285145 62239 net.cpp:168] Memory required for data: 2704757224
I0909 16:23:07.285156 62239 layer_factory.hpp:77] Creating layer inception_5a/relu_3x3
I0909 16:23:07.285166 62239 net.cpp:115] Creating Layer inception_5a/relu_3x3
I0909 16:23:07.285174 62239 net.cpp:516] inception_5a/relu_3x3 <- inception_5a/3x3
I0909 16:23:07.285192 62239 net.cpp:477] inception_5a/relu_3x3 -> inception_5a/3x3 (in-place)
I0909 16:23:07.285203 62239 net.cpp:153] Setting up inception_5a/relu_3x3
I0909 16:23:07.285210 62239 net.cpp:160] Top shape: 50 320 7 7 (784000)
I0909 16:23:07.285215 62239 net.cpp:168] Memory required for data: 2707893224
I0909 16:23:07.285220 62239 layer_factory.hpp:77] Creating layer inception_5a/5x5_reduce
I0909 16:23:07.285235 62239 net.cpp:115] Creating Layer inception_5a/5x5_reduce
I0909 16:23:07.285243 62239 net.cpp:516] inception_5a/5x5_reduce <- pool4/3x3_s2_pool4/3x3_s2_0_split_2
I0909 16:23:07.285250 62239 net.cpp:490] inception_5a/5x5_reduce -> inception_5a/5x5_reduce
I0909 16:23:07.285689 62239 net.cpp:153] Setting up inception_5a/5x5_reduce
I0909 16:23:07.285701 62239 net.cpp:160] Top shape: 50 32 7 7 (78400)
I0909 16:23:07.285706 62239 net.cpp:168] Memory required for data: 2708206824
I0909 16:23:07.285715 62239 layer_factory.hpp:77] Creating layer inception_5a/relu_5x5_reduce
I0909 16:23:07.285722 62239 net.cpp:115] Creating Layer inception_5a/relu_5x5_reduce
I0909 16:23:07.285729 62239 net.cpp:516] inception_5a/relu_5x5_reduce <- inception_5a/5x5_reduce
I0909 16:23:07.285738 62239 net.cpp:477] inception_5a/relu_5x5_reduce -> inception_5a/5x5_reduce (in-place)
I0909 16:23:07.285748 62239 net.cpp:153] Setting up inception_5a/relu_5x5_reduce
I0909 16:23:07.285753 62239 net.cpp:160] Top shape: 50 32 7 7 (78400)
I0909 16:23:07.285759 62239 net.cpp:168] Memory required for data: 2708520424
I0909 16:23:07.285764 62239 layer_factory.hpp:77] Creating layer inception_5a/5x5
I0909 16:23:07.285774 62239 net.cpp:115] Creating Layer inception_5a/5x5
I0909 16:23:07.285780 62239 net.cpp:516] inception_5a/5x5 <- inception_5a/5x5_reduce
I0909 16:23:07.285790 62239 net.cpp:490] inception_5a/5x5 -> inception_5a/5x5
I0909 16:23:07.286695 62239 net.cpp:153] Setting up inception_5a/5x5
I0909 16:23:07.286707 62239 net.cpp:160] Top shape: 50 128 7 7 (313600)
I0909 16:23:07.286712 62239 net.cpp:168] Memory required for data: 2709774824
I0909 16:23:07.286720 62239 layer_factory.hpp:77] Creating layer inception_5a/relu_5x5
I0909 16:23:07.286728 62239 net.cpp:115] Creating Layer inception_5a/relu_5x5
I0909 16:23:07.286734 62239 net.cpp:516] inception_5a/relu_5x5 <- inception_5a/5x5
I0909 16:23:07.286741 62239 net.cpp:477] inception_5a/relu_5x5 -> inception_5a/5x5 (in-place)
I0909 16:23:07.286749 62239 net.cpp:153] Setting up inception_5a/relu_5x5
I0909 16:23:07.286756 62239 net.cpp:160] Top shape: 50 128 7 7 (313600)
I0909 16:23:07.286761 62239 net.cpp:168] Memory required for data: 2711029224
I0909 16:23:07.286767 62239 layer_factory.hpp:77] Creating layer inception_5a/pool
I0909 16:23:07.286775 62239 net.cpp:115] Creating Layer inception_5a/pool
I0909 16:23:07.286782 62239 net.cpp:516] inception_5a/pool <- pool4/3x3_s2_pool4/3x3_s2_0_split_3
I0909 16:23:07.286823 62239 net.cpp:490] inception_5a/pool -> inception_5a/pool
I0909 16:23:07.286873 62239 net.cpp:153] Setting up inception_5a/pool
I0909 16:23:07.286885 62239 net.cpp:160] Top shape: 50 832 7 7 (2038400)
I0909 16:23:07.286890 62239 net.cpp:168] Memory required for data: 2719182824
I0909 16:23:07.286895 62239 layer_factory.hpp:77] Creating layer inception_5a/pool_proj
I0909 16:23:07.286909 62239 net.cpp:115] Creating Layer inception_5a/pool_proj
I0909 16:23:07.286916 62239 net.cpp:516] inception_5a/pool_proj <- inception_5a/pool
I0909 16:23:07.286924 62239 net.cpp:490] inception_5a/pool_proj -> inception_5a/pool_proj
I0909 16:23:07.287863 62239 net.cpp:153] Setting up inception_5a/pool_proj
I0909 16:23:07.287875 62239 net.cpp:160] Top shape: 50 128 7 7 (313600)
I0909 16:23:07.287880 62239 net.cpp:168] Memory required for data: 2720437224
I0909 16:23:07.287889 62239 layer_factory.hpp:77] Creating layer inception_5a/relu_pool_proj
I0909 16:23:07.287896 62239 net.cpp:115] Creating Layer inception_5a/relu_pool_proj
I0909 16:23:07.287902 62239 net.cpp:516] inception_5a/relu_pool_proj <- inception_5a/pool_proj
I0909 16:23:07.287912 62239 net.cpp:477] inception_5a/relu_pool_proj -> inception_5a/pool_proj (in-place)
I0909 16:23:07.287921 62239 net.cpp:153] Setting up inception_5a/relu_pool_proj
I0909 16:23:07.287928 62239 net.cpp:160] Top shape: 50 128 7 7 (313600)
I0909 16:23:07.287932 62239 net.cpp:168] Memory required for data: 2721691624
I0909 16:23:07.287937 62239 layer_factory.hpp:77] Creating layer inception_5a/output
I0909 16:23:07.287945 62239 net.cpp:115] Creating Layer inception_5a/output
I0909 16:23:07.287950 62239 net.cpp:516] inception_5a/output <- inception_5a/1x1
I0909 16:23:07.287956 62239 net.cpp:516] inception_5a/output <- inception_5a/3x3
I0909 16:23:07.287962 62239 net.cpp:516] inception_5a/output <- inception_5a/5x5
I0909 16:23:07.287968 62239 net.cpp:516] inception_5a/output <- inception_5a/pool_proj
I0909 16:23:07.287974 62239 net.cpp:490] inception_5a/output -> inception_5a/output
I0909 16:23:07.288007 62239 net.cpp:153] Setting up inception_5a/output
I0909 16:23:07.288017 62239 net.cpp:160] Top shape: 50 832 7 7 (2038400)
I0909 16:23:07.288022 62239 net.cpp:168] Memory required for data: 2729845224
I0909 16:23:07.288028 62239 layer_factory.hpp:77] Creating layer inception_5a/output_inception_5a/output_0_split
I0909 16:23:07.288035 62239 net.cpp:115] Creating Layer inception_5a/output_inception_5a/output_0_split
I0909 16:23:07.288041 62239 net.cpp:516] inception_5a/output_inception_5a/output_0_split <- inception_5a/output
I0909 16:23:07.288051 62239 net.cpp:490] inception_5a/output_inception_5a/output_0_split -> inception_5a/output_inception_5a/output_0_split_0
I0909 16:23:07.288060 62239 net.cpp:490] inception_5a/output_inception_5a/output_0_split -> inception_5a/output_inception_5a/output_0_split_1
I0909 16:23:07.288069 62239 net.cpp:490] inception_5a/output_inception_5a/output_0_split -> inception_5a/output_inception_5a/output_0_split_2
I0909 16:23:07.288076 62239 net.cpp:490] inception_5a/output_inception_5a/output_0_split -> inception_5a/output_inception_5a/output_0_split_3
I0909 16:23:07.288141 62239 net.cpp:153] Setting up inception_5a/output_inception_5a/output_0_split
I0909 16:23:07.288154 62239 net.cpp:160] Top shape: 50 832 7 7 (2038400)
I0909 16:23:07.288161 62239 net.cpp:160] Top shape: 50 832 7 7 (2038400)
I0909 16:23:07.288166 62239 net.cpp:160] Top shape: 50 832 7 7 (2038400)
I0909 16:23:07.288172 62239 net.cpp:160] Top shape: 50 832 7 7 (2038400)
I0909 16:23:07.288177 62239 net.cpp:168] Memory required for data: 2762459624
I0909 16:23:07.288182 62239 layer_factory.hpp:77] Creating layer inception_5b/1x1
I0909 16:23:07.288200 62239 net.cpp:115] Creating Layer inception_5b/1x1
I0909 16:23:07.288208 62239 net.cpp:516] inception_5b/1x1 <- inception_5a/output_inception_5a/output_0_split_0
I0909 16:23:07.288215 62239 net.cpp:490] inception_5b/1x1 -> inception_5b/1x1
I0909 16:23:07.291898 62239 net.cpp:153] Setting up inception_5b/1x1
I0909 16:23:07.291939 62239 net.cpp:160] Top shape: 50 384 7 7 (940800)
I0909 16:23:07.291945 62239 net.cpp:168] Memory required for data: 2766222824
I0909 16:23:07.291954 62239 layer_factory.hpp:77] Creating layer inception_5b/relu_1x1
I0909 16:23:07.291968 62239 net.cpp:115] Creating Layer inception_5b/relu_1x1
I0909 16:23:07.291976 62239 net.cpp:516] inception_5b/relu_1x1 <- inception_5b/1x1
I0909 16:23:07.291985 62239 net.cpp:477] inception_5b/relu_1x1 -> inception_5b/1x1 (in-place)
I0909 16:23:07.291996 62239 net.cpp:153] Setting up inception_5b/relu_1x1
I0909 16:23:07.292002 62239 net.cpp:160] Top shape: 50 384 7 7 (940800)
I0909 16:23:07.292007 62239 net.cpp:168] Memory required for data: 2769986024
I0909 16:23:07.292012 62239 layer_factory.hpp:77] Creating layer inception_5b/3x3_reduce
I0909 16:23:07.292026 62239 net.cpp:115] Creating Layer inception_5b/3x3_reduce
I0909 16:23:07.292032 62239 net.cpp:516] inception_5b/3x3_reduce <- inception_5a/output_inception_5a/output_0_split_1
I0909 16:23:07.292042 62239 net.cpp:490] inception_5b/3x3_reduce -> inception_5b/3x3_reduce
I0909 16:23:07.293303 62239 net.cpp:153] Setting up inception_5b/3x3_reduce
I0909 16:23:07.293316 62239 net.cpp:160] Top shape: 50 192 7 7 (470400)
I0909 16:23:07.293321 62239 net.cpp:168] Memory required for data: 2771867624
I0909 16:23:07.293329 62239 layer_factory.hpp:77] Creating layer inception_5b/relu_3x3_reduce
I0909 16:23:07.293337 62239 net.cpp:115] Creating Layer inception_5b/relu_3x3_reduce
I0909 16:23:07.293344 62239 net.cpp:516] inception_5b/relu_3x3_reduce <- inception_5b/3x3_reduce
I0909 16:23:07.293352 62239 net.cpp:477] inception_5b/relu_3x3_reduce -> inception_5b/3x3_reduce (in-place)
I0909 16:23:07.293361 62239 net.cpp:153] Setting up inception_5b/relu_3x3_reduce
I0909 16:23:07.293368 62239 net.cpp:160] Top shape: 50 192 7 7 (470400)
I0909 16:23:07.293373 62239 net.cpp:168] Memory required for data: 2773749224
I0909 16:23:07.293378 62239 layer_factory.hpp:77] Creating layer inception_5b/3x3
I0909 16:23:07.293390 62239 net.cpp:115] Creating Layer inception_5b/3x3
I0909 16:23:07.293396 62239 net.cpp:516] inception_5b/3x3 <- inception_5b/3x3_reduce
I0909 16:23:07.293404 62239 net.cpp:490] inception_5b/3x3 -> inception_5b/3x3
I0909 16:23:07.299576 62239 net.cpp:153] Setting up inception_5b/3x3
I0909 16:23:07.299604 62239 net.cpp:160] Top shape: 50 384 7 7 (940800)
I0909 16:23:07.299609 62239 net.cpp:168] Memory required for data: 2777512424
I0909 16:23:07.299620 62239 layer_factory.hpp:77] Creating layer inception_5b/relu_3x3
I0909 16:23:07.299633 62239 net.cpp:115] Creating Layer inception_5b/relu_3x3
I0909 16:23:07.299643 62239 net.cpp:516] inception_5b/relu_3x3 <- inception_5b/3x3
I0909 16:23:07.299654 62239 net.cpp:477] inception_5b/relu_3x3 -> inception_5b/3x3 (in-place)
I0909 16:23:07.299666 62239 net.cpp:153] Setting up inception_5b/relu_3x3
I0909 16:23:07.299674 62239 net.cpp:160] Top shape: 50 384 7 7 (940800)
I0909 16:23:07.299679 62239 net.cpp:168] Memory required for data: 2781275624
I0909 16:23:07.299684 62239 layer_factory.hpp:77] Creating layer inception_5b/5x5_reduce
I0909 16:23:07.299700 62239 net.cpp:115] Creating Layer inception_5b/5x5_reduce
I0909 16:23:07.299706 62239 net.cpp:516] inception_5b/5x5_reduce <- inception_5a/output_inception_5a/output_0_split_2
I0909 16:23:07.299715 62239 net.cpp:490] inception_5b/5x5_reduce -> inception_5b/5x5_reduce
I0909 16:23:07.300251 62239 net.cpp:153] Setting up inception_5b/5x5_reduce
I0909 16:23:07.300263 62239 net.cpp:160] Top shape: 50 48 7 7 (117600)
I0909 16:23:07.300268 62239 net.cpp:168] Memory required for data: 2781746024
I0909 16:23:07.300276 62239 layer_factory.hpp:77] Creating layer inception_5b/relu_5x5_reduce
I0909 16:23:07.300284 62239 net.cpp:115] Creating Layer inception_5b/relu_5x5_reduce
I0909 16:23:07.300290 62239 net.cpp:516] inception_5b/relu_5x5_reduce <- inception_5b/5x5_reduce
I0909 16:23:07.300300 62239 net.cpp:477] inception_5b/relu_5x5_reduce -> inception_5b/5x5_reduce (in-place)
I0909 16:23:07.300309 62239 net.cpp:153] Setting up inception_5b/relu_5x5_reduce
I0909 16:23:07.300348 62239 net.cpp:160] Top shape: 50 48 7 7 (117600)
I0909 16:23:07.300354 62239 net.cpp:168] Memory required for data: 2782216424
I0909 16:23:07.300359 62239 layer_factory.hpp:77] Creating layer inception_5b/5x5
I0909 16:23:07.300370 62239 net.cpp:115] Creating Layer inception_5b/5x5
I0909 16:23:07.300376 62239 net.cpp:516] inception_5b/5x5 <- inception_5b/5x5_reduce
I0909 16:23:07.300387 62239 net.cpp:490] inception_5b/5x5 -> inception_5b/5x5
I0909 16:23:07.303043 62239 net.cpp:153] Setting up inception_5b/5x5
I0909 16:23:07.303061 62239 net.cpp:160] Top shape: 50 128 7 7 (313600)
I0909 16:23:07.303066 62239 net.cpp:168] Memory required for data: 2783470824
I0909 16:23:07.303074 62239 layer_factory.hpp:77] Creating layer inception_5b/relu_5x5
I0909 16:23:07.303083 62239 net.cpp:115] Creating Layer inception_5b/relu_5x5
I0909 16:23:07.303091 62239 net.cpp:516] inception_5b/relu_5x5 <- inception_5b/5x5
I0909 16:23:07.303100 62239 net.cpp:477] inception_5b/relu_5x5 -> inception_5b/5x5 (in-place)
I0909 16:23:07.303110 62239 net.cpp:153] Setting up inception_5b/relu_5x5
I0909 16:23:07.303117 62239 net.cpp:160] Top shape: 50 128 7 7 (313600)
I0909 16:23:07.303122 62239 net.cpp:168] Memory required for data: 2784725224
I0909 16:23:07.303127 62239 layer_factory.hpp:77] Creating layer inception_5b/pool
I0909 16:23:07.303135 62239 net.cpp:115] Creating Layer inception_5b/pool
I0909 16:23:07.303141 62239 net.cpp:516] inception_5b/pool <- inception_5a/output_inception_5a/output_0_split_3
I0909 16:23:07.303148 62239 net.cpp:490] inception_5b/pool -> inception_5b/pool
I0909 16:23:07.303200 62239 net.cpp:153] Setting up inception_5b/pool
I0909 16:23:07.303211 62239 net.cpp:160] Top shape: 50 832 7 7 (2038400)
I0909 16:23:07.303216 62239 net.cpp:168] Memory required for data: 2792878824
I0909 16:23:07.303221 62239 layer_factory.hpp:77] Creating layer inception_5b/pool_proj
I0909 16:23:07.303237 62239 net.cpp:115] Creating Layer inception_5b/pool_proj
I0909 16:23:07.303244 62239 net.cpp:516] inception_5b/pool_proj <- inception_5b/pool
I0909 16:23:07.303254 62239 net.cpp:490] inception_5b/pool_proj -> inception_5b/pool_proj
I0909 16:23:07.304155 62239 net.cpp:153] Setting up inception_5b/pool_proj
I0909 16:23:07.304168 62239 net.cpp:160] Top shape: 50 128 7 7 (313600)
I0909 16:23:07.304173 62239 net.cpp:168] Memory required for data: 2794133224
I0909 16:23:07.304181 62239 layer_factory.hpp:77] Creating layer inception_5b/relu_pool_proj
I0909 16:23:07.304190 62239 net.cpp:115] Creating Layer inception_5b/relu_pool_proj
I0909 16:23:07.304196 62239 net.cpp:516] inception_5b/relu_pool_proj <- inception_5b/pool_proj
I0909 16:23:07.304205 62239 net.cpp:477] inception_5b/relu_pool_proj -> inception_5b/pool_proj (in-place)
I0909 16:23:07.304214 62239 net.cpp:153] Setting up inception_5b/relu_pool_proj
I0909 16:23:07.304221 62239 net.cpp:160] Top shape: 50 128 7 7 (313600)
I0909 16:23:07.304226 62239 net.cpp:168] Memory required for data: 2795387624
I0909 16:23:07.304231 62239 layer_factory.hpp:77] Creating layer inception_5b/output
I0909 16:23:07.304239 62239 net.cpp:115] Creating Layer inception_5b/output
I0909 16:23:07.304244 62239 net.cpp:516] inception_5b/output <- inception_5b/1x1
I0909 16:23:07.304251 62239 net.cpp:516] inception_5b/output <- inception_5b/3x3
I0909 16:23:07.304256 62239 net.cpp:516] inception_5b/output <- inception_5b/5x5
I0909 16:23:07.304263 62239 net.cpp:516] inception_5b/output <- inception_5b/pool_proj
I0909 16:23:07.304272 62239 net.cpp:490] inception_5b/output -> inception_5b/output
I0909 16:23:07.304302 62239 net.cpp:153] Setting up inception_5b/output
I0909 16:23:07.304313 62239 net.cpp:160] Top shape: 50 1024 7 7 (2508800)
I0909 16:23:07.304318 62239 net.cpp:168] Memory required for data: 2805422824
I0909 16:23:07.304323 62239 layer_factory.hpp:77] Creating layer pool5/7x7_s1
I0909 16:23:07.304334 62239 net.cpp:115] Creating Layer pool5/7x7_s1
I0909 16:23:07.304340 62239 net.cpp:516] pool5/7x7_s1 <- inception_5b/output
I0909 16:23:07.304348 62239 net.cpp:490] pool5/7x7_s1 -> pool5/7x7_s1
I0909 16:23:07.304404 62239 net.cpp:153] Setting up pool5/7x7_s1
I0909 16:23:07.304415 62239 net.cpp:160] Top shape: 50 1024 1 1 (51200)
I0909 16:23:07.304420 62239 net.cpp:168] Memory required for data: 2805627624
I0909 16:23:07.304425 62239 layer_factory.hpp:77] Creating layer pool5/drop_7x7_s1
I0909 16:23:07.304435 62239 net.cpp:115] Creating Layer pool5/drop_7x7_s1
I0909 16:23:07.304441 62239 net.cpp:516] pool5/drop_7x7_s1 <- pool5/7x7_s1
I0909 16:23:07.304451 62239 net.cpp:477] pool5/drop_7x7_s1 -> pool5/7x7_s1 (in-place)
I0909 16:23:07.304479 62239 net.cpp:153] Setting up pool5/drop_7x7_s1
I0909 16:23:07.304491 62239 net.cpp:160] Top shape: 50 1024 1 1 (51200)
I0909 16:23:07.304497 62239 net.cpp:168] Memory required for data: 2805832424
I0909 16:23:07.304502 62239 layer_factory.hpp:77] Creating layer loss3/classifier
I0909 16:23:07.304512 62239 net.cpp:115] Creating Layer loss3/classifier
I0909 16:23:07.304518 62239 net.cpp:516] loss3/classifier <- pool5/7x7_s1
I0909 16:23:07.304530 62239 net.cpp:490] loss3/classifier -> loss3/classifier
I0909 16:23:07.313273 62239 net.cpp:153] Setting up loss3/classifier
I0909 16:23:07.313294 62239 net.cpp:160] Top shape: 50 1000 (50000)
I0909 16:23:07.313299 62239 net.cpp:168] Memory required for data: 2806032424
I0909 16:23:07.313309 62239 layer_factory.hpp:77] Creating layer loss3/classifier_loss3/classifier_0_split
I0909 16:23:07.313320 62239 net.cpp:115] Creating Layer loss3/classifier_loss3/classifier_0_split
I0909 16:23:07.313328 62239 net.cpp:516] loss3/classifier_loss3/classifier_0_split <- loss3/classifier
I0909 16:23:07.313338 62239 net.cpp:490] loss3/classifier_loss3/classifier_0_split -> loss3/classifier_loss3/classifier_0_split_0
I0909 16:23:07.313349 62239 net.cpp:490] loss3/classifier_loss3/classifier_0_split -> loss3/classifier_loss3/classifier_0_split_1
I0909 16:23:07.313356 62239 net.cpp:490] loss3/classifier_loss3/classifier_0_split -> loss3/classifier_loss3/classifier_0_split_2
I0909 16:23:07.313416 62239 net.cpp:153] Setting up loss3/classifier_loss3/classifier_0_split
I0909 16:23:07.313426 62239 net.cpp:160] Top shape: 50 1000 (50000)
I0909 16:23:07.313433 62239 net.cpp:160] Top shape: 50 1000 (50000)
I0909 16:23:07.313438 62239 net.cpp:160] Top shape: 50 1000 (50000)
I0909 16:23:07.313443 62239 net.cpp:168] Memory required for data: 2806632424
I0909 16:23:07.313448 62239 layer_factory.hpp:77] Creating layer loss3/loss3
I0909 16:23:07.313462 62239 net.cpp:115] Creating Layer loss3/loss3
I0909 16:23:07.313467 62239 net.cpp:516] loss3/loss3 <- loss3/classifier_loss3/classifier_0_split_0
I0909 16:23:07.313474 62239 net.cpp:516] loss3/loss3 <- label_data_1_split_6
…
