…
I0906 15:43:48.129474 35856 net.cpp:347] The NetState phase (1) differed from the phase (0) specified by a rule in layer data
I0906 15:43:48.130620 35856 net.cpp:82] Initializing net from parameters: 
name: "GoogleNet"
state {
  phase: TEST
  level: 0
  stage: ""
}
layer {
  name: "data"
  type: "Data"
  top: "data"
  top: "label"
  include {
    phase: TEST
  }
  transform_param {
    mirror: false
    crop_size: 224
    mean_value: 104
    mean_value: 117
    mean_value: 123
  }
  data_param {
    source: "/mllib/imagenet/ilsvrc12/lmdb_resize/ilsvrc12_val_lmdb"
    batch_size: 50
    backend: LMDB
  }
}
layer {
  name: "conv1/7x7_s2"
  type: "Convolution"
  bottom: "data"
  top: "conv1/7x7_s2"
  param {
    lr_mult: 1
    decay_mult: 1
  }
  param {
    lr_mult: 2
    decay_mult: 0
  }
  convolution_param {
    num_output: 64
    pad: 3
    kernel_size: 7
    stride: 2
    weight_filler {
      type: "xavier"
    }
    bias_filler {
      type: "constant"
      value: 0.2
    }
  }
}
layer {
  name: "conv1/relu_7x7"
  type: "ReLU"
  bottom: "conv1/7x7_s2"
  top: "conv1/7x7_s2"
}
layer {
  name: "pool1/3x3_s2"
  type: "Pooling"
  bottom: "conv1/7x7_s2"
  top: "pool1/3x3_s2"
  pooling_param {
    pool: MAX
    kernel_size: 3
    stride: 2
  }
}
layer {
  name: "pool1/norm1"
  type: "LRNRistretto"
  bottom: "pool1/3x3_s2"
  top: "pool1/norm1"
  lrn_param {
    local_size: 5
    alpha: 0.0001
    beta: 0.75
  }
  quantization_param {
    bw_layer_in: 8
    bw_layer_out: 8
    fl_layer_in: -6
    fl_layer_out: -1
  }
}
layer {
  name: "conv2/3x3_reduce"
  type: "Convolution"
  bottom: "pool1/norm1"
  top: "conv2/3x3_reduce"
  param {
    lr_mult: 1
    decay_mult: 1
  }
  param {
    lr_mult: 2
    decay_mult: 0
  }
  convolution_param {
    num_output: 64
    kernel_size: 1
    weight_filler {
      type: "xavier"
    }
    bias_filler {
      type: "constant"
      value: 0.2
    }
  }
}
layer {
  name: "conv2/relu_3x3_reduce"
  type: "ReLU"
  bottom: "conv2/3x3_reduce"
  top: "conv2/3x3_reduce"
}
layer {
  name: "conv2/3x3"
  type: "Convolution"
  bottom: "conv2/3x3_reduce"
  top: "conv2/3x3"
  param {
    lr_mult: 1
    decay_mult: 1
  }
  param {
    lr_mult: 2
    decay_mult: 0
  }
  convolution_param {
    num_output: 192
    pad: 1
    kernel_size: 3
    weight_filler {
      type: "xavier"
    }
    bias_filler {
      type: "constant"
      value: 0.2
    }
  }
}
layer {
  name: "conv2/relu_3x3"
  type: "ReLU"
  bottom: "conv2/3x3"
  top: "conv2/3x3"
}
layer {
  name: "conv2/norm2"
  type: "LRNRistretto"
  bottom: "conv2/3x3"
  top: "conv2/norm2"
  lrn_param {
    local_size: 5
    alpha: 0.0001
    beta: 0.75
  }
  quantization_param {
    bw_layer_in: 8
    bw_layer_out: 8
    fl_layer_in: -3
    fl_layer_out: -1
  }
}
layer {
  name: "pool2/3x3_s2"
  type: "Pooling"
  bottom: "conv2/norm2"
  top: "pool2/3x3_s2"
  pooling_param {
    pool: MAX
    kernel_size: 3
    stride: 2
  }
}
layer {
  name: "inception_3a/1x1"
  type: "Convolution"
  bottom: "pool2/3x3_s2"
  top: "inception_3a/1x1"
  param {
    lr_mult: 1
    decay_mult: 1
  }
  param {
    lr_mult: 2
    decay_mult: 0
  }
  convolution_param {
    num_output: 64
    kernel_size: 1
    weight_filler {
      type: "xavier"
    }
    bias_filler {
      type: "constant"
      value: 0.2
    }
  }
}
layer {
  name: "inception_3a/relu_1x1"
  type: "ReLU"
  bottom: "inception_3a/1x1"
  top: "inception_3a/1x1"
}
layer {
  name: "inception_3a/3x3_reduce"
  type: "Convolution"
  bottom: "pool2/3x3_s2"
  top: "inception_3a/3x3_reduce"
  param {
    lr_mult: 1
    decay_mult: 1
  }
  param {
    lr_mult: 2
    decay_mult: 0
  }
  convolution_param {
    num_output: 96
    kernel_size: 1
    weight_filler {
      type: "xavier"
    }
    bias_filler {
      type: "constant"
      value: 0.2
    }
  }
}
layer {
  name: "inception_3a/relu_3x3_reduce"
  type: "ReLU"
  bottom: "inception_3a/3x3_reduce"
  top: "inception_3a/3x3_reduce"
}
layer {
  name: "inception_3a/3x3"
  type: "Convolution"
  bottom: "inception_3a/3x3_reduce"
  top: "inception_3a/3x3"
  param {
    lr_mult: 1
    decay_mult: 1
  }
  param {
    lr_mult: 2
    decay_mult: 0
  }
  convolution_param {
    num_output: 128
    pad: 1
    kernel_size: 3
    weight_filler {
      type: "xavier"
    }
    bias_filler {
      type: "constant"
      value: 0.2
    }
  }
}
layer {
  name: "inception_3a/relu_3x3"
  type: "ReLU"
  bottom: "inception_3a/3x3"
  top: "inception_3a/3x3"
}
layer {
  name: "inception_3a/5x5_reduce"
  type: "Convolution"
  bottom: "pool2/3x3_s2"
  top: "inception_3a/5x5_reduce"
  param {
    lr_mult: 1
    decay_mult: 1
  }
  param {
    lr_mult: 2
    decay_mult: 0
  }
  convolution_param {
    num_output: 16
    kernel_size: 1
    weight_filler {
      type: "xavier"
    }
    bias_filler {
      type: "constant"
      value: 0.2
    }
  }
}
layer {
  name: "inception_3a/relu_5x5_reduce"
  type: "ReLU"
  bottom: "inception_3a/5x5_reduce"
  top: "inception_3a/5x5_reduce"
}
layer {
  name: "inception_3a/5x5"
  type: "Convolution"
  bottom: "inception_3a/5x5_reduce"
  top: "inception_3a/5x5"
  param {
    lr_mult: 1
    decay_mult: 1
  }
  param {
    lr_mult: 2
    decay_mult: 0
  }
  convolution_param {
    num_output: 32
    pad: 2
    kernel_size: 5
    weight_filler {
      type: "xavier"
    }
    bias_filler {
      type: "constant"
      value: 0.2
    }
  }
}
layer {
  name: "inception_3a/relu_5x5"
  type: "ReLU"
  bottom: "inception_3a/5x5"
  top: "inception_3a/5x5"
}
layer {
  name: "inception_3a/pool"
  type: "Pooling"
  bottom: "pool2/3x3_s2"
  top: "inception_3a/pool"
  pooling_param {
    pool: MAX
    kernel_size: 3
    stride: 1
    pad: 1
  }
}
layer {
  name: "inception_3a/pool_proj"
  type: "Convolution"
  bottom: "inception_3a/pool"
  top: "inception_3a/pool_proj"
  param {
    lr_mult: 1
    decay_mult: 1
  }
  param {
    lr_mult: 2
    decay_mult: 0
  }
  convolution_param {
    num_output: 32
    kernel_size: 1
    weight_filler {
      type: "xavier"
    }
    bias_filler {
      type: "constant"
      value: 0.2
    }
  }
}
layer {
  name: "inception_3a/relu_pool_proj"
  type: "ReLU"
  bottom: "inception_3a/pool_proj"
  top: "inception_3a/pool_proj"
}
layer {
  name: "inception_3a/output"
  type: "Concat"
  bottom: "inception_3a/1x1"
  bottom: "inception_3a/3x3"
  bottom: "inception_3a/5x5"
  bottom: "inception_3a/pool_proj"
  top: "inception_3a/output"
}
layer {
  name: "inception_3b/1x1"
  type: "Convolution"
  bottom: "inception_3a/output"
  top: "inception_3b/1x1"
  param {
    lr_mult: 1
    decay_mult: 1
  }
  param {
    lr_mult: 2
    decay_mult: 0
  }
  convolution_param {
    num_output: 128
    kernel_size: 1
    weight_filler {
      type: "xavier"
    }
    bias_filler {
      type: "constant"
      value: 0.2
    }
  }
}
layer {
  name: "inception_3b/relu_1x1"
  type: "ReLU"
  bottom: "inception_3b/1x1"
  top: "inception_3b/1x1"
}
layer {
  name: "inception_3b/3x3_reduce"
  type: "Convolution"
  bottom: "inception_3a/output"
  top: "inception_3b/3x3_reduce"
  param {
    lr_mult: 1
    decay_mult: 1
  }
  param {
    lr_mult: 2
    decay_mult: 0
  }
  convolution_param {
    num_output: 128
    kernel_size: 1
    weight_filler {
      type: "xavier"
    }
    bias_filler {
      type: "constant"
      value: 0.2
    }
  }
}
layer {
  name: "inception_3b/relu_3x3_reduce"
  type: "ReLU"
  bottom: "inception_3b/3x3_reduce"
  top: "inception_3b/3x3_reduce"
}
layer {
  name: "inception_3b/3x3"
  type: "Convolution"
  bottom: "inception_3b/3x3_reduce"
  top: "inception_3b/3x3"
  param {
    lr_mult: 1
    decay_mult: 1
  }
  param {
    lr_mult: 2
    decay_mult: 0
  }
  convolution_param {
    num_output: 192
    pad: 1
    kernel_size: 3
    weight_filler {
      type: "xavier"
    }
    bias_filler {
      type: "constant"
      value: 0.2
    }
  }
}
layer {
  name: "inception_3b/relu_3x3"
  type: "ReLU"
  bottom: "inception_3b/3x3"
  top: "inception_3b/3x3"
}
layer {
  name: "inception_3b/5x5_reduce"
  type: "Convolution"
  bottom: "inception_3a/output"
  top: "inception_3b/5x5_reduce"
  param {
    lr_mult: 1
    decay_mult: 1
  }
  param {
    lr_mult: 2
    decay_mult: 0
  }
  convolution_param {
    num_output: 32
    kernel_size: 1
    weight_filler {
      type: "xavier"
    }
    bias_filler {
      type: "constant"
      value: 0.2
    }
  }
}
layer {
  name: "inception_3b/relu_5x5_reduce"
  type: "ReLU"
  bottom: "inception_3b/5x5_reduce"
  top: "inception_3b/5x5_reduce"
}
layer {
  name: "inception_3b/5x5"
  type: "Convolution"
  bottom: "inception_3b/5x5_reduce"
  top: "inception_3b/5x5"
  param {
    lr_mult: 1
    decay_mult: 1
  }
  param {
    lr_mult: 2
    decay_mult: 0
  }
  convolution_param {
    num_output: 96
    pad: 2
    kernel_size: 5
    weight_filler {
      type: "xavier"
    }
    bias_filler {
      type: "constant"
      value: 0.2
    }
  }
}
layer {
  name: "inception_3b/relu_5x5"
  type: "ReLU"
  bottom: "inception_3b/5x5"
  top: "inception_3b/5x5"
}
layer {
  name: "inception_3b/pool"
  type: "Pooling"
  bottom: "inception_3a/output"
  top: "inception_3b/pool"
  pooling_param {
    pool: MAX
    kernel_size: 3
    stride: 1
    pad: 1
  }
}
layer {
  name: "inception_3b/pool_proj"
  type: "Convolution"
  bottom: "inception_3b/pool"
  top: "inception_3b/pool_proj"
  param {
    lr_mult: 1
    decay_mult: 1
  }
  param {
    lr_mult: 2
    decay_mult: 0
  }
  convolution_param {
    num_output: 64
    kernel_size: 1
    weight_filler {
      type: "xavier"
    }
    bias_filler {
      type: "constant"
      value: 0.2
    }
  }
}
layer {
  name: "inception_3b/relu_pool_proj"
  type: "ReLU"
  bottom: "inception_3b/pool_proj"
  top: "inception_3b/pool_proj"
}
layer {
  name: "inception_3b/output"
  type: "Concat"
  bottom: "inception_3b/1x1"
  bottom: "inception_3b/3x3"
  bottom: "inception_3b/5x5"
  bottom: "inception_3b/pool_proj"
  top: "inception_3b/output"
}
layer {
  name: "pool3/3x3_s2"
  type: "Pooling"
  bottom: "inception_3b/output"
  top: "pool3/3x3_s2"
  pooling_param {
    pool: MAX
    kernel_size: 3
    stride: 2
  }
}
layer {
  name: "inception_4a/1x1"
  type: "Convolution"
  bottom: "pool3/3x3_s2"
  top: "inception_4a/1x1"
  param {
    lr_mult: 1
    decay_mult: 1
  }
  param {
    lr_mult: 2
    decay_mult: 0
  }
  convolution_param {
    num_output: 192
    kernel_size: 1
    weight_filler {
      type: "xavier"
    }
    bias_filler {
      type: "constant"
      value: 0.2
    }
  }
}
layer {
  name: "inception_4a/relu_1x1"
  type: "ReLU"
  bottom: "inception_4a/1x1"
  top: "inception_4a/1x1"
}
layer {
  name: "inception_4a/3x3_reduce"
  type: "Convolution"
  bottom: "pool3/3x3_s2"
  top: "inception_4a/3x3_reduce"
  param {
    lr_mult: 1
    decay_mult: 1
  }
  param {
    lr_mult: 2
    decay_mult: 0
  }
  convolution_param {
    num_output: 96
    kernel_size: 1
    weight_filler {
      type: "xavier"
    }
    bias_filler {
      type: "constant"
      value: 0.2
    }
  }
}
layer {
  name: "inception_4a/relu_3x3_reduce"
  type: "ReLU"
  bottom: "inception_4a/3x3_reduce"
  top: "inception_4a/3x3_reduce"
}
layer {
  name: "inception_4a/3x3"
  type: "Convolution"
  bottom: "inception_4a/3x3_reduce"
  top: "inception_4a/3x3"
  param {
    lr_mult: 1
    decay_mult: 1
  }
  param {
    lr_mult: 2
    decay_mult: 0
  }
  convolution_param {
    num_output: 208
    pad: 1
    kernel_size: 3
    weight_filler {
      type: "xavier"
    }
    bias_filler {
      type: "constant"
      value: 0.2
    }
  }
}
layer {
  name: "inception_4a/relu_3x3"
  type: "ReLU"
  bottom: "inception_4a/3x3"
  top: "inception_4a/3x3"
}
layer {
  name: "inception_4a/5x5_reduce"
  type: "Convolution"
  bottom: "pool3/3x3_s2"
  top: "inception_4a/5x5_reduce"
  param {
    lr_mult: 1
    decay_mult: 1
  }
  param {
    lr_mult: 2
    decay_mult: 0
  }
  convolution_param {
    num_output: 16
    kernel_size: 1
    weight_filler {
      type: "xavier"
    }
    bias_filler {
      type: "constant"
      value: 0.2
    }
  }
}
layer {
  name: "inception_4a/relu_5x5_reduce"
  type: "ReLU"
  bottom: "inception_4a/5x5_reduce"
  top: "inception_4a/5x5_reduce"
}
layer {
  name: "inception_4a/5x5"
  type: "Convolution"
  bottom: "inception_4a/5x5_reduce"
  top: "inception_4a/5x5"
  param {
    lr_mult: 1
    decay_mult: 1
  }
  param {
    lr_mult: 2
    decay_mult: 0
  }
  convolution_param {
    num_output: 48
    pad: 2
    kernel_size: 5
    weight_filler {
      type: "xavier"
    }
    bias_filler {
      type: "constant"
      value: 0.2
    }
  }
}
layer {
  name: "inception_4a/relu_5x5"
  type: "ReLU"
  bottom: "inception_4a/5x5"
  top: "inception_4a/5x5"
}
layer {
  name: "inception_4a/pool"
  type: "Pooling"
  bottom: "pool3/3x3_s2"
  top: "inception_4a/pool"
  pooling_param {
    pool: MAX
    kernel_size: 3
    stride: 1
    pad: 1
  }
}
layer {
  name: "inception_4a/pool_proj"
  type: "Convolution"
  bottom: "inception_4a/pool"
  top: "inception_4a/pool_proj"
  param {
    lr_mult: 1
    decay_mult: 1
  }
  param {
    lr_mult: 2
    decay_mult: 0
  }
  convolution_param {
    num_output: 64
    kernel_size: 1
    weight_filler {
      type: "xavier"
    }
    bias_filler {
      type: "constant"
      value: 0.2
    }
  }
}
layer {
  name: "inception_4a/relu_pool_proj"
  type: "ReLU"
  bottom: "inception_4a/pool_proj"
  top: "inception_4a/pool_proj"
}
layer {
  name: "inception_4a/output"
  type: "Concat"
  bottom: "inception_4a/1x1"
  bottom: "inception_4a/3x3"
  bottom: "inception_4a/5x5"
  bottom: "inception_4a/pool_proj"
  top: "inception_4a/output"
}
layer {
  name: "loss1/ave_pool"
  type: "Pooling"
  bottom: "inception_4a/output"
  top: "loss1/ave_pool"
  pooling_param {
    pool: AVE
    kernel_size: 5
    stride: 3
  }
}
layer {
  name: "loss1/conv"
  type: "Convolution"
  bottom: "loss1/ave_pool"
  top: "loss1/conv"
  param {
    lr_mult: 1
    decay_mult: 1
  }
  param {
    lr_mult: 2
    decay_mult: 0
  }
  convolution_param {
    num_output: 128
    kernel_size: 1
    weight_filler {
      type: "xavier"
    }
    bias_filler {
      type: "constant"
      value: 0.2
    }
  }
}
layer {
  name: "loss1/relu_conv"
  type: "ReLU"
  bottom: "loss1/conv"
  top: "loss1/conv"
}
layer {
  name: "loss1/fc"
  type: "InnerProduct"
  bottom: "loss1/conv"
  top: "loss1/fc"
  param {
    lr_mult: 1
    decay_mult: 1
  }
  param {
    lr_mult: 2
    decay_mult: 0
  }
  inner_product_param {
    num_output: 1024
    weight_filler {
      type: "xavier"
    }
    bias_filler {
      type: "constant"
      value: 0.2
    }
  }
}
layer {
  name: "loss1/relu_fc"
  type: "ReLU"
  bottom: "loss1/fc"
  top: "loss1/fc"
}
layer {
  name: "loss1/drop_fc"
  type: "Dropout"
  bottom: "loss1/fc"
  top: "loss1/fc"
  dropout_param {
    dropout_ratio: 0.7
  }
}
layer {
  name: "loss1/classifier"
  type: "InnerProduct"
  bottom: "loss1/fc"
  top: "loss1/classifier"
  param {
    lr_mult: 1
    decay_mult: 1
  }
  param {
    lr_mult: 2
    decay_mult: 0
  }
  inner_product_param {
    num_output: 1000
    weight_filler {
      type: "xavier"
    }
    bias_filler {
      type: "constant"
      value: 0
    }
  }
}
layer {
  name: "loss1/loss"
  type: "SoftmaxWithLoss"
  bottom: "loss1/classifier"
  bottom: "label"
  top: "loss1/loss1"
  loss_weight: 0.3
}
layer {
  name: "loss1/top-1"
  type: "Accuracy"
  bottom: "loss1/classifier"
  bottom: "label"
  top: "loss1/top-1"
  include {
    phase: TEST
  }
}
layer {
  name: "loss1/top-5"
  type: "Accuracy"
  bottom: "loss1/classifier"
  bottom: "label"
  top: "loss1/top-5"
  include {
    phase: TEST
  }
  accuracy_param {
    top_k: 5
  }
}
layer {
  name: "inception_4b/1x1"
  type: "Convolution"
  bottom: "inception_4a/output"
  top: "inception_4b/1x1"
  param {
    lr_mult: 1
    decay_mult: 1
  }
  param {
    lr_mult: 2
    decay_mult: 0
  }
  convolution_param {
    num_output: 160
    kernel_size: 1
    weight_filler {
      type: "xavier"
    }
    bias_filler {
      type: "constant"
      value: 0.2
    }
  }
}
layer {
  name: "inception_4b/relu_1x1"
  type: "ReLU"
  bottom: "inception_4b/1x1"
  top: "inception_4b/1x1"
}
layer {
  name: "inception_4b/3x3_reduce"
  type: "Convolution"
  bottom: "inception_4a/output"
  top: "inception_4b/3x3_reduce"
  param {
    lr_mult: 1
    decay_mult: 1
  }
  param {
    lr_mult: 2
    decay_mult: 0
  }
  convolution_param {
    num_output: 112
    kernel_size: 1
    weight_filler {
      type: "xavier"
    }
    bias_filler {
      type: "constant"
      value: 0.2
    }
  }
}
layer {
  name: "inception_4b/relu_3x3_reduce"
  type: "ReLU"
  bottom: "inception_4b/3x3_reduce"
  top: "inception_4b/3x3_reduce"
}
layer {
  name: "inception_4b/3x3"
  type: "Convolution"
  bottom: "inception_4b/3x3_reduce"
  top: "inception_4b/3x3"
  param {
    lr_mult: 1
    decay_mult: 1
  }
  param {
    lr_mult: 2
    decay_mult: 0
  }
  convolution_param {
    num_output: 224
    pad: 1
    kernel_size: 3
    weight_filler {
      type: "xavier"
    }
    bias_filler {
      type: "constant"
      value: 0.2
    }
  }
}
layer {
  name: "inception_4b/relu_3x3"
  type: "ReLU"
  bottom: "inception_4b/3x3"
  top: "inception_4b/3x3"
}
layer {
  name: "inception_4b/5x5_reduce"
  type: "Convolution"
  bottom: "inception_4a/output"
  top: "inception_4b/5x5_reduce"
  param {
    lr_mult: 1
    decay_mult: 1
  }
  param {
    lr_mult: 2
    decay_mult: 0
  }
  convolution_param {
    num_output: 24
    kernel_size: 1
    weight_filler {
      type: "xavier"
    }
    bias_filler {
      type: "constant"
      value: 0.2
    }
  }
}
layer {
  name: "inception_4b/relu_5x5_reduce"
  type: "ReLU"
  bottom: "inception_4b/5x5_reduce"
  top: "inception_4b/5x5_reduce"
}
layer {
  name: "inception_4b/5x5"
  type: "Convolution"
  bottom: "inception_4b/5x5_reduce"
  top: "inception_4b/5x5"
  param {
    lr_mult: 1
    decay_mult: 1
  }
  param {
    lr_mult: 2
    decay_mult: 0
  }
  convolution_param {
    num_output: 64
    pad: 2
    kernel_size: 5
    weight_filler {
      type: "xavier"
    }
    bias_filler {
      type: "constant"
      value: 0.2
    }
  }
}
layer {
  name: "inception_4b/relu_5x5"
  type: "ReLU"
  bottom: "inception_4b/5x5"
  top: "inception_4b/5x5"
}
layer {
  name: "inception_4b/pool"
  type: "Pooling"
  bottom: "inception_4a/output"
  top: "inception_4b/pool"
  pooling_param {
    pool: MAX
    kernel_size: 3
    stride: 1
    pad: 1
  }
}
layer {
  name: "inception_4b/pool_proj"
  type: "Convolution"
  bottom: "inception_4b/pool"
  top: "inception_4b/pool_proj"
  param {
    lr_mult: 1
    decay_mult: 1
  }
  param {
    lr_mult: 2
    decay_mult: 0
  }
  convolution_param {
    num_output: 64
    kernel_size: 1
    weight_filler {
      type: "xavier"
    }
    bias_filler {
      type: "constant"
      value: 0.2
    }
  }
}
layer {
  name: "inception_4b/relu_pool_proj"
  type: "ReLU"
  bottom: "inception_4b/pool_proj"
  top: "inception_4b/pool_proj"
}
layer {
  name: "inception_4b/output"
  type: "Concat"
  bottom: "inception_4b/1x1"
  bottom: "inception_4b/3x3"
  bottom: "inception_4b/5x5"
  bottom: "inception_4b/pool_proj"
  top: "inception_4b/output"
}
layer {
  name: "inception_4c/1x1"
  type: "Convolution"
  bottom: "inception_4b/output"
  top: "inception_4c/1x1"
  param {
    lr_mult: 1
    decay_mult: 1
  }
  param {
    lr_mult: 2
    decay_mult: 0
  }
  convolution_param {
    num_output: 128
    kernel_size: 1
    weight_filler {
      type: "xavier"
    }
    bias_filler {
      type: "constant"
      value: 0.2
    }
  }
}
layer {
  name: "inception_4c/relu_1x1"
  type: "ReLU"
  bottom: "inception_4c/1x1"
  top: "inception_4c/1x1"
}
layer {
  name: "inception_4c/3x3_reduce"
  type: "Convolution"
  bottom: "inception_4b/output"
  top: "inception_4c/3x3_reduce"
  param {
    lr_mult: 1
    decay_mult: 1
  }
  param {
    lr_mult: 2
    decay_mult: 0
  }
  convolution_param {
    num_output: 128
    kernel_size: 1
    weight_filler {
      type: "xavier"
    }
    bias_filler {
      type: "constant"
      value: 0.2
    }
  }
}
layer {
  name: "inception_4c/relu_3x3_reduce"
  type: "ReLU"
  bottom: "inception_4c/3x3_reduce"
  top: "inception_4c/3x3_reduce"
}
layer {
  name: "inception_4c/3x3"
  type: "Convolution"
  bottom: "inception_4c/3x3_reduce"
  top: "inception_4c/3x3"
  param {
    lr_mult: 1
    decay_mult: 1
  }
  param {
    lr_mult: 2
    decay_mult: 0
  }
  convolution_param {
    num_output: 256
    pad: 1
    kernel_size: 3
    weight_filler {
      type: "xavier"
    }
    bias_filler {
      type: "constant"
      value: 0.2
    }
  }
}
layer {
  name: "inception_4c/relu_3x3"
  type: "ReLU"
  bottom: "inception_4c/3x3"
  top: "inception_4c/3x3"
}
layer {
  name: "inception_4c/5x5_reduce"
  type: "Convolution"
  bottom: "inception_4b/output"
  top: "inception_4c/5x5_reduce"
  param {
    lr_mult: 1
    decay_mult: 1
  }
  param {
    lr_mult: 2
    decay_mult: 0
  }
  convolution_param {
    num_output: 24
    kernel_size: 1
    weight_filler {
      type: "xavier"
    }
    bias_filler {
      type: "constant"
      value: 0.2
    }
  }
}
layer {
  name: "inception_4c/relu_5x5_reduce"
  type: "ReLU"
  bottom: "inception_4c/5x5_reduce"
  top: "inception_4c/5x5_reduce"
}
layer {
  name: "inception_4c/5x5"
  type: "Convolution"
  bottom: "inception_4c/5x5_reduce"
  top: "inception_4c/5x5"
  param {
    lr_mult: 1
    decay_mult: 1
  }
  param {
    lr_mult: 2
    decay_mult: 0
  }
  convolution_param {
    num_output: 64
    pad: 2
    kernel_size: 5
    weight_filler {
      type: "xavier"
    }
    bias_filler {
      type: "constant"
      value: 0.2
    }
  }
}
layer {
  name: "inception_4c/relu_5x5"
  type: "ReLU"
  bottom: "inception_4c/5x5"
  top: "inception_4c/5x5"
}
layer {
  name: "inception_4c/pool"
  type: "Pooling"
  bottom: "inception_4b/output"
  top: "inception_4c/pool"
  pooling_param {
    pool: MAX
    kernel_size: 3
    stride: 1
    pad: 1
  }
}
layer {
  name: "inception_4c/pool_proj"
  type: "Convolution"
  bottom: "inception_4c/pool"
  top: "inception_4c/pool_proj"
  param {
    lr_mult: 1
    decay_mult: 1
  }
  param {
    lr_mult: 2
    decay_mult: 0
  }
  convolution_param {
    num_output: 64
    kernel_size: 1
    weight_filler {
      type: "xavier"
    }
    bias_filler {
      type: "constant"
      value: 0.2
    }
  }
}
layer {
  name: "inception_4c/relu_pool_proj"
  type: "ReLU"
  bottom: "inception_4c/pool_proj"
  top: "inception_4c/pool_proj"
}
layer {
  name: "inception_4c/output"
  type: "Concat"
  bottom: "inception_4c/1x1"
  bottom: "inception_4c/3x3"
  bottom: "inception_4c/5x5"
  bottom: "inception_4c/pool_proj"
  top: "inception_4c/output"
}
layer {
  name: "inception_4d/1x1"
  type: "Convolution"
  bottom: "inception_4c/output"
  top: "inception_4d/1x1"
  param {
    lr_mult: 1
    decay_mult: 1
  }
  param {
    lr_mult: 2
    decay_mult: 0
  }
  convolution_param {
    num_output: 112
    kernel_size: 1
    weight_filler {
      type: "xavier"
    }
    bias_filler {
      type: "constant"
      value: 0.2
    }
  }
}
layer {
  name: "inception_4d/relu_1x1"
  type: "ReLU"
  bottom: "inception_4d/1x1"
  top: "inception_4d/1x1"
}
layer {
  name: "inception_4d/3x3_reduce"
  type: "Convolution"
  bottom: "inception_4c/output"
  top: "inception_4d/3x3_reduce"
  param {
    lr_mult: 1
    decay_mult: 1
  }
  param {
    lr_mult: 2
    decay_mult: 0
  }
  convolution_param {
    num_output: 144
    kernel_size: 1
    weight_filler {
      type: "xavier"
    }
    bias_filler {
      type: "constant"
      value: 0.2
    }
  }
}
layer {
  name: "inception_4d/relu_3x3_reduce"
  type: "ReLU"
  bottom: "inception_4d/3x3_reduce"
  top: "inception_4d/3x3_reduce"
}
layer {
  name: "inception_4d/3x3"
  type: "Convolution"
  bottom: "inception_4d/3x3_reduce"
  top: "inception_4d/3x3"
  param {
    lr_mult: 1
    decay_mult: 1
  }
  param {
    lr_mult: 2
    decay_mult: 0
  }
  convolution_param {
    num_output: 288
    pad: 1
    kernel_size: 3
    weight_filler {
      type: "xavier"
    }
    bias_filler {
      type: "constant"
      value: 0.2
    }
  }
}
layer {
  name: "inception_4d/relu_3x3"
  type: "ReLU"
  bottom: "inception_4d/3x3"
  top: "inception_4d/3x3"
}
layer {
  name: "inception_4d/5x5_reduce"
  type: "Convolution"
  bottom: "inception_4c/output"
  top: "inception_4d/5x5_reduce"
  param {
    lr_mult: 1
    decay_mult: 1
  }
  param {
    lr_mult: 2
    decay_mult: 0
  }
  convolution_param {
    num_output: 32
    kernel_size: 1
    weight_filler {
      type: "xavier"
    }
    bias_filler {
      type: "constant"
      value: 0.2
    }
  }
}
layer {
  name: "inception_4d/relu_5x5_reduce"
  type: "ReLU"
  bottom: "inception_4d/5x5_reduce"
  top: "inception_4d/5x5_reduce"
}
layer {
  name: "inception_4d/5x5"
  type: "Convolution"
  bottom: "inception_4d/5x5_reduce"
  top: "inception_4d/5x5"
  param {
    lr_mult: 1
    decay_mult: 1
  }
  param {
    lr_mult: 2
    decay_mult: 0
  }
  convolution_param {
    num_output: 64
    pad: 2
    kernel_size: 5
    weight_filler {
      type: "xavier"
    }
    bias_filler {
      type: "constant"
      value: 0.2
    }
  }
}
layer {
  name: "inception_4d/relu_5x5"
  type: "ReLU"
  bottom: "inception_4d/5x5"
  top: "inception_4d/5x5"
}
layer {
  name: "inception_4d/pool"
  type: "Pooling"
  bottom: "inception_4c/output"
  top: "inception_4d/pool"
  pooling_param {
    pool: MAX
    kernel_size: 3
    stride: 1
    pad: 1
  }
}
layer {
  name: "inception_4d/pool_proj"
  type: "Convolution"
  bottom: "inception_4d/pool"
  top: "inception_4d/pool_proj"
  param {
    lr_mult: 1
    decay_mult: 1
  }
  param {
    lr_mult: 2
    decay_mult: 0
  }
  convolution_param {
    num_output: 64
    kernel_size: 1
    weight_filler {
      type: "xavier"
    }
    bias_filler {
      type: "constant"
      value: 0.2
    }
  }
}
layer {
  name: "inception_4d/relu_pool_proj"
  type: "ReLU"
  bottom: "inception_4d/pool_proj"
  top: "inception_4d/pool_proj"
}
layer {
  name: "inception_4d/output"
  type: "Concat"
  bottom: "inception_4d/1x1"
  bottom: "inception_4d/3x3"
  bottom: "inception_4d/5x5"
  bottom: "inception_4d/pool_proj"
  top: "inception_4d/output"
}
layer {
  name: "loss2/ave_pool"
  type: "Pooling"
  bottom: "inception_4d/output"
  top: "loss2/ave_pool"
  pooling_param {
    pool: AVE
    kernel_size: 5
    stride: 3
  }
}
layer {
  name: "loss2/conv"
  type: "Convolution"
  bottom: "loss2/ave_pool"
  top: "loss2/conv"
  param {
    lr_mult: 1
    decay_mult: 1
  }
  param {
    lr_mult: 2
    decay_mult: 0
  }
  convolution_param {
    num_output: 128
    kernel_size: 1
    weight_filler {
      type: "xavier"
    }
    bias_filler {
      type: "constant"
      value: 0.2
    }
  }
}
layer {
  name: "loss2/relu_conv"
  type: "ReLU"
  bottom: "loss2/conv"
  top: "loss2/conv"
}
layer {
  name: "loss2/fc"
  type: "InnerProduct"
  bottom: "loss2/conv"
  top: "loss2/fc"
  param {
    lr_mult: 1
    decay_mult: 1
  }
  param {
    lr_mult: 2
    decay_mult: 0
  }
  inner_product_param {
    num_output: 1024
    weight_filler {
      type: "xavier"
    }
    bias_filler {
      type: "constant"
      value: 0.2
    }
  }
}
layer {
  name: "loss2/relu_fc"
  type: "ReLU"
  bottom: "loss2/fc"
  top: "loss2/fc"
}
layer {
  name: "loss2/drop_fc"
  type: "Dropout"
  bottom: "loss2/fc"
  top: "loss2/fc"
  dropout_param {
    dropout_ratio: 0.7
  }
}
layer {
  name: "loss2/classifier"
  type: "InnerProduct"
  bottom: "loss2/fc"
  top: "loss2/classifier"
  param {
    lr_mult: 1
    decay_mult: 1
  }
  param {
    lr_mult: 2
    decay_mult: 0
  }
  inner_product_param {
    num_output: 1000
    weight_filler {
      type: "xavier"
    }
    bias_filler {
      type: "constant"
      value: 0
    }
  }
}
layer {
  name: "loss2/loss"
  type: "SoftmaxWithLoss"
  bottom: "loss2/classifier"
  bottom: "label"
  top: "loss2/loss2"
  loss_weight: 0.3
}
layer {
  name: "loss2/top-1"
  type: "Accuracy"
  bottom: "loss2/classifier"
  bottom: "label"
  top: "loss2/top-1"
  include {
    phase: TEST
  }
}
layer {
  name: "loss2/top-5"
  type: "Accuracy"
  bottom: "loss2/classifier"
  bottom: "label"
  top: "loss2/top-5"
  include {
    phase: TEST
  }
  accuracy_param {
    top_k: 5
  }
}
layer {
  name: "inception_4e/1x1"
  type: "Convolution"
  bottom: "inception_4d/output"
  top: "inception_4e/1x1"
  param {
    lr_mult: 1
    decay_mult: 1
  }
  param {
    lr_mult: 2
    decay_mult: 0
  }
  convolution_param {
    num_output: 256
    kernel_size: 1
    weight_filler {
      type: "xavier"
    }
    bias_filler {
      type: "constant"
      value: 0.2
    }
  }
}
layer {
  name: "inception_4e/relu_1x1"
  type: "ReLU"
  bottom: "inception_4e/1x1"
  top: "inception_4e/1x1"
}
layer {
  name: "inception_4e/3x3_reduce"
  type: "Convolution"
  bottom: "inception_4d/output"
  top: "inception_4e/3x3_reduce"
  param {
    lr_mult: 1
    decay_mult: 1
  }
  param {
    lr_mult: 2
    decay_mult: 0
  }
  convolution_param {
    num_output: 160
    kernel_size: 1
    weight_filler {
      type: "xavier"
    }
    bias_filler {
      type: "constant"
      value: 0.2
    }
  }
}
layer {
  name: "inception_4e/relu_3x3_reduce"
  type: "ReLU"
  bottom: "inception_4e/3x3_reduce"
  top: "inception_4e/3x3_reduce"
}
layer {
  name: "inception_4e/3x3"
  type: "Convolution"
  bottom: "inception_4e/3x3_reduce"
  top: "inception_4e/3x3"
  param {
    lr_mult: 1
    decay_mult: 1
  }
  param {
    lr_mult: 2
    decay_mult: 0
  }
  convolution_param {
    num_output: 320
    pad: 1
    kernel_size: 3
    weight_filler {
      type: "xavier"
    }
    bias_filler {
      type: "constant"
      value: 0.2
    }
  }
}
layer {
  name: "inception_4e/relu_3x3"
  type: "ReLU"
  bottom: "inception_4e/3x3"
  top: "inception_4e/3x3"
}
layer {
  name: "inception_4e/5x5_reduce"
  type: "Convolution"
  bottom: "inception_4d/output"
  top: "inception_4e/5x5_reduce"
  param {
    lr_mult: 1
    decay_mult: 1
  }
  param {
    lr_mult: 2
    decay_mult: 0
  }
  convolution_param {
    num_output: 32
    kernel_siz
I0906 15:43:48.131382 35856 layer_factory.hpp:77] Creating layer data
I0906 15:43:48.131510 35856 db_lmdb.cpp:35] Opened lmdb /mllib/imagenet/ilsvrc12/lmdb_resize/ilsvrc12_val_lmdb
I0906 15:43:48.131547 35856 net.cpp:115] Creating Layer data
I0906 15:43:48.131562 35856 net.cpp:490] data -> data
I0906 15:43:48.131597 35856 net.cpp:490] data -> label
I0906 15:43:48.156774 35856 data_layer.cpp:45] output data size: 50,3,224,224
I0906 15:43:48.253271 35856 net.cpp:153] Setting up data
I0906 15:43:48.253319 35856 net.cpp:160] Top shape: 50 3 224 224 (7526400)
I0906 15:43:48.253327 35856 net.cpp:160] Top shape: 50 (50)
I0906 15:43:48.253334 35856 net.cpp:168] Memory required for data: 30105800
I0906 15:43:48.253346 35856 layer_factory.hpp:77] Creating layer label_data_1_split
I0906 15:43:48.253368 35856 net.cpp:115] Creating Layer label_data_1_split
I0906 15:43:48.253378 35856 net.cpp:516] label_data_1_split <- label
I0906 15:43:48.253401 35856 net.cpp:490] label_data_1_split -> label_data_1_split_0
I0906 15:43:48.253415 35856 net.cpp:490] label_data_1_split -> label_data_1_split_1
I0906 15:43:48.253424 35856 net.cpp:490] label_data_1_split -> label_data_1_split_2
I0906 15:43:48.253433 35856 net.cpp:490] label_data_1_split -> label_data_1_split_3
I0906 15:43:48.253440 35856 net.cpp:490] label_data_1_split -> label_data_1_split_4
I0906 15:43:48.253448 35856 net.cpp:490] label_data_1_split -> label_data_1_split_5
I0906 15:43:48.253455 35856 net.cpp:490] label_data_1_split -> label_data_1_split_6
I0906 15:43:48.253463 35856 net.cpp:490] label_data_1_split -> label_data_1_split_7
I0906 15:43:48.253471 35856 net.cpp:490] label_data_1_split -> label_data_1_split_8
I0906 15:43:48.253582 35856 net.cpp:153] Setting up label_data_1_split
I0906 15:43:48.253595 35856 net.cpp:160] Top shape: 50 (50)
I0906 15:43:48.253602 35856 net.cpp:160] Top shape: 50 (50)
I0906 15:43:48.253607 35856 net.cpp:160] Top shape: 50 (50)
I0906 15:43:48.253612 35856 net.cpp:160] Top shape: 50 (50)
I0906 15:43:48.253618 35856 net.cpp:160] Top shape: 50 (50)
I0906 15:43:48.253623 35856 net.cpp:160] Top shape: 50 (50)
I0906 15:43:48.253628 35856 net.cpp:160] Top shape: 50 (50)
I0906 15:43:48.253634 35856 net.cpp:160] Top shape: 50 (50)
I0906 15:43:48.253640 35856 net.cpp:160] Top shape: 50 (50)
I0906 15:43:48.253644 35856 net.cpp:168] Memory required for data: 30107600
I0906 15:43:48.253649 35856 layer_factory.hpp:77] Creating layer conv1/7x7_s2
I0906 15:43:48.253675 35856 net.cpp:115] Creating Layer conv1/7x7_s2
I0906 15:43:48.253684 35856 net.cpp:516] conv1/7x7_s2 <- data
I0906 15:43:48.253716 35856 net.cpp:490] conv1/7x7_s2 -> conv1/7x7_s2
I0906 15:43:48.255280 35856 net.cpp:153] Setting up conv1/7x7_s2
I0906 15:43:48.255295 35856 net.cpp:160] Top shape: 50 64 112 112 (40140800)
I0906 15:43:48.255300 35856 net.cpp:168] Memory required for data: 190670800
I0906 15:43:48.255318 35856 layer_factory.hpp:77] Creating layer conv1/relu_7x7
I0906 15:43:48.255328 35856 net.cpp:115] Creating Layer conv1/relu_7x7
I0906 15:43:48.255334 35856 net.cpp:516] conv1/relu_7x7 <- conv1/7x7_s2
I0906 15:43:48.255342 35856 net.cpp:477] conv1/relu_7x7 -> conv1/7x7_s2 (in-place)
I0906 15:43:48.255353 35856 net.cpp:153] Setting up conv1/relu_7x7
I0906 15:43:48.255359 35856 net.cpp:160] Top shape: 50 64 112 112 (40140800)
I0906 15:43:48.255364 35856 net.cpp:168] Memory required for data: 351234000
I0906 15:43:48.255369 35856 layer_factory.hpp:77] Creating layer pool1/3x3_s2
I0906 15:43:48.255379 35856 net.cpp:115] Creating Layer pool1/3x3_s2
I0906 15:43:48.255385 35856 net.cpp:516] pool1/3x3_s2 <- conv1/7x7_s2
I0906 15:43:48.255393 35856 net.cpp:490] pool1/3x3_s2 -> pool1/3x3_s2
I0906 15:43:48.255453 35856 net.cpp:153] Setting up pool1/3x3_s2
I0906 15:43:48.255465 35856 net.cpp:160] Top shape: 50 64 56 56 (10035200)
I0906 15:43:48.255470 35856 net.cpp:168] Memory required for data: 391374800
I0906 15:43:48.255475 35856 layer_factory.hpp:77] Creating layer pool1/norm1
I0906 15:43:48.255497 35856 net.cpp:115] Creating Layer pool1/norm1
I0906 15:43:48.255506 35856 net.cpp:516] pool1/norm1 <- pool1/3x3_s2
I0906 15:43:48.255513 35856 net.cpp:490] pool1/norm1 -> pool1/norm1
I0906 15:43:48.260011 35856 net.cpp:153] Setting up pool1/norm1
I0906 15:43:48.260025 35856 net.cpp:160] Top shape: 50 64 56 56 (10035200)
I0906 15:43:48.260030 35856 net.cpp:168] Memory required for data: 431515600
I0906 15:43:48.260035 35856 layer_factory.hpp:77] Creating layer conv2/3x3_reduce
I0906 15:43:48.260047 35856 net.cpp:115] Creating Layer conv2/3x3_reduce
I0906 15:43:48.260052 35856 net.cpp:516] conv2/3x3_reduce <- pool1/norm1
I0906 15:43:48.260061 35856 net.cpp:490] conv2/3x3_reduce -> conv2/3x3_reduce
I0906 15:43:48.261456 35856 net.cpp:153] Setting up conv2/3x3_reduce
I0906 15:43:48.261472 35856 net.cpp:160] Top shape: 50 64 56 56 (10035200)
I0906 15:43:48.261477 35856 net.cpp:168] Memory required for data: 471656400
I0906 15:43:48.261487 35856 layer_factory.hpp:77] Creating layer conv2/relu_3x3_reduce
I0906 15:43:48.261497 35856 net.cpp:115] Creating Layer conv2/relu_3x3_reduce
I0906 15:43:48.261503 35856 net.cpp:516] conv2/relu_3x3_reduce <- conv2/3x3_reduce
I0906 15:43:48.261510 35856 net.cpp:477] conv2/relu_3x3_reduce -> conv2/3x3_reduce (in-place)
I0906 15:43:48.261518 35856 net.cpp:153] Setting up conv2/relu_3x3_reduce
I0906 15:43:48.261528 35856 net.cpp:160] Top shape: 50 64 56 56 (10035200)
I0906 15:43:48.261533 35856 net.cpp:168] Memory required for data: 511797200
I0906 15:43:48.261538 35856 layer_factory.hpp:77] Creating layer conv2/3x3
I0906 15:43:48.261550 35856 net.cpp:115] Creating Layer conv2/3x3
I0906 15:43:48.261556 35856 net.cpp:516] conv2/3x3 <- conv2/3x3_reduce
I0906 15:43:48.261564 35856 net.cpp:490] conv2/3x3 -> conv2/3x3
I0906 15:43:48.263599 35856 net.cpp:153] Setting up conv2/3x3
I0906 15:43:48.263619 35856 net.cpp:160] Top shape: 50 192 56 56 (30105600)
I0906 15:43:48.263625 35856 net.cpp:168] Memory required for data: 632219600
I0906 15:43:48.263638 35856 layer_factory.hpp:77] Creating layer conv2/relu_3x3
I0906 15:43:48.263646 35856 net.cpp:115] Creating Layer conv2/relu_3x3
I0906 15:43:48.263653 35856 net.cpp:516] conv2/relu_3x3 <- conv2/3x3
I0906 15:43:48.263661 35856 net.cpp:477] conv2/relu_3x3 -> conv2/3x3 (in-place)
I0906 15:43:48.263670 35856 net.cpp:153] Setting up conv2/relu_3x3
I0906 15:43:48.263676 35856 net.cpp:160] Top shape: 50 192 56 56 (30105600)
I0906 15:43:48.263681 35856 net.cpp:168] Memory required for data: 752642000
I0906 15:43:48.263686 35856 layer_factory.hpp:77] Creating layer conv2/norm2
I0906 15:43:48.263697 35856 net.cpp:115] Creating Layer conv2/norm2
I0906 15:43:48.263705 35856 net.cpp:516] conv2/norm2 <- conv2/3x3
I0906 15:43:48.263737 35856 net.cpp:490] conv2/norm2 -> conv2/norm2
I0906 15:43:48.263778 35856 net.cpp:153] Setting up conv2/norm2
I0906 15:43:48.263789 35856 net.cpp:160] Top shape: 50 192 56 56 (30105600)
I0906 15:43:48.263798 35856 net.cpp:168] Memory required for data: 873064400
I0906 15:43:48.263804 35856 layer_factory.hpp:77] Creating layer pool2/3x3_s2
I0906 15:43:48.263813 35856 net.cpp:115] Creating Layer pool2/3x3_s2
I0906 15:43:48.263818 35856 net.cpp:516] pool2/3x3_s2 <- conv2/norm2
I0906 15:43:48.263825 35856 net.cpp:490] pool2/3x3_s2 -> pool2/3x3_s2
I0906 15:43:48.263860 35856 net.cpp:153] Setting up pool2/3x3_s2
I0906 15:43:48.263870 35856 net.cpp:160] Top shape: 50 192 28 28 (7526400)
I0906 15:43:48.263875 35856 net.cpp:168] Memory required for data: 903170000
I0906 15:43:48.263880 35856 layer_factory.hpp:77] Creating layer pool2/3x3_s2_pool2/3x3_s2_0_split
I0906 15:43:48.263890 35856 net.cpp:115] Creating Layer pool2/3x3_s2_pool2/3x3_s2_0_split
I0906 15:43:48.263895 35856 net.cpp:516] pool2/3x3_s2_pool2/3x3_s2_0_split <- pool2/3x3_s2
I0906 15:43:48.263902 35856 net.cpp:490] pool2/3x3_s2_pool2/3x3_s2_0_split -> pool2/3x3_s2_pool2/3x3_s2_0_split_0
I0906 15:43:48.263912 35856 net.cpp:490] pool2/3x3_s2_pool2/3x3_s2_0_split -> pool2/3x3_s2_pool2/3x3_s2_0_split_1
I0906 15:43:48.263921 35856 net.cpp:490] pool2/3x3_s2_pool2/3x3_s2_0_split -> pool2/3x3_s2_pool2/3x3_s2_0_split_2
I0906 15:43:48.263927 35856 net.cpp:490] pool2/3x3_s2_pool2/3x3_s2_0_split -> pool2/3x3_s2_pool2/3x3_s2_0_split_3
I0906 15:43:48.263986 35856 net.cpp:153] Setting up pool2/3x3_s2_pool2/3x3_s2_0_split
I0906 15:43:48.263996 35856 net.cpp:160] Top shape: 50 192 28 28 (7526400)
I0906 15:43:48.264003 35856 net.cpp:160] Top shape: 50 192 28 28 (7526400)
I0906 15:43:48.264008 35856 net.cpp:160] Top shape: 50 192 28 28 (7526400)
I0906 15:43:48.264014 35856 net.cpp:160] Top shape: 50 192 28 28 (7526400)
I0906 15:43:48.264019 35856 net.cpp:168] Memory required for data: 1023592400
I0906 15:43:48.264024 35856 layer_factory.hpp:77] Creating layer inception_3a/1x1
I0906 15:43:48.264037 35856 net.cpp:115] Creating Layer inception_3a/1x1
I0906 15:43:48.264047 35856 net.cpp:516] inception_3a/1x1 <- pool2/3x3_s2_pool2/3x3_s2_0_split_0
I0906 15:43:48.264056 35856 net.cpp:490] inception_3a/1x1 -> inception_3a/1x1
I0906 15:43:48.265576 35856 net.cpp:153] Setting up inception_3a/1x1
I0906 15:43:48.265595 35856 net.cpp:160] Top shape: 50 64 28 28 (2508800)
I0906 15:43:48.265601 35856 net.cpp:168] Memory required for data: 1033627600
I0906 15:43:48.265609 35856 layer_factory.hpp:77] Creating layer inception_3a/relu_1x1
I0906 15:43:48.265619 35856 net.cpp:115] Creating Layer inception_3a/relu_1x1
I0906 15:43:48.265625 35856 net.cpp:516] inception_3a/relu_1x1 <- inception_3a/1x1
I0906 15:43:48.265631 35856 net.cpp:477] inception_3a/relu_1x1 -> inception_3a/1x1 (in-place)
I0906 15:43:48.265640 35856 net.cpp:153] Setting up inception_3a/relu_1x1
I0906 15:43:48.265646 35856 net.cpp:160] Top shape: 50 64 28 28 (2508800)
I0906 15:43:48.265651 35856 net.cpp:168] Memory required for data: 1043662800
I0906 15:43:48.265656 35856 layer_factory.hpp:77] Creating layer inception_3a/3x3_reduce
I0906 15:43:48.265668 35856 net.cpp:115] Creating Layer inception_3a/3x3_reduce
I0906 15:43:48.265674 35856 net.cpp:516] inception_3a/3x3_reduce <- pool2/3x3_s2_pool2/3x3_s2_0_split_1
I0906 15:43:48.265684 35856 net.cpp:490] inception_3a/3x3_reduce -> inception_3a/3x3_reduce
I0906 15:43:48.267233 35856 net.cpp:153] Setting up inception_3a/3x3_reduce
I0906 15:43:48.267251 35856 net.cpp:160] Top shape: 50 96 28 28 (3763200)
I0906 15:43:48.267256 35856 net.cpp:168] Memory required for data: 1058715600
I0906 15:43:48.267268 35856 layer_factory.hpp:77] Creating layer inception_3a/relu_3x3_reduce
I0906 15:43:48.267282 35856 net.cpp:115] Creating Layer inception_3a/relu_3x3_reduce
I0906 15:43:48.267287 35856 net.cpp:516] inception_3a/relu_3x3_reduce <- inception_3a/3x3_reduce
I0906 15:43:48.267295 35856 net.cpp:477] inception_3a/relu_3x3_reduce -> inception_3a/3x3_reduce (in-place)
I0906 15:43:48.267330 35856 net.cpp:153] Setting up inception_3a/relu_3x3_reduce
I0906 15:43:48.267338 35856 net.cpp:160] Top shape: 50 96 28 28 (3763200)
I0906 15:43:48.267343 35856 net.cpp:168] Memory required for data: 1073768400
I0906 15:43:48.267348 35856 layer_factory.hpp:77] Creating layer inception_3a/3x3
I0906 15:43:48.267361 35856 net.cpp:115] Creating Layer inception_3a/3x3
I0906 15:43:48.267366 35856 net.cpp:516] inception_3a/3x3 <- inception_3a/3x3_reduce
I0906 15:43:48.267377 35856 net.cpp:490] inception_3a/3x3 -> inception_3a/3x3
I0906 15:43:48.268275 35856 net.cpp:153] Setting up inception_3a/3x3
I0906 15:43:48.268288 35856 net.cpp:160] Top shape: 50 128 28 28 (5017600)
I0906 15:43:48.268293 35856 net.cpp:168] Memory required for data: 1093838800
I0906 15:43:48.268301 35856 layer_factory.hpp:77] Creating layer inception_3a/relu_3x3
I0906 15:43:48.268308 35856 net.cpp:115] Creating Layer inception_3a/relu_3x3
I0906 15:43:48.268314 35856 net.cpp:516] inception_3a/relu_3x3 <- inception_3a/3x3
I0906 15:43:48.268321 35856 net.cpp:477] inception_3a/relu_3x3 -> inception_3a/3x3 (in-place)
I0906 15:43:48.268328 35856 net.cpp:153] Setting up inception_3a/relu_3x3
I0906 15:43:48.268334 35856 net.cpp:160] Top shape: 50 128 28 28 (5017600)
I0906 15:43:48.268339 35856 net.cpp:168] Memory required for data: 1113909200
I0906 15:43:48.268344 35856 layer_factory.hpp:77] Creating layer inception_3a/5x5_reduce
I0906 15:43:48.268362 35856 net.cpp:115] Creating Layer inception_3a/5x5_reduce
I0906 15:43:48.268370 35856 net.cpp:516] inception_3a/5x5_reduce <- pool2/3x3_s2_pool2/3x3_s2_0_split_2
I0906 15:43:48.268379 35856 net.cpp:490] inception_3a/5x5_reduce -> inception_3a/5x5_reduce
I0906 15:43:48.268620 35856 net.cpp:153] Setting up inception_3a/5x5_reduce
I0906 15:43:48.268633 35856 net.cpp:160] Top shape: 50 16 28 28 (627200)
I0906 15:43:48.268638 35856 net.cpp:168] Memory required for data: 1116418000
I0906 15:43:48.268646 35856 layer_factory.hpp:77] Creating layer inception_3a/relu_5x5_reduce
I0906 15:43:48.268656 35856 net.cpp:115] Creating Layer inception_3a/relu_5x5_reduce
I0906 15:43:48.268661 35856 net.cpp:516] inception_3a/relu_5x5_reduce <- inception_3a/5x5_reduce
I0906 15:43:48.268667 35856 net.cpp:477] inception_3a/relu_5x5_reduce -> inception_3a/5x5_reduce (in-place)
I0906 15:43:48.268676 35856 net.cpp:153] Setting up inception_3a/relu_5x5_reduce
I0906 15:43:48.268682 35856 net.cpp:160] Top shape: 50 16 28 28 (627200)
I0906 15:43:48.268687 35856 net.cpp:168] Memory required for data: 1118926800
I0906 15:43:48.268690 35856 layer_factory.hpp:77] Creating layer inception_3a/5x5
I0906 15:43:48.268703 35856 net.cpp:115] Creating Layer inception_3a/5x5
I0906 15:43:48.268708 35856 net.cpp:516] inception_3a/5x5 <- inception_3a/5x5_reduce
I0906 15:43:48.268717 35856 net.cpp:490] inception_3a/5x5 -> inception_3a/5x5
I0906 15:43:48.269024 35856 net.cpp:153] Setting up inception_3a/5x5
I0906 15:43:48.269039 35856 net.cpp:160] Top shape: 50 32 28 28 (1254400)
I0906 15:43:48.269044 35856 net.cpp:168] Memory required for data: 1123944400
I0906 15:43:48.269052 35856 layer_factory.hpp:77] Creating layer inception_3a/relu_5x5
I0906 15:43:48.269063 35856 net.cpp:115] Creating Layer inception_3a/relu_5x5
I0906 15:43:48.269069 35856 net.cpp:516] inception_3a/relu_5x5 <- inception_3a/5x5
I0906 15:43:48.269075 35856 net.cpp:477] inception_3a/relu_5x5 -> inception_3a/5x5 (in-place)
I0906 15:43:48.269083 35856 net.cpp:153] Setting up inception_3a/relu_5x5
I0906 15:43:48.269090 35856 net.cpp:160] Top shape: 50 32 28 28 (1254400)
I0906 15:43:48.269094 35856 net.cpp:168] Memory required for data: 1128962000
I0906 15:43:48.269099 35856 layer_factory.hpp:77] Creating layer inception_3a/pool
I0906 15:43:48.269107 35856 net.cpp:115] Creating Layer inception_3a/pool
I0906 15:43:48.269112 35856 net.cpp:516] inception_3a/pool <- pool2/3x3_s2_pool2/3x3_s2_0_split_3
I0906 15:43:48.269122 35856 net.cpp:490] inception_3a/pool -> inception_3a/pool
I0906 15:43:48.269165 35856 net.cpp:153] Setting up inception_3a/pool
I0906 15:43:48.269186 35856 net.cpp:160] Top shape: 50 192 28 28 (7526400)
I0906 15:43:48.269191 35856 net.cpp:168] Memory required for data: 1159067600
I0906 15:43:48.269196 35856 layer_factory.hpp:77] Creating layer inception_3a/pool_proj
I0906 15:43:48.269209 35856 net.cpp:115] Creating Layer inception_3a/pool_proj
I0906 15:43:48.269222 35856 net.cpp:516] inception_3a/pool_proj <- inception_3a/pool
I0906 15:43:48.269230 35856 net.cpp:490] inception_3a/pool_proj -> inception_3a/pool_proj
I0906 15:43:48.269470 35856 net.cpp:153] Setting up inception_3a/pool_proj
I0906 15:43:48.269484 35856 net.cpp:160] Top shape: 50 32 28 28 (1254400)
I0906 15:43:48.269489 35856 net.cpp:168] Memory required for data: 1164085200
I0906 15:43:48.269500 35856 layer_factory.hpp:77] Creating layer inception_3a/relu_pool_proj
I0906 15:43:48.269508 35856 net.cpp:115] Creating Layer inception_3a/relu_pool_proj
I0906 15:43:48.269515 35856 net.cpp:516] inception_3a/relu_pool_proj <- inception_3a/pool_proj
I0906 15:43:48.269520 35856 net.cpp:477] inception_3a/relu_pool_proj -> inception_3a/pool_proj (in-place)
I0906 15:43:48.269528 35856 net.cpp:153] Setting up inception_3a/relu_pool_proj
I0906 15:43:48.269534 35856 net.cpp:160] Top shape: 50 32 28 28 (1254400)
I0906 15:43:48.269539 35856 net.cpp:168] Memory required for data: 1169102800
I0906 15:43:48.269543 35856 layer_factory.hpp:77] Creating layer inception_3a/output
I0906 15:43:48.269556 35856 net.cpp:115] Creating Layer inception_3a/output
I0906 15:43:48.269560 35856 net.cpp:516] inception_3a/output <- inception_3a/1x1
I0906 15:43:48.269567 35856 net.cpp:516] inception_3a/output <- inception_3a/3x3
I0906 15:43:48.269572 35856 net.cpp:516] inception_3a/output <- inception_3a/5x5
I0906 15:43:48.269577 35856 net.cpp:516] inception_3a/output <- inception_3a/pool_proj
I0906 15:43:48.269587 35856 net.cpp:490] inception_3a/output -> inception_3a/output
I0906 15:43:48.269623 35856 net.cpp:153] Setting up inception_3a/output
I0906 15:43:48.269631 35856 net.cpp:160] Top shape: 50 256 28 28 (10035200)
I0906 15:43:48.269636 35856 net.cpp:168] Memory required for data: 1209243600
I0906 15:43:48.269641 35856 layer_factory.hpp:77] Creating layer inception_3a/output_inception_3a/output_0_split
I0906 15:43:48.269651 35856 net.cpp:115] Creating Layer inception_3a/output_inception_3a/output_0_split
I0906 15:43:48.269657 35856 net.cpp:516] inception_3a/output_inception_3a/output_0_split <- inception_3a/output
I0906 15:43:48.269665 35856 net.cpp:490] inception_3a/output_inception_3a/output_0_split -> inception_3a/output_inception_3a/output_0_split_0
I0906 15:43:48.269672 35856 net.cpp:490] inception_3a/output_inception_3a/output_0_split -> inception_3a/output_inception_3a/output_0_split_1
I0906 15:43:48.269680 35856 net.cpp:490] inception_3a/output_inception_3a/output_0_split -> inception_3a/output_inception_3a/output_0_split_2
I0906 15:43:48.269692 35856 net.cpp:490] inception_3a/output_inception_3a/output_0_split -> inception_3a/output_inception_3a/output_0_split_3
I0906 15:43:48.269757 35856 net.cpp:153] Setting up inception_3a/output_inception_3a/output_0_split
I0906 15:43:48.269768 35856 net.cpp:160] Top shape: 50 256 28 28 (10035200)
I0906 15:43:48.269774 35856 net.cpp:160] Top shape: 50 256 28 28 (10035200)
I0906 15:43:48.269780 35856 net.cpp:160] Top shape: 50 256 28 28 (10035200)
I0906 15:43:48.269786 35856 net.cpp:160] Top shape: 50 256 28 28 (10035200)
I0906 15:43:48.269790 35856 net.cpp:168] Memory required for data: 1369806800
I0906 15:43:48.269796 35856 layer_factory.hpp:77] Creating layer inception_3b/1x1
I0906 15:43:48.269811 35856 net.cpp:115] Creating Layer inception_3b/1x1
I0906 15:43:48.269817 35856 net.cpp:516] inception_3b/1x1 <- inception_3a/output_inception_3a/output_0_split_0
I0906 15:43:48.269825 35856 net.cpp:490] inception_3b/1x1 -> inception_3b/1x1
I0906 15:43:48.270220 35856 net.cpp:153] Setting up inception_3b/1x1
I0906 15:43:48.270232 35856 net.cpp:160] Top shape: 50 128 28 28 (5017600)
I0906 15:43:48.270237 35856 net.cpp:168] Memory required for data: 1389877200
I0906 15:43:48.270246 35856 layer_factory.hpp:77] Creating layer inception_3b/relu_1x1
I0906 15:43:48.270265 35856 net.cpp:115] Creating Layer inception_3b/relu_1x1
I0906 15:43:48.270272 35856 net.cpp:516] inception_3b/relu_1x1 <- inception_3b/1x1
I0906 15:43:48.270279 35856 net.cpp:477] inception_3b/relu_1x1 -> inception_3b/1x1 (in-place)
I0906 15:43:48.270287 35856 net.cpp:153] Setting up inception_3b/relu_1x1
I0906 15:43:48.270293 35856 net.cpp:160] Top shape: 50 128 28 28 (5017600)
I0906 15:43:48.270298 35856 net.cpp:168] Memory required for data: 1409947600
I0906 15:43:48.270303 35856 layer_factory.hpp:77] Creating layer inception_3b/3x3_reduce
I0906 15:43:48.270314 35856 net.cpp:115] Creating Layer inception_3b/3x3_reduce
I0906 15:43:48.270323 35856 net.cpp:516] inception_3b/3x3_reduce <- inception_3a/output_inception_3a/output_0_split_1
I0906 15:43:48.270332 35856 net.cpp:490] inception_3b/3x3_reduce -> inception_3b/3x3_reduce
I0906 15:43:48.270740 35856 net.cpp:153] Setting up inception_3b/3x3_reduce
I0906 15:43:48.270757 35856 net.cpp:160] Top shape: 50 128 28 28 (5017600)
I0906 15:43:48.270762 35856 net.cpp:168] Memory required for data: 1430018000
I0906 15:43:48.270769 35856 layer_factory.hpp:77] Creating layer inception_3b/relu_3x3_reduce
I0906 15:43:48.270777 35856 net.cpp:115] Creating Layer inception_3b/relu_3x3_reduce
I0906 15:43:48.270782 35856 net.cpp:516] inception_3b/relu_3x3_reduce <- inception_3b/3x3_reduce
I0906 15:43:48.270789 35856 net.cpp:477] inception_3b/relu_3x3_reduce -> inception_3b/3x3_reduce (in-place)
I0906 15:43:48.270797 35856 net.cpp:153] Setting up inception_3b/relu_3x3_reduce
I0906 15:43:48.270803 35856 net.cpp:160] Top shape: 50 128 28 28 (5017600)
I0906 15:43:48.270807 35856 net.cpp:168] Memory required for data: 1450088400
I0906 15:43:48.270812 35856 layer_factory.hpp:77] Creating layer inception_3b/3x3
I0906 15:43:48.270828 35856 net.cpp:115] Creating Layer inception_3b/3x3
I0906 15:43:48.270834 35856 net.cpp:516] inception_3b/3x3 <- inception_3b/3x3_reduce
I0906 15:43:48.270844 35856 net.cpp:490] inception_3b/3x3 -> inception_3b/3x3
I0906 15:43:48.272454 35856 net.cpp:153] Setting up inception_3b/3x3
I0906 15:43:48.272469 35856 net.cpp:160] Top shape: 50 192 28 28 (7526400)
I0906 15:43:48.272475 35856 net.cpp:168] Memory required for data: 1480194000
I0906 15:43:48.272482 35856 layer_factory.hpp:77] Creating layer inception_3b/relu_3x3
I0906 15:43:48.272493 35856 net.cpp:115] Creating Layer inception_3b/relu_3x3
I0906 15:43:48.272500 35856 net.cpp:516] inception_3b/relu_3x3 <- inception_3b/3x3
I0906 15:43:48.272505 35856 net.cpp:477] inception_3b/relu_3x3 -> inception_3b/3x3 (in-place)
I0906 15:43:48.272513 35856 net.cpp:153] Setting up inception_3b/relu_3x3
I0906 15:43:48.272519 35856 net.cpp:160] Top shape: 50 192 28 28 (7526400)
I0906 15:43:48.272524 35856 net.cpp:168] Memory required for data: 1510299600
I0906 15:43:48.272529 35856 layer_factory.hpp:77] Creating layer inception_3b/5x5_reduce
I0906 15:43:48.272541 35856 net.cpp:115] Creating Layer inception_3b/5x5_reduce
I0906 15:43:48.272547 35856 net.cpp:516] inception_3b/5x5_reduce <- inception_3a/output_inception_3a/output_0_split_2
I0906 15:43:48.272557 35856 net.cpp:490] inception_3b/5x5_reduce -> inception_3b/5x5_reduce
I0906 15:43:48.272843 35856 net.cpp:153] Setting up inception_3b/5x5_reduce
I0906 15:43:48.272858 35856 net.cpp:160] Top shape: 50 32 28 28 (1254400)
I0906 15:43:48.272863 35856 net.cpp:168] Memory required for data: 1515317200
I0906 15:43:48.272871 35856 layer_factory.hpp:77] Creating layer inception_3b/relu_5x5_reduce
I0906 15:43:48.272879 35856 net.cpp:115] Creating Layer inception_3b/relu_5x5_reduce
I0906 15:43:48.272884 35856 net.cpp:516] inception_3b/relu_5x5_reduce <- inception_3b/5x5_reduce
I0906 15:43:48.272891 35856 net.cpp:477] inception_3b/relu_5x5_reduce -> inception_3b/5x5_reduce (in-place)
I0906 15:43:48.272899 35856 net.cpp:153] Setting up inception_3b/relu_5x5_reduce
I0906 15:43:48.272905 35856 net.cpp:160] Top shape: 50 32 28 28 (1254400)
I0906 15:43:48.272910 35856 net.cpp:168] Memory required for data: 1520334800
I0906 15:43:48.272927 35856 layer_factory.hpp:77] Creating layer inception_3b/5x5
I0906 15:43:48.272943 35856 net.cpp:115] Creating Layer inception_3b/5x5
I0906 15:43:48.272948 35856 net.cpp:516] inception_3b/5x5 <- inception_3b/5x5_reduce
I0906 15:43:48.272958 35856 net.cpp:490] inception_3b/5x5 -> inception_3b/5x5
I0906 15:43:48.273654 35856 net.cpp:153] Setting up inception_3b/5x5
I0906 15:43:48.273669 35856 net.cpp:160] Top shape: 50 96 28 28 (3763200)
I0906 15:43:48.273674 35856 net.cpp:168] Memory required for data: 1535387600
I0906 15:43:48.273681 35856 layer_factory.hpp:77] Creating layer inception_3b/relu_5x5
I0906 15:43:48.273691 35856 net.cpp:115] Creating Layer inception_3b/relu_5x5
I0906 15:43:48.273697 35856 net.cpp:516] inception_3b/relu_5x5 <- inception_3b/5x5
I0906 15:43:48.273703 35856 net.cpp:477] inception_3b/relu_5x5 -> inception_3b/5x5 (in-place)
I0906 15:43:48.273711 35856 net.cpp:153] Setting up inception_3b/relu_5x5
I0906 15:43:48.273717 35856 net.cpp:160] Top shape: 50 96 28 28 (3763200)
I0906 15:43:48.273722 35856 net.cpp:168] Memory required for data: 1550440400
I0906 15:43:48.273726 35856 layer_factory.hpp:77] Creating layer inception_3b/pool
I0906 15:43:48.273736 35856 net.cpp:115] Creating Layer inception_3b/pool
I0906 15:43:48.273742 35856 net.cpp:516] inception_3b/pool <- inception_3a/output_inception_3a/output_0_split_3
I0906 15:43:48.273749 35856 net.cpp:490] inception_3b/pool -> inception_3b/pool
I0906 15:43:48.273788 35856 net.cpp:153] Setting up inception_3b/pool
I0906 15:43:48.273802 35856 net.cpp:160] Top shape: 50 256 28 28 (10035200)
I0906 15:43:48.273808 35856 net.cpp:168] Memory required for data: 1590581200
I0906 15:43:48.273813 35856 layer_factory.hpp:77] Creating layer inception_3b/pool_proj
I0906 15:43:48.273824 35856 net.cpp:115] Creating Layer inception_3b/pool_proj
I0906 15:43:48.273830 35856 net.cpp:516] inception_3b/pool_proj <- inception_3b/pool
I0906 15:43:48.273838 35856 net.cpp:490] inception_3b/pool_proj -> inception_3b/pool_proj
I0906 15:43:48.274144 35856 net.cpp:153] Setting up inception_3b/pool_proj
I0906 15:43:48.274158 35856 net.cpp:160] Top shape: 50 64 28 28 (2508800)
I0906 15:43:48.274163 35856 net.cpp:168] Memory required for data: 1600616400
I0906 15:43:48.274170 35856 layer_factory.hpp:77] Creating layer inception_3b/relu_pool_proj
I0906 15:43:48.274178 35856 net.cpp:115] Creating Layer inception_3b/relu_pool_proj
I0906 15:43:48.274183 35856 net.cpp:516] inception_3b/relu_pool_proj <- inception_3b/pool_proj
I0906 15:43:48.274193 35856 net.cpp:477] inception_3b/relu_pool_proj -> inception_3b/pool_proj (in-place)
I0906 15:43:48.274200 35856 net.cpp:153] Setting up inception_3b/relu_pool_proj
I0906 15:43:48.274207 35856 net.cpp:160] Top shape: 50 64 28 28 (2508800)
I0906 15:43:48.274211 35856 net.cpp:168] Memory required for data: 1610651600
I0906 15:43:48.274216 35856 layer_factory.hpp:77] Creating layer inception_3b/output
I0906 15:43:48.274224 35856 net.cpp:115] Creating Layer inception_3b/output
I0906 15:43:48.274230 35856 net.cpp:516] inception_3b/output <- inception_3b/1x1
I0906 15:43:48.274235 35856 net.cpp:516] inception_3b/output <- inception_3b/3x3
I0906 15:43:48.274240 35856 net.cpp:516] inception_3b/output <- inception_3b/5x5
I0906 15:43:48.274246 35856 net.cpp:516] inception_3b/output <- inception_3b/pool_proj
I0906 15:43:48.274252 35856 net.cpp:490] inception_3b/output -> inception_3b/output
I0906 15:43:48.274281 35856 net.cpp:153] Setting up inception_3b/output
I0906 15:43:48.274291 35856 net.cpp:160] Top shape: 50 480 28 28 (18816000)
I0906 15:43:48.274296 35856 net.cpp:168] Memory required for data: 1685915600
I0906 15:43:48.274300 35856 layer_factory.hpp:77] Creating layer pool3/3x3_s2
I0906 15:43:48.274308 35856 net.cpp:115] Creating Layer pool3/3x3_s2
I0906 15:43:48.274313 35856 net.cpp:516] pool3/3x3_s2 <- inception_3b/output
I0906 15:43:48.274323 35856 net.cpp:490] pool3/3x3_s2 -> pool3/3x3_s2
I0906 15:43:48.274360 35856 net.cpp:153] Setting up pool3/3x3_s2
I0906 15:43:48.274371 35856 net.cpp:160] Top shape: 50 480 14 14 (4704000)
I0906 15:43:48.274387 35856 net.cpp:168] Memory required for data: 1704731600
I0906 15:43:48.274394 35856 layer_factory.hpp:77] Creating layer pool3/3x3_s2_pool3/3x3_s2_0_split
I0906 15:43:48.274405 35856 net.cpp:115] Creating Layer pool3/3x3_s2_pool3/3x3_s2_0_split
I0906 15:43:48.274410 35856 net.cpp:516] pool3/3x3_s2_pool3/3x3_s2_0_split <- pool3/3x3_s2
I0906 15:43:48.274421 35856 net.cpp:490] pool3/3x3_s2_pool3/3x3_s2_0_split -> pool3/3x3_s2_pool3/3x3_s2_0_split_0
I0906 15:43:48.274430 35856 net.cpp:490] pool3/3x3_s2_pool3/3x3_s2_0_split -> pool3/3x3_s2_pool3/3x3_s2_0_split_1
I0906 15:43:48.274437 35856 net.cpp:490] pool3/3x3_s2_pool3/3x3_s2_0_split -> pool3/3x3_s2_pool3/3x3_s2_0_split_2
I0906 15:43:48.274444 35856 net.cpp:490] pool3/3x3_s2_pool3/3x3_s2_0_split -> pool3/3x3_s2_pool3/3x3_s2_0_split_3
I0906 15:43:48.274505 35856 net.cpp:153] Setting up pool3/3x3_s2_pool3/3x3_s2_0_split
I0906 15:43:48.274521 35856 net.cpp:160] Top shape: 50 480 14 14 (4704000)
I0906 15:43:48.274528 35856 net.cpp:160] Top shape: 50 480 14 14 (4704000)
I0906 15:43:48.274533 35856 net.cpp:160] Top shape: 50 480 14 14 (4704000)
I0906 15:43:48.274539 35856 net.cpp:160] Top shape: 50 480 14 14 (4704000)
I0906 15:43:48.274544 35856 net.cpp:168] Memory required for data: 1779995600
I0906 15:43:48.274549 35856 layer_factory.hpp:77] Creating layer inception_4a/1x1
I0906 15:43:48.274561 35856 net.cpp:115] Creating Layer inception_4a/1x1
I0906 15:43:48.274567 35856 net.cpp:516] inception_4a/1x1 <- pool3/3x3_s2_pool3/3x3_s2_0_split_0
I0906 15:43:48.274577 35856 net.cpp:490] inception_4a/1x1 -> inception_4a/1x1
I0906 15:43:48.276722 35856 net.cpp:153] Setting up inception_4a/1x1
I0906 15:43:48.276742 35856 net.cpp:160] Top shape: 50 192 14 14 (1881600)
I0906 15:43:48.276747 35856 net.cpp:168] Memory required for data: 1787522000
I0906 15:43:48.276757 35856 layer_factory.hpp:77] Creating layer inception_4a/relu_1x1
I0906 15:43:48.276764 35856 net.cpp:115] Creating Layer inception_4a/relu_1x1
I0906 15:43:48.276769 35856 net.cpp:516] inception_4a/relu_1x1 <- inception_4a/1x1
I0906 15:43:48.276779 35856 net.cpp:477] inception_4a/relu_1x1 -> inception_4a/1x1 (in-place)
I0906 15:43:48.276804 35856 net.cpp:153] Setting up inception_4a/relu_1x1
I0906 15:43:48.276813 35856 net.cpp:160] Top shape: 50 192 14 14 (1881600)
I0906 15:43:48.276818 35856 net.cpp:168] Memory required for data: 1795048400
I0906 15:43:48.276823 35856 layer_factory.hpp:77] Creating layer inception_4a/3x3_reduce
I0906 15:43:48.276834 35856 net.cpp:115] Creating Layer inception_4a/3x3_reduce
I0906 15:43:48.276839 35856 net.cpp:516] inception_4a/3x3_reduce <- pool3/3x3_s2_pool3/3x3_s2_0_split_1
I0906 15:43:48.276850 35856 net.cpp:490] inception_4a/3x3_reduce -> inception_4a/3x3_reduce
I0906 15:43:48.277385 35856 net.cpp:153] Setting up inception_4a/3x3_reduce
I0906 15:43:48.277400 35856 net.cpp:160] Top shape: 50 96 14 14 (940800)
I0906 15:43:48.277405 35856 net.cpp:168] Memory required for data: 1798811600
I0906 15:43:48.277426 35856 layer_factory.hpp:77] Creating layer inception_4a/relu_3x3_reduce
I0906 15:43:48.277434 35856 net.cpp:115] Creating Layer inception_4a/relu_3x3_reduce
I0906 15:43:48.277441 35856 net.cpp:516] inception_4a/relu_3x3_reduce <- inception_4a/3x3_reduce
I0906 15:43:48.277449 35856 net.cpp:477] inception_4a/relu_3x3_reduce -> inception_4a/3x3_reduce (in-place)
I0906 15:43:48.277457 35856 net.cpp:153] Setting up inception_4a/relu_3x3_reduce
I0906 15:43:48.277463 35856 net.cpp:160] Top shape: 50 96 14 14 (940800)
I0906 15:43:48.277468 35856 net.cpp:168] Memory required for data: 1802574800
I0906 15:43:48.277472 35856 layer_factory.hpp:77] Creating layer inception_4a/3x3
I0906 15:43:48.277482 35856 net.cpp:115] Creating Layer inception_4a/3x3
I0906 15:43:48.277487 35856 net.cpp:516] inception_4a/3x3 <- inception_4a/3x3_reduce
I0906 15:43:48.277498 35856 net.cpp:490] inception_4a/3x3 -> inception_4a/3x3
I0906 15:43:48.278776 35856 net.cpp:153] Setting up inception_4a/3x3
I0906 15:43:48.278790 35856 net.cpp:160] Top shape: 50 208 14 14 (2038400)
I0906 15:43:48.278795 35856 net.cpp:168] Memory required for data: 1810728400
I0906 15:43:48.278823 35856 layer_factory.hpp:77] Creating layer inception_4a/relu_3x3
I0906 15:43:48.278831 35856 net.cpp:115] Creating Layer inception_4a/relu_3x3
I0906 15:43:48.278837 35856 net.cpp:516] inception_4a/relu_3x3 <- inception_4a/3x3
I0906 15:43:48.278843 35856 net.cpp:477] inception_4a/relu_3x3 -> inception_4a/3x3 (in-place)
I0906 15:43:48.278851 35856 net.cpp:153] Setting up inception_4a/relu_3x3
I0906 15:43:48.278857 35856 net.cpp:160] Top shape: 50 208 14 14 (2038400)
I0906 15:43:48.278862 35856 net.cpp:168] Memory required for data: 1818882000
I0906 15:43:48.278867 35856 layer_factory.hpp:77] Creating layer inception_4a/5x5_reduce
I0906 15:43:48.278879 35856 net.cpp:115] Creating Layer inception_4a/5x5_reduce
I0906 15:43:48.278885 35856 net.cpp:516] inception_4a/5x5_reduce <- pool3/3x3_s2_pool3/3x3_s2_0_split_2
I0906 15:43:48.278894 35856 net.cpp:490] inception_4a/5x5_reduce -> inception_4a/5x5_reduce
I0906 15:43:48.279166 35856 net.cpp:153] Setting up inception_4a/5x5_reduce
I0906 15:43:48.279181 35856 net.cpp:160] Top shape: 50 16 14 14 (156800)
I0906 15:43:48.279186 35856 net.cpp:168] Memory required for data: 1819509200
I0906 15:43:48.279192 35856 layer_factory.hpp:77] Creating layer inception_4a/relu_5x5_reduce
I0906 15:43:48.279199 35856 net.cpp:115] Creating Layer inception_4a/relu_5x5_reduce
I0906 15:43:48.279206 35856 net.cpp:516] inception_4a/relu_5x5_reduce <- inception_4a/5x5_reduce
I0906 15:43:48.279212 35856 net.cpp:477] inception_4a/relu_5x5_reduce -> inception_4a/5x5_reduce (in-place)
I0906 15:43:48.279220 35856 net.cpp:153] Setting up inception_4a/relu_5x5_reduce
I0906 15:43:48.279227 35856 net.cpp:160] Top shape: 50 16 14 14 (156800)
I0906 15:43:48.279232 35856 net.cpp:168] Memory required for data: 1820136400
I0906 15:43:48.279235 35856 layer_factory.hpp:77] Creating layer inception_4a/5x5
I0906 15:43:48.279248 35856 net.cpp:115] Creating Layer inception_4a/5x5
I0906 15:43:48.279254 35856 net.cpp:516] inception_4a/5x5 <- inception_4a/5x5_reduce
I0906 15:43:48.279263 35856 net.cpp:490] inception_4a/5x5 -> inception_4a/5x5
I0906 15:43:48.279602 35856 net.cpp:153] Setting up inception_4a/5x5
I0906 15:43:48.279614 35856 net.cpp:160] Top shape: 50 48 14 14 (470400)
I0906 15:43:48.279619 35856 net.cpp:168] Memory required for data: 1822018000
I0906 15:43:48.279628 35856 layer_factory.hpp:77] Creating layer inception_4a/relu_5x5
I0906 15:43:48.279634 35856 net.cpp:115] Creating Layer inception_4a/relu_5x5
I0906 15:43:48.279639 35856 net.cpp:516] inception_4a/relu_5x5 <- inception_4a/5x5
I0906 15:43:48.279646 35856 net.cpp:477] inception_4a/relu_5x5 -> inception_4a/5x5 (in-place)
I0906 15:43:48.279654 35856 net.cpp:153] Setting up inception_4a/relu_5x5
I0906 15:43:48.279660 35856 net.cpp:160] Top shape: 50 48 14 14 (470400)
I0906 15:43:48.279664 35856 net.cpp:168] Memory required for data: 1823899600
I0906 15:43:48.279670 35856 layer_factory.hpp:77] Creating layer inception_4a/pool
I0906 15:43:48.279677 35856 net.cpp:115] Creating Layer inception_4a/pool
I0906 15:43:48.279683 35856 net.cpp:516] inception_4a/pool <- pool3/3x3_s2_pool3/3x3_s2_0_split_3
I0906 15:43:48.279693 35856 net.cpp:490] inception_4a/pool -> inception_4a/pool
I0906 15:43:48.279736 35856 net.cpp:153] Setting up inception_4a/pool
I0906 15:43:48.279747 35856 net.cpp:160] Top shape: 50 480 14 14 (4704000)
I0906 15:43:48.279752 35856 net.cpp:168] Memory required for data: 1842715600
I0906 15:43:48.279757 35856 layer_factory.hpp:77] Creating layer inception_4a/pool_proj
I0906 15:43:48.279769 35856 net.cpp:115] Creating Layer inception_4a/pool_proj
I0906 15:43:48.279775 35856 net.cpp:516] inception_4a/pool_proj <- inception_4a/pool
I0906 15:43:48.279783 35856 net.cpp:490] inception_4a/pool_proj -> inception_4a/pool_proj
I0906 15:43:48.280189 35856 net.cpp:153] Setting up inception_4a/pool_proj
I0906 15:43:48.280203 35856 net.cpp:160] Top shape: 50 64 14 14 (627200)
I0906 15:43:48.280208 35856 net.cpp:168] Memory required for data: 1845224400
I0906 15:43:48.280216 35856 layer_factory.hpp:77] Creating layer inception_4a/relu_pool_proj
I0906 15:43:48.280237 35856 net.cpp:115] Creating Layer inception_4a/relu_pool_proj
I0906 15:43:48.280244 35856 net.cpp:516] inception_4a/relu_pool_proj <- inception_4a/pool_proj
I0906 15:43:48.280251 35856 net.cpp:477] inception_4a/relu_pool_proj -> inception_4a/pool_proj (in-place)
I0906 15:43:48.280259 35856 net.cpp:153] Setting up inception_4a/relu_pool_proj
I0906 15:43:48.280267 35856 net.cpp:160] Top shape: 50 64 14 14 (627200)
I0906 15:43:48.280272 35856 net.cpp:168] Memory required for data: 1847733200
I0906 15:43:48.280275 35856 layer_factory.hpp:77] Creating layer inception_4a/output
I0906 15:43:48.280283 35856 net.cpp:115] Creating Layer inception_4a/output
I0906 15:43:48.280288 35856 net.cpp:516] inception_4a/output <- inception_4a/1x1
I0906 15:43:48.280293 35856 net.cpp:516] inception_4a/output <- inception_4a/3x3
I0906 15:43:48.280299 35856 net.cpp:516] inception_4a/output <- inception_4a/5x5
I0906 15:43:48.280305 35856 net.cpp:516] inception_4a/output <- inception_4a/pool_proj
I0906 15:43:48.280311 35856 net.cpp:490] inception_4a/output -> inception_4a/output
I0906 15:43:48.280341 35856 net.cpp:153] Setting up inception_4a/output
I0906 15:43:48.280354 35856 net.cpp:160] Top shape: 50 512 14 14 (5017600)
I0906 15:43:48.280359 35856 net.cpp:168] Memory required for data: 1867803600
I0906 15:43:48.280364 35856 layer_factory.hpp:77] Creating layer inception_4a/output_inception_4a/output_0_split
I0906 15:43:48.280375 35856 net.cpp:115] Creating Layer inception_4a/output_inception_4a/output_0_split
I0906 15:43:48.280380 35856 net.cpp:516] inception_4a/output_inception_4a/output_0_split <- inception_4a/output
I0906 15:43:48.280386 35856 net.cpp:490] inception_4a/output_inception_4a/output_0_split -> inception_4a/output_inception_4a/output_0_split_0
I0906 15:43:48.280395 35856 net.cpp:490] inception_4a/output_inception_4a/output_0_split -> inception_4a/output_inception_4a/output_0_split_1
I0906 15:43:48.280402 35856 net.cpp:490] inception_4a/output_inception_4a/output_0_split -> inception_4a/output_inception_4a/output_0_split_2
I0906 15:43:48.280409 35856 net.cpp:490] inception_4a/output_inception_4a/output_0_split -> inception_4a/output_inception_4a/output_0_split_3
I0906 15:43:48.280419 35856 net.cpp:490] inception_4a/output_inception_4a/output_0_split -> inception_4a/output_inception_4a/output_0_split_4
I0906 15:43:48.280490 35856 net.cpp:153] Setting up inception_4a/output_inception_4a/output_0_split
I0906 15:43:48.280500 35856 net.cpp:160] Top shape: 50 512 14 14 (5017600)
I0906 15:43:48.280508 35856 net.cpp:160] Top shape: 50 512 14 14 (5017600)
I0906 15:43:48.280513 35856 net.cpp:160] Top shape: 50 512 14 14 (5017600)
I0906 15:43:48.280519 35856 net.cpp:160] Top shape: 50 512 14 14 (5017600)
I0906 15:43:48.280524 35856 net.cpp:160] Top shape: 50 512 14 14 (5017600)
I0906 15:43:48.280529 35856 net.cpp:168] Memory required for data: 1968155600
I0906 15:43:48.280534 35856 layer_factory.hpp:77] Creating layer loss1/ave_pool
I0906 15:43:48.280540 35856 net.cpp:115] Creating Layer loss1/ave_pool
I0906 15:43:48.280546 35856 net.cpp:516] loss1/ave_pool <- inception_4a/output_inception_4a/output_0_split_0
I0906 15:43:48.280555 35856 net.cpp:490] loss1/ave_pool -> loss1/ave_pool
I0906 15:43:48.280580 35856 net.cpp:153] Setting up loss1/ave_pool
I0906 15:43:48.280591 35856 net.cpp:160] Top shape: 50 512 4 4 (409600)
I0906 15:43:48.280594 35856 net.cpp:168] Memory required for data: 1969794000
I0906 15:43:48.280599 35856 layer_factory.hpp:77] Creating layer loss1/conv
I0906 15:43:48.280614 35856 net.cpp:115] Creating Layer loss1/conv
I0906 15:43:48.280620 35856 net.cpp:516] loss1/conv <- loss1/ave_pool
I0906 15:43:48.280627 35856 net.cpp:490] loss1/conv -> loss1/conv
I0906 15:43:48.281265 35856 net.cpp:153] Setting up loss1/conv
I0906 15:43:48.281280 35856 net.cpp:160] Top shape: 50 128 4 4 (102400)
I0906 15:43:48.281286 35856 net.cpp:168] Memory required for data: 1970203600
I0906 15:43:48.281293 35856 layer_factory.hpp:77] Creating layer loss1/relu_conv
I0906 15:43:48.281314 35856 net.cpp:115] Creating Layer loss1/relu_conv
I0906 15:43:48.281321 35856 net.cpp:516] loss1/relu_conv <- loss1/conv
I0906 15:43:48.281327 35856 net.cpp:477] loss1/relu_conv -> loss1/conv (in-place)
I0906 15:43:48.281337 35856 net.cpp:153] Setting up loss1/relu_conv
I0906 15:43:48.281344 35856 net.cpp:160] Top shape: 50 128 4 4 (102400)
I0906 15:43:48.281349 35856 net.cpp:168] Memory required for data: 1970613200
I0906 15:43:48.281354 35856 layer_factory.hpp:77] Creating layer loss1/fc
I0906 15:43:48.281369 35856 net.cpp:115] Creating Layer loss1/fc
I0906 15:43:48.281376 35856 net.cpp:516] loss1/fc <- loss1/conv
I0906 15:43:48.281384 35856 net.cpp:490] loss1/fc -> loss1/fc
I0906 15:43:48.298913 35856 net.cpp:153] Setting up loss1/fc
I0906 15:43:48.298948 35856 net.cpp:160] Top shape: 50 1024 (51200)
I0906 15:43:48.298954 35856 net.cpp:168] Memory required for data: 1970818000
I0906 15:43:48.298965 35856 layer_factory.hpp:77] Creating layer loss1/relu_fc
I0906 15:43:48.298980 35856 net.cpp:115] Creating Layer loss1/relu_fc
I0906 15:43:48.298990 35856 net.cpp:516] loss1/relu_fc <- loss1/fc
I0906 15:43:48.299000 35856 net.cpp:477] loss1/relu_fc -> loss1/fc (in-place)
I0906 15:43:48.299012 35856 net.cpp:153] Setting up loss1/relu_fc
I0906 15:43:48.299018 35856 net.cpp:160] Top shape: 50 1024 (51200)
I0906 15:43:48.299023 35856 net.cpp:168] Memory required for data: 1971022800
I0906 15:43:48.299028 35856 layer_factory.hpp:77] Creating layer loss1/drop_fc
I0906 15:43:48.299058 35856 net.cpp:115] Creating Layer loss1/drop_fc
I0906 15:43:48.299065 35856 net.cpp:516] loss1/drop_fc <- loss1/fc
I0906 15:43:48.299074 35856 net.cpp:477] loss1/drop_fc -> loss1/fc (in-place)
I0906 15:43:48.299109 35856 net.cpp:153] Setting up loss1/drop_fc
I0906 15:43:48.299119 35856 net.cpp:160] Top shape: 50 1024 (51200)
I0906 15:43:48.299124 35856 net.cpp:168] Memory required for data: 1971227600
I0906 15:43:48.299129 35856 layer_factory.hpp:77] Creating layer loss1/classifier
I0906 15:43:48.299142 35856 net.cpp:115] Creating Layer loss1/classifier
I0906 15:43:48.299147 35856 net.cpp:516] loss1/classifier <- loss1/fc
I0906 15:43:48.299155 35856 net.cpp:490] loss1/classifier -> loss1/classifier
I0906 15:43:48.307559 35856 net.cpp:153] Setting up loss1/classifier
I0906 15:43:48.307592 35856 net.cpp:160] Top shape: 50 1000 (50000)
I0906 15:43:48.307598 35856 net.cpp:168] Memory required for data: 1971427600
I0906 15:43:48.307610 35856 layer_factory.hpp:77] Creating layer loss1/classifier_loss1/classifier_0_split
I0906 15:43:48.307626 35856 net.cpp:115] Creating Layer loss1/classifier_loss1/classifier_0_split
I0906 15:43:48.307633 35856 net.cpp:516] loss1/classifier_loss1/classifier_0_split <- loss1/classifier
I0906 15:43:48.307644 35856 net.cpp:490] loss1/classifier_loss1/classifier_0_split -> loss1/classifier_loss1/classifier_0_split_0
I0906 15:43:48.307667 35856 net.cpp:490] loss1/classifier_loss1/classifier_0_split -> loss1/classifier_loss1/classifier_0_split_1
I0906 15:43:48.307677 35856 net.cpp:490] loss1/classifier_loss1/classifier_0_split -> loss1/classifier_loss1/classifier_0_split_2
I0906 15:43:48.307730 35856 net.cpp:153] Setting up loss1/classifier_loss1/classifier_0_split
I0906 15:43:48.307740 35856 net.cpp:160] Top shape: 50 1000 (50000)
I0906 15:43:48.307746 35856 net.cpp:160] Top shape: 50 1000 (50000)
I0906 15:43:48.307752 35856 net.cpp:160] Top shape: 50 1000 (50000)
I0906 15:43:48.307756 35856 net.cpp:168] Memory required for data: 1972027600
I0906 15:43:48.307762 35856 layer_factory.hpp:77] Creating layer loss1/loss
I0906 15:43:48.307776 35856 net.cpp:115] Creating Layer loss1/loss
I0906 15:43:48.307782 35856 net.cpp:516] loss1/loss <- loss1/classifier_loss1/classifier_0_split_0
I0906 15:43:48.307790 35856 net.cpp:516] loss1/loss <- label_data_1_split_0
…
I0906 15:43:48.308198 35856 net.cpp:153] Setting up loss1/top-5
I0906 15:43:48.308204 35856 net.cpp:160] Top shape: (1)
I0906 15:43:48.308209 35856 net.cpp:168] Memory required for data: 1972027612
I0906 15:43:48.308214 35856 layer_factory.hpp:77] Creating layer inception_4b/1x1
I0906 15:43:48.308229 35856 net.cpp:115] Creating Layer inception_4b/1x1
I0906 15:43:48.308236 35856 net.cpp:516] inception_4b/1x1 <- inception_4a/output_inception_4a/output_0_split_1
I0906 15:43:48.308244 35856 net.cpp:490] inception_4b/1x1 -> inception_4b/1x1
I0906 15:43:48.309008 35856 net.cpp:153] Setting up inception_4b/1x1
I0906 15:43:48.309021 35856 net.cpp:160] Top shape: 50 160 14 14 (1568000)
I0906 15:43:48.309026 35856 net.cpp:168] Memory required for data: 1978299612
I0906 15:43:48.309033 35856 layer_factory.hpp:77] Creating layer inception_4b/relu_1x1
I0906 15:43:48.309044 35856 net.cpp:115] Creating Layer inception_4b/relu_1x1
I0906 15:43:48.309051 35856 net.cpp:516] inception_4b/relu_1x1 <- inception_4b/1x1
I0906 15:43:48.309057 35856 net.cpp:477] inception_4b/relu_1x1 -> inception_4b/1x1 (in-place)
I0906 15:43:48.309065 35856 net.cpp:153] Setting up inception_4b/relu_1x1
I0906 15:43:48.309072 35856 net.cpp:160] Top shape: 50 160 14 14 (1568000)
I0906 15:43:48.309077 35856 net.cpp:168] Memory required for data: 1984571612
I0906 15:43:48.309082 35856 layer_factory.hpp:77] Creating layer inception_4b/3x3_reduce
I0906 15:43:48.309094 35856 net.cpp:115] Creating Layer inception_4b/3x3_reduce
I0906 15:43:48.309100 35856 net.cpp:516] inception_4b/3x3_reduce <- inception_4a/output_inception_4a/output_0_split_2
I0906 15:43:48.309108 35856 net.cpp:490] inception_4b/3x3_reduce -> inception_4b/3x3_reduce
I0906 15:43:48.309717 35856 net.cpp:153] Setting up inception_4b/3x3_reduce
I0906 15:43:48.309729 35856 net.cpp:160] Top shape: 50 112 14 14 (1097600)
I0906 15:43:48.309734 35856 net.cpp:168] Memory required for data: 1988962012
I0906 15:43:48.309741 35856 layer_factory.hpp:77] Creating layer inception_4b/relu_3x3_reduce
I0906 15:43:48.309749 35856 net.cpp:115] Creating Layer inception_4b/relu_3x3_reduce
I0906 15:43:48.309756 35856 net.cpp:516] inception_4b/relu_3x3_reduce <- inception_4b/3x3_reduce
I0906 15:43:48.309762 35856 net.cpp:477] inception_4b/relu_3x3_reduce -> inception_4b/3x3_reduce (in-place)
I0906 15:43:48.309769 35856 net.cpp:153] Setting up inception_4b/relu_3x3_reduce
I0906 15:43:48.309775 35856 net.cpp:160] Top shape: 50 112 14 14 (1097600)
I0906 15:43:48.309780 35856 net.cpp:168] Memory required for data: 1993352412
I0906 15:43:48.309785 35856 layer_factory.hpp:77] Creating layer inception_4b/3x3
I0906 15:43:48.309798 35856 net.cpp:115] Creating Layer inception_4b/3x3
I0906 15:43:48.309803 35856 net.cpp:516] inception_4b/3x3 <- inception_4b/3x3_reduce
I0906 15:43:48.309813 35856 net.cpp:490] inception_4b/3x3 -> inception_4b/3x3
I0906 15:43:48.312780 35856 net.cpp:153] Setting up inception_4b/3x3
I0906 15:43:48.312816 35856 net.cpp:160] Top shape: 50 224 14 14 (2195200)
I0906 15:43:48.312846 35856 net.cpp:168] Memory required for data: 2002133212
I0906 15:43:48.312856 35856 layer_factory.hpp:77] Creating layer inception_4b/relu_3x3
I0906 15:43:48.312866 35856 net.cpp:115] Creating Layer inception_4b/relu_3x3
I0906 15:43:48.312875 35856 net.cpp:516] inception_4b/relu_3x3 <- inception_4b/3x3
I0906 15:43:48.312882 35856 net.cpp:477] inception_4b/relu_3x3 -> inception_4b/3x3 (in-place)
I0906 15:43:48.312892 35856 net.cpp:153] Setting up inception_4b/relu_3x3
I0906 15:43:48.312899 35856 net.cpp:160] Top shape: 50 224 14 14 (2195200)
I0906 15:43:48.312903 35856 net.cpp:168] Memory required for data: 2010914012
I0906 15:43:48.312908 35856 layer_factory.hpp:77] Creating layer inception_4b/5x5_reduce
I0906 15:43:48.312928 35856 net.cpp:115] Creating Layer inception_4b/5x5_reduce
I0906 15:43:48.312935 35856 net.cpp:516] inception_4b/5x5_reduce <- inception_4a/output_inception_4a/output_0_split_3
I0906 15:43:48.312943 35856 net.cpp:490] inception_4b/5x5_reduce -> inception_4b/5x5_reduce
I0906 15:43:48.313251 35856 net.cpp:153] Setting up inception_4b/5x5_reduce
I0906 15:43:48.313262 35856 net.cpp:160] Top shape: 50 24 14 14 (235200)
I0906 15:43:48.313268 35856 net.cpp:168] Memory required for data: 2011854812
I0906 15:43:48.313277 35856 layer_factory.hpp:77] Creating layer inception_4b/relu_5x5_reduce
I0906 15:43:48.313284 35856 net.cpp:115] Creating Layer inception_4b/relu_5x5_reduce
I0906 15:43:48.313290 35856 net.cpp:516] inception_4b/relu_5x5_reduce <- inception_4b/5x5_reduce
I0906 15:43:48.313299 35856 net.cpp:477] inception_4b/relu_5x5_reduce -> inception_4b/5x5_reduce (in-place)
I0906 15:43:48.313308 35856 net.cpp:153] Setting up inception_4b/relu_5x5_reduce
I0906 15:43:48.313314 35856 net.cpp:160] Top shape: 50 24 14 14 (235200)
I0906 15:43:48.313319 35856 net.cpp:168] Memory required for data: 2012795612
I0906 15:43:48.313323 35856 layer_factory.hpp:77] Creating layer inception_4b/5x5
I0906 15:43:48.313333 35856 net.cpp:115] Creating Layer inception_4b/5x5
I0906 15:43:48.313338 35856 net.cpp:516] inception_4b/5x5 <- inception_4b/5x5_reduce
I0906 15:43:48.313349 35856 net.cpp:490] inception_4b/5x5 -> inception_4b/5x5
I0906 15:43:48.313813 35856 net.cpp:153] Setting up inception_4b/5x5
I0906 15:43:48.313825 35856 net.cpp:160] Top shape: 50 64 14 14 (627200)
I0906 15:43:48.313830 35856 net.cpp:168] Memory required for data: 2015304412
I0906 15:43:48.313838 35856 layer_factory.hpp:77] Creating layer inception_4b/relu_5x5
I0906 15:43:48.313845 35856 net.cpp:115] Creating Layer inception_4b/relu_5x5
I0906 15:43:48.313851 35856 net.cpp:516] inception_4b/relu_5x5 <- inception_4b/5x5
I0906 15:43:48.313858 35856 net.cpp:477] inception_4b/relu_5x5 -> inception_4b/5x5 (in-place)
I0906 15:43:48.313865 35856 net.cpp:153] Setting up inception_4b/relu_5x5
I0906 15:43:48.313872 35856 net.cpp:160] Top shape: 50 64 14 14 (627200)
I0906 15:43:48.313876 35856 net.cpp:168] Memory required for data: 2017813212
I0906 15:43:48.313881 35856 layer_factory.hpp:77] Creating layer inception_4b/pool
I0906 15:43:48.313892 35856 net.cpp:115] Creating Layer inception_4b/pool
I0906 15:43:48.313899 35856 net.cpp:516] inception_4b/pool <- inception_4a/output_inception_4a/output_0_split_4
I0906 15:43:48.313905 35856 net.cpp:490] inception_4b/pool -> inception_4b/pool
I0906 15:43:48.313951 35856 net.cpp:153] Setting up inception_4b/pool
I0906 15:43:48.313961 35856 net.cpp:160] Top shape: 50 512 14 14 (5017600)
I0906 15:43:48.313966 35856 net.cpp:168] Memory required for data: 2037883612
I0906 15:43:48.313971 35856 layer_factory.hpp:77] Creating layer inception_4b/pool_proj
I0906 15:43:48.313983 35856 net.cpp:115] Creating Layer inception_4b/pool_proj
I0906 15:43:48.313989 35856 net.cpp:516] inception_4b/pool_proj <- inception_4b/pool
I0906 15:43:48.313997 35856 net.cpp:490] inception_4b/pool_proj -> inception_4b/pool_proj
I0906 15:43:48.314416 35856 net.cpp:153] Setting up inception_4b/pool_proj
I0906 15:43:48.314430 35856 net.cpp:160] Top shape: 50 64 14 14 (627200)
I0906 15:43:48.314435 35856 net.cpp:168] Memory required for data: 2040392412
I0906 15:43:48.314455 35856 layer_factory.hpp:77] Creating layer inception_4b/relu_pool_proj
I0906 15:43:48.314463 35856 net.cpp:115] Creating Layer inception_4b/relu_pool_proj
I0906 15:43:48.314469 35856 net.cpp:516] inception_4b/relu_pool_proj <- inception_4b/pool_proj
I0906 15:43:48.314476 35856 net.cpp:477] inception_4b/relu_pool_proj -> inception_4b/pool_proj (in-place)
I0906 15:43:48.314484 35856 net.cpp:153] Setting up inception_4b/relu_pool_proj
I0906 15:43:48.314491 35856 net.cpp:160] Top shape: 50 64 14 14 (627200)
I0906 15:43:48.314496 35856 net.cpp:168] Memory required for data: 2042901212
I0906 15:43:48.314501 35856 layer_factory.hpp:77] Creating layer inception_4b/output
I0906 15:43:48.314507 35856 net.cpp:115] Creating Layer inception_4b/output
I0906 15:43:48.314513 35856 net.cpp:516] inception_4b/output <- inception_4b/1x1
I0906 15:43:48.314519 35856 net.cpp:516] inception_4b/output <- inception_4b/3x3
I0906 15:43:48.314524 35856 net.cpp:516] inception_4b/output <- inception_4b/5x5
I0906 15:43:48.314530 35856 net.cpp:516] inception_4b/output <- inception_4b/pool_proj
I0906 15:43:48.314539 35856 net.cpp:490] inception_4b/output -> inception_4b/output
I0906 15:43:48.314568 35856 net.cpp:153] Setting up inception_4b/output
I0906 15:43:48.314580 35856 net.cpp:160] Top shape: 50 512 14 14 (5017600)
I0906 15:43:48.314586 35856 net.cpp:168] Memory required for data: 2062971612
I0906 15:43:48.314591 35856 layer_factory.hpp:77] Creating layer inception_4b/output_inception_4b/output_0_split
I0906 15:43:48.314599 35856 net.cpp:115] Creating Layer inception_4b/output_inception_4b/output_0_split
I0906 15:43:48.314605 35856 net.cpp:516] inception_4b/output_inception_4b/output_0_split <- inception_4b/output
I0906 15:43:48.314612 35856 net.cpp:490] inception_4b/output_inception_4b/output_0_split -> inception_4b/output_inception_4b/output_0_split_0
I0906 15:43:48.314620 35856 net.cpp:490] inception_4b/output_inception_4b/output_0_split -> inception_4b/output_inception_4b/output_0_split_1
I0906 15:43:48.314628 35856 net.cpp:490] inception_4b/output_inception_4b/output_0_split -> inception_4b/output_inception_4b/output_0_split_2
I0906 15:43:48.314640 35856 net.cpp:490] inception_4b/output_inception_4b/output_0_split -> inception_4b/output_inception_4b/output_0_split_3
I0906 15:43:48.314704 35856 net.cpp:153] Setting up inception_4b/output_inception_4b/output_0_split
I0906 15:43:48.314713 35856 net.cpp:160] Top shape: 50 512 14 14 (5017600)
I0906 15:43:48.314719 35856 net.cpp:160] Top shape: 50 512 14 14 (5017600)
I0906 15:43:48.314724 35856 net.cpp:160] Top shape: 50 512 14 14 (5017600)
I0906 15:43:48.314730 35856 net.cpp:160] Top shape: 50 512 14 14 (5017600)
I0906 15:43:48.314734 35856 net.cpp:168] Memory required for data: 2143253212
I0906 15:43:48.314739 35856 layer_factory.hpp:77] Creating layer inception_4c/1x1
I0906 15:43:48.314751 35856 net.cpp:115] Creating Layer inception_4c/1x1
I0906 15:43:48.314757 35856 net.cpp:516] inception_4c/1x1 <- inception_4b/output_inception_4b/output_0_split_0
I0906 15:43:48.314769 35856 net.cpp:490] inception_4c/1x1 -> inception_4c/1x1
I0906 15:43:48.315393 35856 net.cpp:153] Setting up inception_4c/1x1
I0906 15:43:48.315405 35856 net.cpp:160] Top shape: 50 128 14 14 (1254400)
I0906 15:43:48.315412 35856 net.cpp:168] Memory required for data: 2148270812
I0906 15:43:48.315419 35856 layer_factory.hpp:77] Creating layer inception_4c/relu_1x1
I0906 15:43:48.315428 35856 net.cpp:115] Creating Layer inception_4c/relu_1x1
I0906 15:43:48.315433 35856 net.cpp:516] inception_4c/relu_1x1 <- inception_4c/1x1
I0906 15:43:48.315443 35856 net.cpp:477] inception_4c/relu_1x1 -> inception_4c/1x1 (in-place)
I0906 15:43:48.315450 35856 net.cpp:153] Setting up inception_4c/relu_1x1
I0906 15:43:48.315456 35856 net.cpp:160] Top shape: 50 128 14 14 (1254400)
I0906 15:43:48.315461 35856 net.cpp:168] Memory required for data: 2153288412
I0906 15:43:48.315466 35856 layer_factory.hpp:77] Creating layer inception_4c/3x3_reduce
I0906 15:43:48.315479 35856 net.cpp:115] Creating Layer inception_4c/3x3_reduce
I0906 15:43:48.315495 35856 net.cpp:516] inception_4c/3x3_reduce <- inception_4b/output_inception_4b/output_0_split_1
I0906 15:43:48.315505 35856 net.cpp:490] inception_4c/3x3_reduce -> inception_4c/3x3_reduce
I0906 15:43:48.317481 35856 net.cpp:153] Setting up inception_4c/3x3_reduce
I0906 15:43:48.317497 35856 net.cpp:160] Top shape: 50 128 14 14 (1254400)
I0906 15:43:48.317502 35856 net.cpp:168] Memory required for data: 2158306012
I0906 15:43:48.317512 35856 layer_factory.hpp:77] Creating layer inception_4c/relu_3x3_reduce
I0906 15:43:48.317520 35856 net.cpp:115] Creating Layer inception_4c/relu_3x3_reduce
I0906 15:43:48.317526 35856 net.cpp:516] inception_4c/relu_3x3_reduce <- inception_4c/3x3_reduce
I0906 15:43:48.317536 35856 net.cpp:477] inception_4c/relu_3x3_reduce -> inception_4c/3x3_reduce (in-place)
I0906 15:43:48.317545 35856 net.cpp:153] Setting up inception_4c/relu_3x3_reduce
I0906 15:43:48.317553 35856 net.cpp:160] Top shape: 50 128 14 14 (1254400)
I0906 15:43:48.317558 35856 net.cpp:168] Memory required for data: 2163323612
I0906 15:43:48.317562 35856 layer_factory.hpp:77] Creating layer inception_4c/3x3
I0906 15:43:48.317575 35856 net.cpp:115] Creating Layer inception_4c/3x3
I0906 15:43:48.317581 35856 net.cpp:516] inception_4c/3x3 <- inception_4c/3x3_reduce
I0906 15:43:48.317589 35856 net.cpp:490] inception_4c/3x3 -> inception_4c/3x3
I0906 15:43:48.319671 35856 net.cpp:153] Setting up inception_4c/3x3
I0906 15:43:48.319684 35856 net.cpp:160] Top shape: 50 256 14 14 (2508800)
I0906 15:43:48.319690 35856 net.cpp:168] Memory required for data: 2173358812
I0906 15:43:48.319713 35856 layer_factory.hpp:77] Creating layer inception_4c/relu_3x3
I0906 15:43:48.319721 35856 net.cpp:115] Creating Layer inception_4c/relu_3x3
I0906 15:43:48.319727 35856 net.cpp:516] inception_4c/relu_3x3 <- inception_4c/3x3
I0906 15:43:48.319736 35856 net.cpp:477] inception_4c/relu_3x3 -> inception_4c/3x3 (in-place)
I0906 15:43:48.319746 35856 net.cpp:153] Setting up inception_4c/relu_3x3
I0906 15:43:48.319751 35856 net.cpp:160] Top shape: 50 256 14 14 (2508800)
I0906 15:43:48.319756 35856 net.cpp:168] Memory required for data: 2183394012
I0906 15:43:48.319761 35856 layer_factory.hpp:77] Creating layer inception_4c/5x5_reduce
I0906 15:43:48.319772 35856 net.cpp:115] Creating Layer inception_4c/5x5_reduce
I0906 15:43:48.319777 35856 net.cpp:516] inception_4c/5x5_reduce <- inception_4b/output_inception_4b/output_0_split_2
I0906 15:43:48.319788 35856 net.cpp:490] inception_4c/5x5_reduce -> inception_4c/5x5_reduce
I0906 15:43:48.320096 35856 net.cpp:153] Setting up inception_4c/5x5_reduce
I0906 15:43:48.320107 35856 net.cpp:160] Top shape: 50 24 14 14 (235200)
I0906 15:43:48.320112 35856 net.cpp:168] Memory required for data: 2184334812
I0906 15:43:48.320121 35856 layer_factory.hpp:77] Creating layer inception_4c/relu_5x5_reduce
I0906 15:43:48.320127 35856 net.cpp:115] Creating Layer inception_4c/relu_5x5_reduce
I0906 15:43:48.320133 35856 net.cpp:516] inception_4c/relu_5x5_reduce <- inception_4c/5x5_reduce
I0906 15:43:48.320139 35856 net.cpp:477] inception_4c/relu_5x5_reduce -> inception_4c/5x5_reduce (in-place)
I0906 15:43:48.320147 35856 net.cpp:153] Setting up inception_4c/relu_5x5_reduce
I0906 15:43:48.320153 35856 net.cpp:160] Top shape: 50 24 14 14 (235200)
I0906 15:43:48.320158 35856 net.cpp:168] Memory required for data: 2185275612
I0906 15:43:48.320163 35856 layer_factory.hpp:77] Creating layer inception_4c/5x5
I0906 15:43:48.320175 35856 net.cpp:115] Creating Layer inception_4c/5x5
I0906 15:43:48.320181 35856 net.cpp:516] inception_4c/5x5 <- inception_4c/5x5_reduce
I0906 15:43:48.320190 35856 net.cpp:490] inception_4c/5x5 -> inception_4c/5x5
I0906 15:43:48.320658 35856 net.cpp:153] Setting up inception_4c/5x5
I0906 15:43:48.320670 35856 net.cpp:160] Top shape: 50 64 14 14 (627200)
I0906 15:43:48.320675 35856 net.cpp:168] Memory required for data: 2187784412
I0906 15:43:48.320683 35856 layer_factory.hpp:77] Creating layer inception_4c/relu_5x5
I0906 15:43:48.320693 35856 net.cpp:115] Creating Layer inception_4c/relu_5x5
I0906 15:43:48.320724 35856 net.cpp:516] inception_4c/relu_5x5 <- inception_4c/5x5
I0906 15:43:48.320734 35856 net.cpp:477] inception_4c/relu_5x5 -> inception_4c/5x5 (in-place)
I0906 15:43:48.320741 35856 net.cpp:153] Setting up inception_4c/relu_5x5
I0906 15:43:48.320747 35856 net.cpp:160] Top shape: 50 64 14 14 (627200)
I0906 15:43:48.320752 35856 net.cpp:168] Memory required for data: 2190293212
I0906 15:43:48.320757 35856 layer_factory.hpp:77] Creating layer inception_4c/pool
I0906 15:43:48.320768 35856 net.cpp:115] Creating Layer inception_4c/pool
I0906 15:43:48.320775 35856 net.cpp:516] inception_4c/pool <- inception_4b/output_inception_4b/output_0_split_3
I0906 15:43:48.320781 35856 net.cpp:490] inception_4c/pool -> inception_4c/pool
I0906 15:43:48.320847 35856 net.cpp:153] Setting up inception_4c/pool
I0906 15:43:48.320863 35856 net.cpp:160] Top shape: 50 512 14 14 (5017600)
I0906 15:43:48.320868 35856 net.cpp:168] Memory required for data: 2210363612
I0906 15:43:48.320873 35856 layer_factory.hpp:77] Creating layer inception_4c/pool_proj
I0906 15:43:48.320883 35856 net.cpp:115] Creating Layer inception_4c/pool_proj
I0906 15:43:48.320888 35856 net.cpp:516] inception_4c/pool_proj <- inception_4c/pool
I0906 15:43:48.320900 35856 net.cpp:490] inception_4c/pool_proj -> inception_4c/pool_proj
I0906 15:43:48.321321 35856 net.cpp:153] Setting up inception_4c/pool_proj
I0906 15:43:48.321332 35856 net.cpp:160] Top shape: 50 64 14 14 (627200)
I0906 15:43:48.321337 35856 net.cpp:168] Memory required for data: 2212872412
I0906 15:43:48.321346 35856 layer_factory.hpp:77] Creating layer inception_4c/relu_pool_proj
I0906 15:43:48.321352 35856 net.cpp:115] Creating Layer inception_4c/relu_pool_proj
I0906 15:43:48.321358 35856 net.cpp:516] inception_4c/relu_pool_proj <- inception_4c/pool_proj
I0906 15:43:48.321367 35856 net.cpp:477] inception_4c/relu_pool_proj -> inception_4c/pool_proj (in-place)
I0906 15:43:48.321377 35856 net.cpp:153] Setting up inception_4c/relu_pool_proj
I0906 15:43:48.321382 35856 net.cpp:160] Top shape: 50 64 14 14 (627200)
I0906 15:43:48.321388 35856 net.cpp:168] Memory required for data: 2215381212
I0906 15:43:48.321391 35856 layer_factory.hpp:77] Creating layer inception_4c/output
I0906 15:43:48.321399 35856 net.cpp:115] Creating Layer inception_4c/output
I0906 15:43:48.321404 35856 net.cpp:516] inception_4c/output <- inception_4c/1x1
I0906 15:43:48.321410 35856 net.cpp:516] inception_4c/output <- inception_4c/3x3
I0906 15:43:48.321416 35856 net.cpp:516] inception_4c/output <- inception_4c/5x5
I0906 15:43:48.321422 35856 net.cpp:516] inception_4c/output <- inception_4c/pool_proj
I0906 15:43:48.321429 35856 net.cpp:490] inception_4c/output -> inception_4c/output
I0906 15:43:48.321458 35856 net.cpp:153] Setting up inception_4c/output
I0906 15:43:48.321467 35856 net.cpp:160] Top shape: 50 512 14 14 (5017600)
I0906 15:43:48.321472 35856 net.cpp:168] Memory required for data: 2235451612
I0906 15:43:48.321477 35856 layer_factory.hpp:77] Creating layer inception_4c/output_inception_4c/output_0_split
I0906 15:43:48.321485 35856 net.cpp:115] Creating Layer inception_4c/output_inception_4c/output_0_split
I0906 15:43:48.321491 35856 net.cpp:516] inception_4c/output_inception_4c/output_0_split <- inception_4c/output
I0906 15:43:48.321501 35856 net.cpp:490] inception_4c/output_inception_4c/output_0_split -> inception_4c/output_inception_4c/output_0_split_0
I0906 15:43:48.321509 35856 net.cpp:490] inception_4c/output_inception_4c/output_0_split -> inception_4c/output_inception_4c/output_0_split_1
I0906 15:43:48.321517 35856 net.cpp:490] inception_4c/output_inception_4c/output_0_split -> inception_4c/output_inception_4c/output_0_split_2
I0906 15:43:48.321524 35856 net.cpp:490] inception_4c/output_inception_4c/output_0_split -> inception_4c/output_inception_4c/output_0_split_3
I0906 15:43:48.321584 35856 net.cpp:153] Setting up inception_4c/output_inception_4c/output_0_split
I0906 15:43:48.321594 35856 net.cpp:160] Top shape: 50 512 14 14 (5017600)
I0906 15:43:48.321599 35856 net.cpp:160] Top shape: 50 512 14 14 (5017600)
I0906 15:43:48.321617 35856 net.cpp:160] Top shape: 50 512 14 14 (5017600)
I0906 15:43:48.321624 35856 net.cpp:160] Top shape: 50 512 14 14 (5017600)
I0906 15:43:48.321629 35856 net.cpp:168] Memory required for data: 2315733212
I0906 15:43:48.321633 35856 layer_factory.hpp:77] Creating layer inception_4d/1x1
I0906 15:43:48.321650 35856 net.cpp:115] Creating Layer inception_4d/1x1
I0906 15:43:48.321655 35856 net.cpp:516] inception_4d/1x1 <- inception_4c/output_inception_4c/output_0_split_0
I0906 15:43:48.321663 35856 net.cpp:490] inception_4d/1x1 -> inception_4d/1x1
I0906 15:43:48.322240 35856 net.cpp:153] Setting up inception_4d/1x1
I0906 15:43:48.322252 35856 net.cpp:160] Top shape: 50 112 14 14 (1097600)
I0906 15:43:48.322257 35856 net.cpp:168] Memory required for data: 2320123612
I0906 15:43:48.322264 35856 layer_factory.hpp:77] Creating layer inception_4d/relu_1x1
I0906 15:43:48.322273 35856 net.cpp:115] Creating Layer inception_4d/relu_1x1
I0906 15:43:48.322278 35856 net.cpp:516] inception_4d/relu_1x1 <- inception_4d/1x1
I0906 15:43:48.322286 35856 net.cpp:477] inception_4d/relu_1x1 -> inception_4d/1x1 (in-place)
I0906 15:43:48.322295 35856 net.cpp:153] Setting up inception_4d/relu_1x1
I0906 15:43:48.322302 35856 net.cpp:160] Top shape: 50 112 14 14 (1097600)
I0906 15:43:48.322306 35856 net.cpp:168] Memory required for data: 2324514012
I0906 15:43:48.322311 35856 layer_factory.hpp:77] Creating layer inception_4d/3x3_reduce
I0906 15:43:48.322324 35856 net.cpp:115] Creating Layer inception_4d/3x3_reduce
I0906 15:43:48.322329 35856 net.cpp:516] inception_4d/3x3_reduce <- inception_4c/output_inception_4c/output_0_split_1
I0906 15:43:48.322337 35856 net.cpp:490] inception_4d/3x3_reduce -> inception_4d/3x3_reduce
I0906 15:43:48.323025 35856 net.cpp:153] Setting up inception_4d/3x3_reduce
I0906 15:43:48.323037 35856 net.cpp:160] Top shape: 50 144 14 14 (1411200)
I0906 15:43:48.323042 35856 net.cpp:168] Memory required for data: 2330158812
I0906 15:43:48.323050 35856 layer_factory.hpp:77] Creating layer inception_4d/relu_3x3_reduce
I0906 15:43:48.323057 35856 net.cpp:115] Creating Layer inception_4d/relu_3x3_reduce
I0906 15:43:48.323062 35856 net.cpp:516] inception_4d/relu_3x3_reduce <- inception_4d/3x3_reduce
I0906 15:43:48.323071 35856 net.cpp:477] inception_4d/relu_3x3_reduce -> inception_4d/3x3_reduce (in-place)
I0906 15:43:48.323081 35856 net.cpp:153] Setting up inception_4d/relu_3x3_reduce
I0906 15:43:48.323086 35856 net.cpp:160] Top shape: 50 144 14 14 (1411200)
I0906 15:43:48.323091 35856 net.cpp:168] Memory required for data: 2335803612
I0906 15:43:48.323096 35856 layer_factory.hpp:77] Creating layer inception_4d/3x3
I0906 15:43:48.323108 35856 net.cpp:115] Creating Layer inception_4d/3x3
I0906 15:43:48.323114 35856 net.cpp:516] inception_4d/3x3 <- inception_4d/3x3_reduce
I0906 15:43:48.323122 35856 net.cpp:490] inception_4d/3x3 -> inception_4d/3x3
I0906 15:43:48.326987 35856 net.cpp:153] Setting up inception_4d/3x3
I0906 15:43:48.327006 35856 net.cpp:160] Top shape: 50 288 14 14 (2822400)
I0906 15:43:48.327011 35856 net.cpp:168] Memory required for data: 2347093212
I0906 15:43:48.327021 35856 layer_factory.hpp:77] Creating layer inception_4d/relu_3x3
I0906 15:43:48.327030 35856 net.cpp:115] Creating Layer inception_4d/relu_3x3
I0906 15:43:48.327038 35856 net.cpp:516] inception_4d/relu_3x3 <- inception_4d/3x3
I0906 15:43:48.327049 35856 net.cpp:477] inception_4d/relu_3x3 -> inception_4d/3x3 (in-place)
I0906 15:43:48.327059 35856 net.cpp:153] Setting up inception_4d/relu_3x3
I0906 15:43:48.327064 35856 net.cpp:160] Top shape: 50 288 14 14 (2822400)
I0906 15:43:48.327069 35856 net.cpp:168] Memory required for data: 2358382812
I0906 15:43:48.327075 35856 layer_factory.hpp:77] Creating layer inception_4d/5x5_reduce
I0906 15:43:48.327088 35856 net.cpp:115] Creating Layer inception_4d/5x5_reduce
I0906 15:43:48.327095 35856 net.cpp:516] inception_4d/5x5_reduce <- inception_4c/output_inception_4c/output_0_split_2
I0906 15:43:48.327102 35856 net.cpp:490] inception_4d/5x5_reduce -> inception_4d/5x5_reduce
I0906 15:43:48.327476 35856 net.cpp:153] Setting up inception_4d/5x5_reduce
I0906 15:43:48.327487 35856 net.cpp:160] Top shape: 50 32 14 14 (313600)
I0906 15:43:48.327492 35856 net.cpp:168] Memory required for data: 2359637212
I0906 15:43:48.327500 35856 layer_factory.hpp:77] Creating layer inception_4d/relu_5x5_reduce
I0906 15:43:48.327510 35856 net.cpp:115] Creating Layer inception_4d/relu_5x5_reduce
I0906 15:43:48.327517 35856 net.cpp:516] inception_4d/relu_5x5_reduce <- inception_4d/5x5_reduce
I0906 15:43:48.327523 35856 net.cpp:477] inception_4d/relu_5x5_reduce -> inception_4d/5x5_reduce (in-place)
I0906 15:43:48.327531 35856 net.cpp:153] Setting up inception_4d/relu_5x5_reduce
I0906 15:43:48.327538 35856 net.cpp:160] Top shape: 50 32 14 14 (313600)
I0906 15:43:48.327543 35856 net.cpp:168] Memory required for data: 2360891612
I0906 15:43:48.327546 35856 layer_factory.hpp:77] Creating layer inception_4d/5x5
I0906 15:43:48.327558 35856 net.cpp:115] Creating Layer inception_4d/5x5
I0906 15:43:48.327564 35856 net.cpp:516] inception_4d/5x5 <- inception_4d/5x5_reduce
I0906 15:43:48.327571 35856 net.cpp:490] inception_4d/5x5 -> inception_4d/5x5
I0906 15:43:48.328130 35856 net.cpp:153] Setting up inception_4d/5x5
I0906 15:43:48.328142 35856 net.cpp:160] Top shape: 50 64 14 14 (627200)
I0906 15:43:48.328146 35856 net.cpp:168] Memory required for data: 2363400412
I0906 15:43:48.328155 35856 layer_factory.hpp:77] Creating layer inception_4d/relu_5x5
I0906 15:43:48.328161 35856 net.cpp:115] Creating Layer inception_4d/relu_5x5
I0906 15:43:48.328167 35856 net.cpp:516] inception_4d/relu_5x5 <- inception_4d/5x5
I0906 15:43:48.328176 35856 net.cpp:477] inception_4d/relu_5x5 -> inception_4d/5x5 (in-place)
I0906 15:43:48.328184 35856 net.cpp:153] Setting up inception_4d/relu_5x5
I0906 15:43:48.328191 35856 net.cpp:160] Top shape: 50 64 14 14 (627200)
I0906 15:43:48.328196 35856 net.cpp:168] Memory required for data: 2365909212
I0906 15:43:48.328200 35856 layer_factory.hpp:77] Creating layer inception_4d/pool
I0906 15:43:48.328209 35856 net.cpp:115] Creating Layer inception_4d/pool
I0906 15:43:48.328214 35856 net.cpp:516] inception_4d/pool <- inception_4c/output_inception_4c/output_0_split_3
I0906 15:43:48.328224 35856 net.cpp:490] inception_4d/pool -> inception_4d/pool
I0906 15:43:48.328266 35856 net.cpp:153] Setting up inception_4d/pool
I0906 15:43:48.328276 35856 net.cpp:160] Top shape: 50 512 14 14 (5017600)
I0906 15:43:48.328281 35856 net.cpp:168] Memory required for data: 2385979612
I0906 15:43:48.328286 35856 layer_factory.hpp:77] Creating layer inception_4d/pool_proj
I0906 15:43:48.328299 35856 net.cpp:115] Creating Layer inception_4d/pool_proj
I0906 15:43:48.328305 35856 net.cpp:516] inception_4d/pool_proj <- inception_4d/pool
I0906 15:43:48.328315 35856 net.cpp:490] inception_4d/pool_proj -> inception_4d/pool_proj
I0906 15:43:48.328737 35856 net.cpp:153] Setting up inception_4d/pool_proj
I0906 15:43:48.328747 35856 net.cpp:160] Top shape: 50 64 14 14 (627200)
I0906 15:43:48.328752 35856 net.cpp:168] Memory required for data: 2388488412
I0906 15:43:48.328760 35856 layer_factory.hpp:77] Creating layer inception_4d/relu_pool_proj
I0906 15:43:48.328768 35856 net.cpp:115] Creating Layer inception_4d/relu_pool_proj
I0906 15:43:48.328773 35856 net.cpp:516] inception_4d/relu_pool_proj <- inception_4d/pool_proj
I0906 15:43:48.328779 35856 net.cpp:477] inception_4d/relu_pool_proj -> inception_4d/pool_proj (in-place)
I0906 15:43:48.328804 35856 net.cpp:153] Setting up inception_4d/relu_pool_proj
I0906 15:43:48.328812 35856 net.cpp:160] Top shape: 50 64 14 14 (627200)
I0906 15:43:48.328817 35856 net.cpp:168] Memory required for data: 2390997212
I0906 15:43:48.328822 35856 layer_factory.hpp:77] Creating layer inception_4d/output
I0906 15:43:48.328830 35856 net.cpp:115] Creating Layer inception_4d/output
I0906 15:43:48.328835 35856 net.cpp:516] inception_4d/output <- inception_4d/1x1
I0906 15:43:48.328845 35856 net.cpp:516] inception_4d/output <- inception_4d/3x3
I0906 15:43:48.328850 35856 net.cpp:516] inception_4d/output <- inception_4d/5x5
I0906 15:43:48.328868 35856 net.cpp:516] inception_4d/output <- inception_4d/pool_proj
I0906 15:43:48.328876 35856 net.cpp:490] inception_4d/output -> inception_4d/output
I0906 15:43:48.328908 35856 net.cpp:153] Setting up inception_4d/output
I0906 15:43:48.328918 35856 net.cpp:160] Top shape: 50 528 14 14 (5174400)
I0906 15:43:48.328922 35856 net.cpp:168] Memory required for data: 2411694812
I0906 15:43:48.328928 35856 layer_factory.hpp:77] Creating layer inception_4d/output_inception_4d/output_0_split
I0906 15:43:48.328936 35856 net.cpp:115] Creating Layer inception_4d/output_inception_4d/output_0_split
I0906 15:43:48.328941 35856 net.cpp:516] inception_4d/output_inception_4d/output_0_split <- inception_4d/output
I0906 15:43:48.328948 35856 net.cpp:490] inception_4d/output_inception_4d/output_0_split -> inception_4d/output_inception_4d/output_0_split_0
I0906 15:43:48.328961 35856 net.cpp:490] inception_4d/output_inception_4d/output_0_split -> inception_4d/output_inception_4d/output_0_split_1
I0906 15:43:48.328969 35856 net.cpp:490] inception_4d/output_inception_4d/output_0_split -> inception_4d/output_inception_4d/output_0_split_2
I0906 15:43:48.328977 35856 net.cpp:490] inception_4d/output_inception_4d/output_0_split -> inception_4d/output_inception_4d/output_0_split_3
I0906 15:43:48.328984 35856 net.cpp:490] inception_4d/output_inception_4d/output_0_split -> inception_4d/output_inception_4d/output_0_split_4
I0906 15:43:48.329054 35856 net.cpp:153] Setting up inception_4d/output_inception_4d/output_0_split
I0906 15:43:48.329064 35856 net.cpp:160] Top shape: 50 528 14 14 (5174400)
I0906 15:43:48.329072 35856 net.cpp:160] Top shape: 50 528 14 14 (5174400)
I0906 15:43:48.329078 35856 net.cpp:160] Top shape: 50 528 14 14 (5174400)
I0906 15:43:48.329083 35856 net.cpp:160] Top shape: 50 528 14 14 (5174400)
I0906 15:43:48.329089 35856 net.cpp:160] Top shape: 50 528 14 14 (5174400)
I0906 15:43:48.329093 35856 net.cpp:168] Memory required for data: 2515182812
I0906 15:43:48.329098 35856 layer_factory.hpp:77] Creating layer loss2/ave_pool
I0906 15:43:48.329105 35856 net.cpp:115] Creating Layer loss2/ave_pool
I0906 15:43:48.329111 35856 net.cpp:516] loss2/ave_pool <- inception_4d/output_inception_4d/output_0_split_0
I0906 15:43:48.329119 35856 net.cpp:490] loss2/ave_pool -> loss2/ave_pool
I0906 15:43:48.329146 35856 net.cpp:153] Setting up loss2/ave_pool
I0906 15:43:48.329155 35856 net.cpp:160] Top shape: 50 528 4 4 (422400)
I0906 15:43:48.329160 35856 net.cpp:168] Memory required for data: 2516872412
I0906 15:43:48.329165 35856 layer_factory.hpp:77] Creating layer loss2/conv
I0906 15:43:48.329177 35856 net.cpp:115] Creating Layer loss2/conv
I0906 15:43:48.329183 35856 net.cpp:516] loss2/conv <- loss2/ave_pool
I0906 15:43:48.329195 35856 net.cpp:490] loss2/conv -> loss2/conv
I0906 15:43:48.329818 35856 net.cpp:153] Setting up loss2/conv
I0906 15:43:48.329830 35856 net.cpp:160] Top shape: 50 128 4 4 (102400)
I0906 15:43:48.329834 35856 net.cpp:168] Memory required for data: 2517282012
I0906 15:43:48.329843 35856 layer_factory.hpp:77] Creating layer loss2/relu_conv
I0906 15:43:48.329850 35856 net.cpp:115] Creating Layer loss2/relu_conv
I0906 15:43:48.329855 35856 net.cpp:516] loss2/relu_conv <- loss2/conv
I0906 15:43:48.329862 35856 net.cpp:477] loss2/relu_conv -> loss2/conv (in-place)
I0906 15:43:48.329869 35856 net.cpp:153] Setting up loss2/relu_conv
I0906 15:43:48.329876 35856 net.cpp:160] Top shape: 50 128 4 4 (102400)
I0906 15:43:48.329880 35856 net.cpp:168] Memory required for data: 2517691612
I0906 15:43:48.329885 35856 layer_factory.hpp:77] Creating layer loss2/fc
I0906 15:43:48.329895 35856 net.cpp:115] Creating Layer loss2/fc
I0906 15:43:48.329900 35856 net.cpp:516] loss2/fc <- loss2/conv
I0906 15:43:48.329910 35856 net.cpp:490] loss2/fc -> loss2/fc
I0906 15:43:48.346839 35856 net.cpp:153] Setting up loss2/fc
I0906 15:43:48.346881 35856 net.cpp:160] Top shape: 50 1024 (51200)
I0906 15:43:48.346887 35856 net.cpp:168] Memory required for data: 2517896412
I0906 15:43:48.346899 35856 layer_factory.hpp:77] Creating layer loss2/relu_fc
I0906 15:43:48.346949 35856 net.cpp:115] Creating Layer loss2/relu_fc
I0906 15:43:48.346959 35856 net.cpp:516] loss2/relu_fc <- loss2/fc
I0906 15:43:48.346969 35856 net.cpp:477] loss2/relu_fc -> loss2/fc (in-place)
I0906 15:43:48.346982 35856 net.cpp:153] Setting up loss2/relu_fc
I0906 15:43:48.346988 35856 net.cpp:160] Top shape: 50 1024 (51200)
I0906 15:43:48.346993 35856 net.cpp:168] Memory required for data: 2518101212
I0906 15:43:48.346998 35856 layer_factory.hpp:77] Creating layer loss2/drop_fc
I0906 15:43:48.347010 35856 net.cpp:115] Creating Layer loss2/drop_fc
I0906 15:43:48.347017 35856 net.cpp:516] loss2/drop_fc <- loss2/fc
I0906 15:43:48.347023 35856 net.cpp:477] loss2/drop_fc -> loss2/fc (in-place)
I0906 15:43:48.347055 35856 net.cpp:153] Setting up loss2/drop_fc
I0906 15:43:48.347065 35856 net.cpp:160] Top shape: 50 1024 (51200)
I0906 15:43:48.347070 35856 net.cpp:168] Memory required for data: 2518306012
I0906 15:43:48.347075 35856 layer_factory.hpp:77] Creating layer loss2/classifier
I0906 15:43:48.347087 35856 net.cpp:115] Creating Layer loss2/classifier
I0906 15:43:48.347092 35856 net.cpp:516] loss2/classifier <- loss2/fc
I0906 15:43:48.347103 35856 net.cpp:490] loss2/classifier -> loss2/classifier
I0906 15:43:48.355512 35856 net.cpp:153] Setting up loss2/classifier
I0906 15:43:48.355528 35856 net.cpp:160] Top shape: 50 1000 (50000)
I0906 15:43:48.355535 35856 net.cpp:168] Memory required for data: 2518506012
I0906 15:43:48.355542 35856 layer_factory.hpp:77] Creating layer loss2/classifier_loss2/classifier_0_split
I0906 15:43:48.355556 35856 net.cpp:115] Creating Layer loss2/classifier_loss2/classifier_0_split
I0906 15:43:48.355562 35856 net.cpp:516] loss2/classifier_loss2/classifier_0_split <- loss2/classifier
I0906 15:43:48.355571 35856 net.cpp:490] loss2/classifier_loss2/classifier_0_split -> loss2/classifier_loss2/classifier_0_split_0
I0906 15:43:48.355579 35856 net.cpp:490] loss2/classifier_loss2/classifier_0_split -> loss2/classifier_loss2/classifier_0_split_1
I0906 15:43:48.355587 35856 net.cpp:490] loss2/classifier_loss2/classifier_0_split -> loss2/classifier_loss2/classifier_0_split_2
I0906 15:43:48.355640 35856 net.cpp:153] Setting up loss2/classifier_loss2/classifier_0_split
I0906 15:43:48.355650 35856 net.cpp:160] Top shape: 50 1000 (50000)
I0906 15:43:48.355656 35856 net.cpp:160] Top shape: 50 1000 (50000)
I0906 15:43:48.355661 35856 net.cpp:160] Top shape: 50 1000 (50000)
I0906 15:43:48.355666 35856 net.cpp:168] Memory required for data: 2519106012
I0906 15:43:48.355671 35856 layer_factory.hpp:77] Creating layer loss2/loss
I0906 15:43:48.355682 35856 net.cpp:115] Creating Layer loss2/loss
I0906 15:43:48.355689 35856 net.cpp:516] loss2/loss <- loss2/classifier_loss2/classifier_0_split_0
I0906 15:43:48.355695 35856 net.cpp:516] loss2/loss <- label_data_1_split_3
…
I0906 15:43:48.356025 35856 net.cpp:153] Setting up loss2/top-5
I0906 15:43:48.356032 35856 net.cpp:160] Top shape: (1)
I0906 15:43:48.356037 35856 net.cpp:168] Memory required for data: 2519106024
I0906 15:43:48.356042 35856 layer_factory.hpp:77] Creating layer inception_4e/1x1
I0906 15:43:48.356060 35856 net.cpp:115] Creating Layer inception_4e/1x1
I0906 15:43:48.356066 35856 net.cpp:516] inception_4e/1x1 <- inception_4d/output_inception_4d/output_0_split_1
I0906 15:43:48.356075 35856 net.cpp:490] inception_4e/1x1 -> inception_4e/1x1
I0906 15:43:48.358338 35856 net.cpp:153] Setting up inception_4e/1x1
I0906 15:43:48.358355 35856 net.cpp:160] Top shape: 50 256 14 14 (2508800)
I0906 15:43:48.358359 35856 net.cpp:168] Memory required for data: 2529141224
I0906 15:43:48.358367 35856 layer_factory.hpp:77] Creating layer inception_4e/relu_1x1
I0906 15:43:48.358377 35856 net.cpp:115] Creating Layer inception_4e/relu_1x1
I0906 15:43:48.358382 35856 net.cpp:516] inception_4e/relu_1x1 <- inception_4e/1x1
I0906 15:43:48.358392 35856 net.cpp:477] inception_4e/relu_1x1 -> inception_4e/1x1 (in-place)
I0906 15:43:48.358400 35856 net.cpp:153] Setting up inception_4e/relu_1x1
I0906 15:43:48.358407 35856 net.cpp:160] Top shape: 50 256 14 14 (2508800)
I0906 15:43:48.358412 35856 net.cpp:168] Memory required for data: 2539176424
I0906 15:43:48.358417 35856 layer_factory.hpp:77] Creating layer inception_4e/3x3_reduce
I0906 15:43:48.358446 35856 net.cpp:115] Creating Layer inception_4e/3x3_reduce
I0906 15:43:48.358453 35856 net.cpp:516] inception_4e/3x3_reduce <- inception_4d/output_inception_4d/output_0_split_2
I0906 15:43:48.358463 35856 net.cpp:490] inception_4e/3x3_reduce -> inception_4e/3x3_reduce
I0906 15:43:48.359195 35856 net.cpp:153] Setting up inception_4e/3x3_reduce
I0906 15:43:48.359207 35856 net.cpp:160] Top shape: 50 160 14 14 (1568000)
I0906 15:43:48.359212 35856 net.cpp:168] Memory required for data: 2545448424
I0906 15:43:48.359220 35856 layer_factory.hpp:77] Creating layer inception_4e/relu_3x3_reduce
I0906 15:43:48.359228 35856 net.cpp:115] Creating Layer inception_4e/relu_3x3_reduce
I0906 15:43:48.359233 35856 net.cpp:516] inception_4e/relu_3x3_reduce <- inception_4e/3x3_reduce
I0906 15:43:48.359241 35856 net.cpp:477] inception_4e/relu_3x3_reduce -> inception_4e/3x3_reduce (in-place)
I0906 15:43:48.359261 35856 net.cpp:153] Setting up inception_4e/relu_3x3_reduce
I0906 15:43:48.359267 35856 net.cpp:160] Top shape: 50 160 14 14 (1568000)
I0906 15:43:48.359272 35856 net.cpp:168] Memory required for data: 2551720424
I0906 15:43:48.359277 35856 layer_factory.hpp:77] Creating layer inception_4e/3x3
I0906 15:43:48.359287 35856 net.cpp:115] Creating Layer inception_4e/3x3
I0906 15:43:48.359292 35856 net.cpp:516] inception_4e/3x3 <- inception_4e/3x3_reduce
I0906 15:43:48.359302 35856 net.cpp:490] inception_4e/3x3 -> inception_4e/3x3
I0906 15:43:48.363397 35856 net.cpp:153] Setting up inception_4e/3x3
I0906 15:43:48.363414 35856 net.cpp:160] Top shape: 50 320 14 14 (3136000)
I0906 15:43:48.363420 35856 net.cpp:168] Memory required for data: 2564264424
I0906 15:43:48.363427 35856 layer_factory.hpp:77] Creating layer inception_4e/relu_3x3
I0906 15:43:48.363435 35856 net.cpp:115] Creating Layer inception_4e/relu_3x3
I0906 15:43:48.363441 35856 net.cpp:516] inception_4e/relu_3x3 <- inception_4e/3x3
I0906 15:43:48.363451 35856 net.cpp:477] inception_4e/relu_3x3 -> inception_4e/3x3 (in-place)
I0906 15:43:48.363461 35856 net.cpp:153] Setting up inception_4e/relu_3x3
I0906 15:43:48.363466 35856 net.cpp:160] Top shape: 50 320 14 14 (3136000)
I0906 15:43:48.363471 35856 net.cpp:168] Memory required for data: 2576808424
I0906 15:43:48.363476 35856 layer_factory.hpp:77] Creating layer inception_4e/5x5_reduce
I0906 15:43:48.363487 35856 net.cpp:115] Creating Layer inception_4e/5x5_reduce
I0906 15:43:48.363492 35856 net.cpp:516] inception_4e/5x5_reduce <- inception_4d/output_inception_4d/output_0_split_3
I0906 15:43:48.363520 35856 net.cpp:490] inception_4e/5x5_reduce -> inception_4e/5x5_reduce
I0906 15:43:48.363873 35856 net.cpp:153] Setting up inception_4e/5x5_reduce
I0906 15:43:48.363884 35856 net.cpp:160] Top shape: 50 32 14 14 (313600)
I0906 15:43:48.363889 35856 net.cpp:168] Memory required for data: 2578062824
I0906 15:43:48.363898 35856 layer_factory.hpp:77] Creating layer inception_4e/relu_5x5_reduce
I0906 15:43:48.363905 35856 net.cpp:115] Creating Layer inception_4e/relu_5x5_reduce
I0906 15:43:48.363911 35856 net.cpp:516] inception_4e/relu_5x5_reduce <- inception_4e/5x5_reduce
I0906 15:43:48.363919 35856 net.cpp:477] inception_4e/relu_5x5_reduce -> inception_4e/5x5_reduce (in-place)
I0906 15:43:48.363929 35856 net.cpp:153] Setting up inception_4e/relu_5x5_reduce
I0906 15:43:48.363934 35856 net.cpp:160] Top shape: 50 32 14 14 (313600)
I0906 15:43:48.363940 35856 net.cpp:168] Memory required for data: 2579317224
I0906 15:43:48.363945 35856 layer_factory.hpp:77] Creating layer inception_4e/5x5
I0906 15:43:48.363956 35856 net.cpp:115] Creating Layer inception_4e/5x5
I0906 15:43:48.363962 35856 net.cpp:516] inception_4e/5x5 <- inception_4e/5x5_reduce
I0906 15:43:48.363970 35856 net.cpp:490] inception_4e/5x5 -> inception_4e/5x5
I0906 15:43:48.364802 35856 net.cpp:153] Setting up inception_4e/5x5
I0906 15:43:48.364815 35856 net.cpp:160] Top shape: 50 128 14 14 (1254400)
I0906 15:43:48.364820 35856 net.cpp:168] Memory required for data: 2584334824
I0906 15:43:48.364828 35856 layer_factory.hpp:77] Creating layer inception_4e/relu_5x5
I0906 15:43:48.364835 35856 net.cpp:115] Creating Layer inception_4e/relu_5x5
I0906 15:43:48.364841 35856 net.cpp:516] inception_4e/relu_5x5 <- inception_4e/5x5
I0906 15:43:48.364850 35856 net.cpp:477] inception_4e/relu_5x5 -> inception_4e/5x5 (in-place)
I0906 15:43:48.364858 35856 net.cpp:153] Setting up inception_4e/relu_5x5
I0906 15:43:48.364866 35856 net.cpp:160] Top shape: 50 128 14 14 (1254400)
I0906 15:43:48.364869 35856 net.cpp:168] Memory required for data: 2589352424
I0906 15:43:48.364874 35856 layer_factory.hpp:77] Creating layer inception_4e/pool
I0906 15:43:48.364883 35856 net.cpp:115] Creating Layer inception_4e/pool
I0906 15:43:48.364889 35856 net.cpp:516] inception_4e/pool <- inception_4d/output_inception_4d/output_0_split_4
I0906 15:43:48.364897 35856 net.cpp:490] inception_4e/pool -> inception_4e/pool
I0906 15:43:48.364943 35856 net.cpp:153] Setting up inception_4e/pool
I0906 15:43:48.364953 35856 net.cpp:160] Top shape: 50 528 14 14 (5174400)
I0906 15:43:48.364958 35856 net.cpp:168] Memory required for data: 2610050024
I0906 15:43:48.364962 35856 layer_factory.hpp:77] Creating layer inception_4e/pool_proj
I0906 15:43:48.364974 35856 net.cpp:115] Creating Layer inception_4e/pool_proj
I0906 15:43:48.364980 35856 net.cpp:516] inception_4e/pool_proj <- inception_4e/pool
I0906 15:43:48.364990 35856 net.cpp:490] inception_4e/pool_proj -> inception_4e/pool_proj
I0906 15:43:48.365613 35856 net.cpp:153] Setting up inception_4e/pool_proj
I0906 15:43:48.365625 35856 net.cpp:160] Top shape: 50 128 14 14 (1254400)
I0906 15:43:48.365630 35856 net.cpp:168] Memory required for data: 2615067624
I0906 15:43:48.365638 35856 layer_factory.hpp:77] Creating layer inception_4e/relu_pool_proj
I0906 15:43:48.365646 35856 net.cpp:115] Creating Layer inception_4e/relu_pool_proj
I0906 15:43:48.365653 35856 net.cpp:516] inception_4e/relu_pool_proj <- inception_4e/pool_proj
I0906 15:43:48.365660 35856 net.cpp:477] inception_4e/relu_pool_proj -> inception_4e/pool_proj (in-place)
I0906 15:43:48.365669 35856 net.cpp:153] Setting up inception_4e/relu_pool_proj
I0906 15:43:48.365675 35856 net.cpp:160] Top shape: 50 128 14 14 (1254400)
I0906 15:43:48.365680 35856 net.cpp:168] Memory required for data: 2620085224
I0906 15:43:48.365685 35856 layer_factory.hpp:77] Creating layer inception_4e/output
I0906 15:43:48.365692 35856 net.cpp:115] Creating Layer inception_4e/output
I0906 15:43:48.365698 35856 net.cpp:516] inception_4e/output <- inception_4e/1x1
I0906 15:43:48.365703 35856 net.cpp:516] inception_4e/output <- inception_4e/3x3
I0906 15:43:48.365721 35856 net.cpp:516] inception_4e/output <- inception_4e/5x5
I0906 15:43:48.365728 35856 net.cpp:516] inception_4e/output <- inception_4e/pool_proj
I0906 15:43:48.365736 35856 net.cpp:490] inception_4e/output -> inception_4e/output
I0906 15:43:48.365767 35856 net.cpp:153] Setting up inception_4e/output
I0906 15:43:48.365777 35856 net.cpp:160] Top shape: 50 832 14 14 (8153600)
I0906 15:43:48.365782 35856 net.cpp:168] Memory required for data: 2652699624
I0906 15:43:48.365787 35856 layer_factory.hpp:77] Creating layer pool4/3x3_s2
I0906 15:43:48.365795 35856 net.cpp:115] Creating Layer pool4/3x3_s2
I0906 15:43:48.365800 35856 net.cpp:516] pool4/3x3_s2 <- inception_4e/output
I0906 15:43:48.365811 35856 net.cpp:490] pool4/3x3_s2 -> pool4/3x3_s2
I0906 15:43:48.365851 35856 net.cpp:153] Setting up pool4/3x3_s2
I0906 15:43:48.365862 35856 net.cpp:160] Top shape: 50 832 7 7 (2038400)
I0906 15:43:48.365867 35856 net.cpp:168] Memory required for data: 2660853224
I0906 15:43:48.365872 35856 layer_factory.hpp:77] Creating layer pool4/3x3_s2_pool4/3x3_s2_0_split
I0906 15:43:48.365882 35856 net.cpp:115] Creating Layer pool4/3x3_s2_pool4/3x3_s2_0_split
I0906 15:43:48.365888 35856 net.cpp:516] pool4/3x3_s2_pool4/3x3_s2_0_split <- pool4/3x3_s2
I0906 15:43:48.365896 35856 net.cpp:490] pool4/3x3_s2_pool4/3x3_s2_0_split -> pool4/3x3_s2_pool4/3x3_s2_0_split_0
I0906 15:43:48.365906 35856 net.cpp:490] pool4/3x3_s2_pool4/3x3_s2_0_split -> pool4/3x3_s2_pool4/3x3_s2_0_split_1
I0906 15:43:48.365912 35856 net.cpp:490] pool4/3x3_s2_pool4/3x3_s2_0_split -> pool4/3x3_s2_pool4/3x3_s2_0_split_2
I0906 15:43:48.365934 35856 net.cpp:490] pool4/3x3_s2_pool4/3x3_s2_0_split -> pool4/3x3_s2_pool4/3x3_s2_0_split_3
I0906 15:43:48.365995 35856 net.cpp:153] Setting up pool4/3x3_s2_pool4/3x3_s2_0_split
I0906 15:43:48.366005 35856 net.cpp:160] Top shape: 50 832 7 7 (2038400)
I0906 15:43:48.366011 35856 net.cpp:160] Top shape: 50 832 7 7 (2038400)
I0906 15:43:48.366017 35856 net.cpp:160] Top shape: 50 832 7 7 (2038400)
I0906 15:43:48.366024 35856 net.cpp:160] Top shape: 50 832 7 7 (2038400)
I0906 15:43:48.366027 35856 net.cpp:168] Memory required for data: 2693467624
I0906 15:43:48.366034 35856 layer_factory.hpp:77] Creating layer inception_5a/1x1
I0906 15:43:48.366045 35856 net.cpp:115] Creating Layer inception_5a/1x1
I0906 15:43:48.366051 35856 net.cpp:516] inception_5a/1x1 <- pool4/3x3_s2_pool4/3x3_s2_0_split_0
I0906 15:43:48.366062 35856 net.cpp:490] inception_5a/1x1 -> inception_5a/1x1
I0906 15:43:48.375866 35856 net.cpp:153] Setting up inception_5a/1x1
I0906 15:43:48.375886 35856 net.cpp:160] Top shape: 50 256 7 7 (627200)
I0906 15:43:48.375891 35856 net.cpp:168] Memory required for data: 2695976424
I0906 15:43:48.375900 35856 layer_factory.hpp:77] Creating layer inception_5a/relu_1x1
I0906 15:43:48.375911 35856 net.cpp:115] Creating Layer inception_5a/relu_1x1
I0906 15:43:48.375918 35856 net.cpp:516] inception_5a/relu_1x1 <- inception_5a/1x1
I0906 15:43:48.375926 35856 net.cpp:477] inception_5a/relu_1x1 -> inception_5a/1x1 (in-place)
I0906 15:43:48.375936 35856 net.cpp:153] Setting up inception_5a/relu_1x1
I0906 15:43:48.375941 35856 net.cpp:160] Top shape: 50 256 7 7 (627200)
I0906 15:43:48.375946 35856 net.cpp:168] Memory required for data: 2698485224
I0906 15:43:48.375952 35856 layer_factory.hpp:77] Creating layer inception_5a/3x3_reduce
I0906 15:43:48.375964 35856 net.cpp:115] Creating Layer inception_5a/3x3_reduce
I0906 15:43:48.375972 35856 net.cpp:516] inception_5a/3x3_reduce <- pool4/3x3_s2_pool4/3x3_s2_0_split_1
I0906 15:43:48.375980 35856 net.cpp:490] inception_5a/3x3_reduce -> inception_5a/3x3_reduce
I0906 15:43:48.377008 35856 net.cpp:153] Setting up inception_5a/3x3_reduce
I0906 15:43:48.377022 35856 net.cpp:160] Top shape: 50 160 7 7 (392000)
I0906 15:43:48.377027 35856 net.cpp:168] Memory required for data: 2700053224
I0906 15:43:48.377033 35856 layer_factory.hpp:77] Creating layer inception_5a/relu_3x3_reduce
I0906 15:43:48.377041 35856 net.cpp:115] Creating Layer inception_5a/relu_3x3_reduce
I0906 15:43:48.377063 35856 net.cpp:516] inception_5a/relu_3x3_reduce <- inception_5a/3x3_reduce
I0906 15:43:48.377070 35856 net.cpp:477] inception_5a/relu_3x3_reduce -> inception_5a/3x3_reduce (in-place)
I0906 15:43:48.377079 35856 net.cpp:153] Setting up inception_5a/relu_3x3_reduce
I0906 15:43:48.377085 35856 net.cpp:160] Top shape: 50 160 7 7 (392000)
I0906 15:43:48.377090 35856 net.cpp:168] Memory required for data: 2701621224
I0906 15:43:48.377095 35856 layer_factory.hpp:77] Creating layer inception_5a/3x3
I0906 15:43:48.377107 35856 net.cpp:115] Creating Layer inception_5a/3x3
I0906 15:43:48.377113 35856 net.cpp:516] inception_5a/3x3 <- inception_5a/3x3_reduce
I0906 15:43:48.377123 35856 net.cpp:490] inception_5a/3x3 -> inception_5a/3x3
I0906 15:43:48.381260 35856 net.cpp:153] Setting up inception_5a/3x3
I0906 15:43:48.381276 35856 net.cpp:160] Top shape: 50 320 7 7 (784000)
I0906 15:43:48.381283 35856 net.cpp:168] Memory required for data: 2704757224
I0906 15:43:48.381290 35856 layer_factory.hpp:77] Creating layer inception_5a/relu_3x3
I0906 15:43:48.381299 35856 net.cpp:115] Creating Layer inception_5a/relu_3x3
I0906 15:43:48.381304 35856 net.cpp:516] inception_5a/relu_3x3 <- inception_5a/3x3
I0906 15:43:48.381312 35856 net.cpp:477] inception_5a/relu_3x3 -> inception_5a/3x3 (in-place)
I0906 15:43:48.381321 35856 net.cpp:153] Setting up inception_5a/relu_3x3
I0906 15:43:48.381327 35856 net.cpp:160] Top shape: 50 320 7 7 (784000)
I0906 15:43:48.381332 35856 net.cpp:168] Memory required for data: 2707893224
I0906 15:43:48.381337 35856 layer_factory.hpp:77] Creating layer inception_5a/5x5_reduce
I0906 15:43:48.381353 35856 net.cpp:115] Creating Layer inception_5a/5x5_reduce
I0906 15:43:48.381361 35856 net.cpp:516] inception_5a/5x5_reduce <- pool4/3x3_s2_pool4/3x3_s2_0_split_2
I0906 15:43:48.381371 35856 net.cpp:490] inception_5a/5x5_reduce -> inception_5a/5x5_reduce
I0906 15:43:48.381777 35856 net.cpp:153] Setting up inception_5a/5x5_reduce
I0906 15:43:48.381788 35856 net.cpp:160] Top shape: 50 32 7 7 (78400)
I0906 15:43:48.381793 35856 net.cpp:168] Memory required for data: 2708206824
I0906 15:43:48.381801 35856 layer_factory.hpp:77] Creating layer inception_5a/relu_5x5_reduce
I0906 15:43:48.381814 35856 net.cpp:115] Creating Layer inception_5a/relu_5x5_reduce
I0906 15:43:48.381821 35856 net.cpp:516] inception_5a/relu_5x5_reduce <- inception_5a/5x5_reduce
I0906 15:43:48.381827 35856 net.cpp:477] inception_5a/relu_5x5_reduce -> inception_5a/5x5_reduce (in-place)
I0906 15:43:48.381835 35856 net.cpp:153] Setting up inception_5a/relu_5x5_reduce
I0906 15:43:48.381842 35856 net.cpp:160] Top shape: 50 32 7 7 (78400)
I0906 15:43:48.381846 35856 net.cpp:168] Memory required for data: 2708520424
I0906 15:43:48.381851 35856 layer_factory.hpp:77] Creating layer inception_5a/5x5
I0906 15:43:48.381863 35856 net.cpp:115] Creating Layer inception_5a/5x5
I0906 15:43:48.381870 35856 net.cpp:516] inception_5a/5x5 <- inception_5a/5x5_reduce
I0906 15:43:48.381878 35856 net.cpp:490] inception_5a/5x5 -> inception_5a/5x5
I0906 15:43:48.382722 35856 net.cpp:153] Setting up inception_5a/5x5
I0906 15:43:48.382735 35856 net.cpp:160] Top shape: 50 128 7 7 (313600)
I0906 15:43:48.382740 35856 net.cpp:168] Memory required for data: 2709774824
I0906 15:43:48.382747 35856 layer_factory.hpp:77] Creating layer inception_5a/relu_5x5
I0906 15:43:48.382755 35856 net.cpp:115] Creating Layer inception_5a/relu_5x5
I0906 15:43:48.382761 35856 net.cpp:516] inception_5a/relu_5x5 <- inception_5a/5x5
I0906 15:43:48.382767 35856 net.cpp:477] inception_5a/relu_5x5 -> inception_5a/5x5 (in-place)
I0906 15:43:48.382774 35856 net.cpp:153] Setting up inception_5a/relu_5x5
I0906 15:43:48.382781 35856 net.cpp:160] Top shape: 50 128 7 7 (313600)
I0906 15:43:48.382786 35856 net.cpp:168] Memory required for data: 2711029224
I0906 15:43:48.382791 35856 layer_factory.hpp:77] Creating layer inception_5a/pool
I0906 15:43:48.382799 35856 net.cpp:115] Creating Layer inception_5a/pool
I0906 15:43:48.382804 35856 net.cpp:516] inception_5a/pool <- pool4/3x3_s2_pool4/3x3_s2_0_split_3
I0906 15:43:48.382832 35856 net.cpp:490] inception_5a/pool -> inception_5a/pool
I0906 15:43:48.382879 35856 net.cpp:153] Setting up inception_5a/pool
I0906 15:43:48.382889 35856 net.cpp:160] Top shape: 50 832 7 7 (2038400)
I0906 15:43:48.382894 35856 net.cpp:168] Memory required for data: 2719182824
I0906 15:43:48.382899 35856 layer_factory.hpp:77] Creating layer inception_5a/pool_proj
I0906 15:43:48.382913 35856 net.cpp:115] Creating Layer inception_5a/pool_proj
I0906 15:43:48.382920 35856 net.cpp:516] inception_5a/pool_proj <- inception_5a/pool
I0906 15:43:48.382927 35856 net.cpp:490] inception_5a/pool_proj -> inception_5a/pool_proj
I0906 15:43:48.383821 35856 net.cpp:153] Setting up inception_5a/pool_proj
I0906 15:43:48.383833 35856 net.cpp:160] Top shape: 50 128 7 7 (313600)
I0906 15:43:48.383839 35856 net.cpp:168] Memory required for data: 2720437224
I0906 15:43:48.383847 35856 layer_factory.hpp:77] Creating layer inception_5a/relu_pool_proj
I0906 15:43:48.383857 35856 net.cpp:115] Creating Layer inception_5a/relu_pool_proj
I0906 15:43:48.383862 35856 net.cpp:516] inception_5a/relu_pool_proj <- inception_5a/pool_proj
I0906 15:43:48.383869 35856 net.cpp:477] inception_5a/relu_pool_proj -> inception_5a/pool_proj (in-place)
I0906 15:43:48.383877 35856 net.cpp:153] Setting up inception_5a/relu_pool_proj
I0906 15:43:48.383884 35856 net.cpp:160] Top shape: 50 128 7 7 (313600)
I0906 15:43:48.383888 35856 net.cpp:168] Memory required for data: 2721691624
I0906 15:43:48.383893 35856 layer_factory.hpp:77] Creating layer inception_5a/output
I0906 15:43:48.383903 35856 net.cpp:115] Creating Layer inception_5a/output
I0906 15:43:48.383908 35856 net.cpp:516] inception_5a/output <- inception_5a/1x1
I0906 15:43:48.383914 35856 net.cpp:516] inception_5a/output <- inception_5a/3x3
I0906 15:43:48.383920 35856 net.cpp:516] inception_5a/output <- inception_5a/5x5
I0906 15:43:48.383925 35856 net.cpp:516] inception_5a/output <- inception_5a/pool_proj
I0906 15:43:48.383932 35856 net.cpp:490] inception_5a/output -> inception_5a/output
I0906 15:43:48.383960 35856 net.cpp:153] Setting up inception_5a/output
I0906 15:43:48.383970 35856 net.cpp:160] Top shape: 50 832 7 7 (2038400)
I0906 15:43:48.383973 35856 net.cpp:168] Memory required for data: 2729845224
I0906 15:43:48.383978 35856 layer_factory.hpp:77] Creating layer inception_5a/output_inception_5a/output_0_split
I0906 15:43:48.383990 35856 net.cpp:115] Creating Layer inception_5a/output_inception_5a/output_0_split
I0906 15:43:48.383996 35856 net.cpp:516] inception_5a/output_inception_5a/output_0_split <- inception_5a/output
I0906 15:43:48.384004 35856 net.cpp:490] inception_5a/output_inception_5a/output_0_split -> inception_5a/output_inception_5a/output_0_split_0
I0906 15:43:48.384012 35856 net.cpp:490] inception_5a/output_inception_5a/output_0_split -> inception_5a/output_inception_5a/output_0_split_1
I0906 15:43:48.384021 35856 net.cpp:490] inception_5a/output_inception_5a/output_0_split -> inception_5a/output_inception_5a/output_0_split_2
I0906 15:43:48.384028 35856 net.cpp:490] inception_5a/output_inception_5a/output_0_split -> inception_5a/output_inception_5a/output_0_split_3
I0906 15:43:48.384089 35856 net.cpp:153] Setting up inception_5a/output_inception_5a/output_0_split
I0906 15:43:48.384099 35856 net.cpp:160] Top shape: 50 832 7 7 (2038400)
I0906 15:43:48.384104 35856 net.cpp:160] Top shape: 50 832 7 7 (2038400)
I0906 15:43:48.384110 35856 net.cpp:160] Top shape: 50 832 7 7 (2038400)
I0906 15:43:48.384116 35856 net.cpp:160] Top shape: 50 832 7 7 (2038400)
I0906 15:43:48.384120 35856 net.cpp:168] Memory required for data: 2762459624
I0906 15:43:48.384125 35856 layer_factory.hpp:77] Creating layer inception_5b/1x1
I0906 15:43:48.384137 35856 net.cpp:115] Creating Layer inception_5b/1x1
I0906 15:43:48.384143 35856 net.cpp:516] inception_5b/1x1 <- inception_5a/output_inception_5a/output_0_split_0
I0906 15:43:48.384153 35856 net.cpp:490] inception_5b/1x1 -> inception_5b/1x1
I0906 15:43:48.387424 35856 net.cpp:153] Setting up inception_5b/1x1
I0906 15:43:48.387454 35856 net.cpp:160] Top shape: 50 384 7 7 (940800)
I0906 15:43:48.387459 35856 net.cpp:168] Memory required for data: 2766222824
I0906 15:43:48.387467 35856 layer_factory.hpp:77] Creating layer inception_5b/relu_1x1
I0906 15:43:48.387475 35856 net.cpp:115] Creating Layer inception_5b/relu_1x1
I0906 15:43:48.387481 35856 net.cpp:516] inception_5b/relu_1x1 <- inception_5b/1x1
I0906 15:43:48.387491 35856 net.cpp:477] inception_5b/relu_1x1 -> inception_5b/1x1 (in-place)
I0906 15:43:48.387501 35856 net.cpp:153] Setting up inception_5b/relu_1x1
I0906 15:43:48.387506 35856 net.cpp:160] Top shape: 50 384 7 7 (940800)
I0906 15:43:48.387511 35856 net.cpp:168] Memory required for data: 2769986024
I0906 15:43:48.387516 35856 layer_factory.hpp:77] Creating layer inception_5b/3x3_reduce
I0906 15:43:48.387526 35856 net.cpp:115] Creating Layer inception_5b/3x3_reduce
I0906 15:43:48.387532 35856 net.cpp:516] inception_5b/3x3_reduce <- inception_5a/output_inception_5a/output_0_split_1
I0906 15:43:48.387542 35856 net.cpp:490] inception_5b/3x3_reduce -> inception_5b/3x3_reduce
I0906 15:43:48.388782 35856 net.cpp:153] Setting up inception_5b/3x3_reduce
I0906 15:43:48.388803 35856 net.cpp:160] Top shape: 50 192 7 7 (470400)
I0906 15:43:48.388808 35856 net.cpp:168] Memory required for data: 2771867624
I0906 15:43:48.388815 35856 layer_factory.hpp:77] Creating layer inception_5b/relu_3x3_reduce
I0906 15:43:48.388823 35856 net.cpp:115] Creating Layer inception_5b/relu_3x3_reduce
I0906 15:43:48.388829 35856 net.cpp:516] inception_5b/relu_3x3_reduce <- inception_5b/3x3_reduce
I0906 15:43:48.388836 35856 net.cpp:477] inception_5b/relu_3x3_reduce -> inception_5b/3x3_reduce (in-place)
I0906 15:43:48.388844 35856 net.cpp:153] Setting up inception_5b/relu_3x3_reduce
I0906 15:43:48.388850 35856 net.cpp:160] Top shape: 50 192 7 7 (470400)
I0906 15:43:48.388855 35856 net.cpp:168] Memory required for data: 2773749224
I0906 15:43:48.388860 35856 layer_factory.hpp:77] Creating layer inception_5b/3x3
I0906 15:43:48.388875 35856 net.cpp:115] Creating Layer inception_5b/3x3
I0906 15:43:48.388880 35856 net.cpp:516] inception_5b/3x3 <- inception_5b/3x3_reduce
I0906 15:43:48.388888 35856 net.cpp:490] inception_5b/3x3 -> inception_5b/3x3
I0906 15:43:48.394523 35856 net.cpp:153] Setting up inception_5b/3x3
I0906 15:43:48.394538 35856 net.cpp:160] Top shape: 50 384 7 7 (940800)
I0906 15:43:48.394544 35856 net.cpp:168] Memory required for data: 2777512424
I0906 15:43:48.394552 35856 layer_factory.hpp:77] Creating layer inception_5b/relu_3x3
I0906 15:43:48.394560 35856 net.cpp:115] Creating Layer inception_5b/relu_3x3
I0906 15:43:48.394567 35856 net.cpp:516] inception_5b/relu_3x3 <- inception_5b/3x3
I0906 15:43:48.394573 35856 net.cpp:477] inception_5b/relu_3x3 -> inception_5b/3x3 (in-place)
I0906 15:43:48.394582 35856 net.cpp:153] Setting up inception_5b/relu_3x3
I0906 15:43:48.394588 35856 net.cpp:160] Top shape: 50 384 7 7 (940800)
I0906 15:43:48.394593 35856 net.cpp:168] Memory required for data: 2781275624
I0906 15:43:48.394598 35856 layer_factory.hpp:77] Creating layer inception_5b/5x5_reduce
I0906 15:43:48.394611 35856 net.cpp:115] Creating Layer inception_5b/5x5_reduce
I0906 15:43:48.394618 35856 net.cpp:516] inception_5b/5x5_reduce <- inception_5a/output_inception_5a/output_0_split_2
I0906 15:43:48.394628 35856 net.cpp:490] inception_5b/5x5_reduce -> inception_5b/5x5_reduce
I0906 15:43:48.395123 35856 net.cpp:153] Setting up inception_5b/5x5_reduce
I0906 15:43:48.395135 35856 net.cpp:160] Top shape: 50 48 7 7 (117600)
I0906 15:43:48.395140 35856 net.cpp:168] Memory required for data: 2781746024
I0906 15:43:48.395148 35856 layer_factory.hpp:77] Creating layer inception_5b/relu_5x5_reduce
I0906 15:43:48.395159 35856 net.cpp:115] Creating Layer inception_5b/relu_5x5_reduce
I0906 15:43:48.395164 35856 net.cpp:516] inception_5b/relu_5x5_reduce <- inception_5b/5x5_reduce
I0906 15:43:48.395171 35856 net.cpp:477] inception_5b/relu_5x5_reduce -> inception_5b/5x5_reduce (in-place)
I0906 15:43:48.395179 35856 net.cpp:153] Setting up inception_5b/relu_5x5_reduce
I0906 15:43:48.395200 35856 net.cpp:160] Top shape: 50 48 7 7 (117600)
I0906 15:43:48.395205 35856 net.cpp:168] Memory required for data: 2782216424
I0906 15:43:48.395210 35856 layer_factory.hpp:77] Creating layer inception_5b/5x5
I0906 15:43:48.395222 35856 net.cpp:115] Creating Layer inception_5b/5x5
I0906 15:43:48.395228 35856 net.cpp:516] inception_5b/5x5 <- inception_5b/5x5_reduce
I0906 15:43:48.395241 35856 net.cpp:490] inception_5b/5x5 -> inception_5b/5x5
I0906 15:43:48.397498 35856 net.cpp:153] Setting up inception_5b/5x5
I0906 15:43:48.397516 35856 net.cpp:160] Top shape: 50 128 7 7 (313600)
I0906 15:43:48.397526 35856 net.cpp:168] Memory required for data: 2783470824
I0906 15:43:48.397534 35856 layer_factory.hpp:77] Creating layer inception_5b/relu_5x5
I0906 15:43:48.397545 35856 net.cpp:115] Creating Layer inception_5b/relu_5x5
I0906 15:43:48.397552 35856 net.cpp:516] inception_5b/relu_5x5 <- inception_5b/5x5
I0906 15:43:48.397558 35856 net.cpp:477] inception_5b/relu_5x5 -> inception_5b/5x5 (in-place)
I0906 15:43:48.397567 35856 net.cpp:153] Setting up inception_5b/relu_5x5
I0906 15:43:48.397573 35856 net.cpp:160] Top shape: 50 128 7 7 (313600)
I0906 15:43:48.397578 35856 net.cpp:168] Memory required for data: 2784725224
I0906 15:43:48.397583 35856 layer_factory.hpp:77] Creating layer inception_5b/pool
I0906 15:43:48.397593 35856 net.cpp:115] Creating Layer inception_5b/pool
I0906 15:43:48.397598 35856 net.cpp:516] inception_5b/pool <- inception_5a/output_inception_5a/output_0_split_3
I0906 15:43:48.397605 35856 net.cpp:490] inception_5b/pool -> inception_5b/pool
I0906 15:43:48.397652 35856 net.cpp:153] Setting up inception_5b/pool
I0906 15:43:48.397662 35856 net.cpp:160] Top shape: 50 832 7 7 (2038400)
I0906 15:43:48.397667 35856 net.cpp:168] Memory required for data: 2792878824
I0906 15:43:48.397672 35856 layer_factory.hpp:77] Creating layer inception_5b/pool_proj
I0906 15:43:48.397686 35856 net.cpp:115] Creating Layer inception_5b/pool_proj
I0906 15:43:48.397693 35856 net.cpp:516] inception_5b/pool_proj <- inception_5b/pool
I0906 15:43:48.397701 35856 net.cpp:490] inception_5b/pool_proj -> inception_5b/pool_proj
I0906 15:43:48.398550 35856 net.cpp:153] Setting up inception_5b/pool_proj
I0906 15:43:48.398561 35856 net.cpp:160] Top shape: 50 128 7 7 (313600)
I0906 15:43:48.398566 35856 net.cpp:168] Memory required for data: 2794133224
I0906 15:43:48.398574 35856 layer_factory.hpp:77] Creating layer inception_5b/relu_pool_proj
I0906 15:43:48.398581 35856 net.cpp:115] Creating Layer inception_5b/relu_pool_proj
I0906 15:43:48.398587 35856 net.cpp:516] inception_5b/relu_pool_proj <- inception_5b/pool_proj
I0906 15:43:48.398594 35856 net.cpp:477] inception_5b/relu_pool_proj -> inception_5b/pool_proj (in-place)
I0906 15:43:48.398607 35856 net.cpp:153] Setting up inception_5b/relu_pool_proj
I0906 15:43:48.398614 35856 net.cpp:160] Top shape: 50 128 7 7 (313600)
I0906 15:43:48.398619 35856 net.cpp:168] Memory required for data: 2795387624
I0906 15:43:48.398623 35856 layer_factory.hpp:77] Creating layer inception_5b/output
I0906 15:43:48.398633 35856 net.cpp:115] Creating Layer inception_5b/output
I0906 15:43:48.398639 35856 net.cpp:516] inception_5b/output <- inception_5b/1x1
I0906 15:43:48.398645 35856 net.cpp:516] inception_5b/output <- inception_5b/3x3
I0906 15:43:48.398651 35856 net.cpp:516] inception_5b/output <- inception_5b/5x5
I0906 15:43:48.398658 35856 net.cpp:516] inception_5b/output <- inception_5b/pool_proj
I0906 15:43:48.398663 35856 net.cpp:490] inception_5b/output -> inception_5b/output
I0906 15:43:48.398695 35856 net.cpp:153] Setting up inception_5b/output
I0906 15:43:48.398705 35856 net.cpp:160] Top shape: 50 1024 7 7 (2508800)
I0906 15:43:48.398710 35856 net.cpp:168] Memory required for data: 2805422824
I0906 15:43:48.398715 35856 layer_factory.hpp:77] Creating layer pool5/7x7_s1
I0906 15:43:48.398722 35856 net.cpp:115] Creating Layer pool5/7x7_s1
I0906 15:43:48.398727 35856 net.cpp:516] pool5/7x7_s1 <- inception_5b/output
I0906 15:43:48.398737 35856 net.cpp:490] pool5/7x7_s1 -> pool5/7x7_s1
I0906 15:43:48.398782 35856 net.cpp:153] Setting up pool5/7x7_s1
I0906 15:43:48.398793 35856 net.cpp:160] Top shape: 50 1024 1 1 (51200)
I0906 15:43:48.398797 35856 net.cpp:168] Memory required for data: 2805627624
I0906 15:43:48.398803 35856 layer_factory.hpp:77] Creating layer pool5/drop_7x7_s1
I0906 15:43:48.398813 35856 net.cpp:115] Creating Layer pool5/drop_7x7_s1
I0906 15:43:48.398818 35856 net.cpp:516] pool5/drop_7x7_s1 <- pool5/7x7_s1
I0906 15:43:48.398824 35856 net.cpp:477] pool5/drop_7x7_s1 -> pool5/7x7_s1 (in-place)
I0906 15:43:48.398854 35856 net.cpp:153] Setting up pool5/drop_7x7_s1
I0906 15:43:48.398862 35856 net.cpp:160] Top shape: 50 1024 1 1 (51200)
I0906 15:43:48.398867 35856 net.cpp:168] Memory required for data: 2805832424
I0906 15:43:48.398872 35856 layer_factory.hpp:77] Creating layer loss3/classifier
I0906 15:43:48.398885 35856 net.cpp:115] Creating Layer loss3/classifier
I0906 15:43:48.398891 35856 net.cpp:516] loss3/classifier <- pool5/7x7_s1
I0906 15:43:48.398900 35856 net.cpp:490] loss3/classifier -> loss3/classifier
I0906 15:43:48.414299 35856 net.cpp:153] Setting up loss3/classifier
I0906 15:43:48.414505 35856 net.cpp:160] Top shape: 50 1000 (50000)
I0906 15:43:48.414553 35856 net.cpp:168] Memory required for data: 2806032424
I0906 15:43:48.414623 35856 layer_factory.hpp:77] Creating layer loss3/classifier_loss3/classifier_0_split
I0906 15:43:48.414705 35856 net.cpp:115] Creating Layer loss3/classifier_loss3/classifier_0_split
I0906 15:43:48.414754 35856 net.cpp:516] loss3/classifier_loss3/classifier_0_split <- loss3/classifier
I0906 15:43:48.414816 35856 net.cpp:490] loss3/classifier_loss3/classifier_0_split -> loss3/classifier_loss3/classifier_0_split_0
I0906 15:43:48.414901 35856 net.cpp:490] loss3/classifier_loss3/classifier_0_split -> loss3/classifier_loss3/classifier_0_split_1
I0906 15:43:48.414973 35856 net.cpp:490] loss3/classifier_loss3/classifier_0_split -> loss3/classifier_loss3/classifier_0_split_2
I0906 15:43:48.415325 35856 net.cpp:153] Setting up loss3/classifier_loss3/classifier_0_split
I0906 15:43:48.415418 35856 net.cpp:160] Top shape: 50 1000 (50000)
I0906 15:43:48.415452 35856 net.cpp:160] Top shape: 50 1000 (50000)
I0906 15:43:48.415474 35856 net.cpp:160] Top shape: 50 1000 (50000)
I0906 15:43:48.415503 35856 net.cpp:168] Memory required for data: 2806632424
I0906 15:43:48.415534 35856 layer_factory.hpp:77] Creating layer loss3/loss3
I0906 15:43:48.415613 35856 net.cpp:115] Creating Layer loss3/loss3
I0906 15:43:48.415673 35856 net.cpp:516] loss3/loss3 <- loss3/classifier_loss3/classifier_0_split_0
I0906 15:43:48.415716 35856 net.cpp:516] loss3/loss3 <- label_data_1_split_6
…
