…
I0906 16:47:26.806596 19724 net.cpp:347] The NetState phase (1) differed from the phase (0) specified by a rule in layer data
I0906 16:47:26.810041 19724 net.cpp:82] Initializing net from parameters: 
name: "GoogleNet"
state {
  phase: TEST
  level: 0
  stage: ""
}
layer {
  name: "data"
  type: "Data"
  top: "data"
  top: "label"
  include {
    phase: TEST
  }
  transform_param {
    mirror: false
    crop_size: 224
    mean_value: 104
    mean_value: 117
    mean_value: 123
  }
  data_param {
    source: "/mllib/imagenet/ilsvrc12/lmdb_resize/ilsvrc12_val_lmdb"
    batch_size: 50
    backend: LMDB
  }
}
layer {
  name: "conv1/7x7_s2"
  type: "Convolution"
  bottom: "data"
  top: "conv1/7x7_s2"
  param {
    lr_mult: 1
    decay_mult: 1
  }
  param {
    lr_mult: 2
    decay_mult: 0
  }
  convolution_param {
    num_output: 64
    pad: 3
    kernel_size: 7
    stride: 2
    weight_filler {
      type: "xavier"
    }
    bias_filler {
      type: "constant"
      value: 0.2
    }
  }
}
layer {
  name: "conv1/relu_7x7"
  type: "ReLU"
  bottom: "conv1/7x7_s2"
  top: "conv1/7x7_s2"
}
layer {
  name: "pool1/3x3_s2"
  type: "Pooling"
  bottom: "conv1/7x7_s2"
  top: "pool1/3x3_s2"
  pooling_param {
    pool: MAX
    kernel_size: 3
    stride: 2
  }
}
layer {
  name: "pool1/norm1"
  type: "LRNRistretto"
  bottom: "pool1/3x3_s2"
  top: "pool1/norm1"
  lrn_param {
    local_size: 5
    alpha: 0.0001
    beta: 0.75
  }
  quantization_param {
    bw_layer_in: 8
    bw_layer_out: 8
    fl_layer_in: -6
    fl_layer_out: -1
  }
}
layer {
  name: "conv2/3x3_reduce"
  type: "Convolution"
  bottom: "pool1/norm1"
  top: "conv2/3x3_reduce"
  param {
    lr_mult: 1
    decay_mult: 1
  }
  param {
    lr_mult: 2
    decay_mult: 0
  }
  convolution_param {
    num_output: 64
    kernel_size: 1
    weight_filler {
      type: "xavier"
    }
    bias_filler {
      type: "constant"
      value: 0.2
    }
  }
}
layer {
  name: "conv2/relu_3x3_reduce"
  type: "ReLU"
  bottom: "conv2/3x3_reduce"
  top: "conv2/3x3_reduce"
}
layer {
  name: "conv2/3x3"
  type: "Convolution"
  bottom: "conv2/3x3_reduce"
  top: "conv2/3x3"
  param {
    lr_mult: 1
    decay_mult: 1
  }
  param {
    lr_mult: 2
    decay_mult: 0
  }
  convolution_param {
    num_output: 192
    pad: 1
    kernel_size: 3
    weight_filler {
      type: "xavier"
    }
    bias_filler {
      type: "constant"
      value: 0.2
    }
  }
}
layer {
  name: "conv2/relu_3x3"
  type: "ReLU"
  bottom: "conv2/3x3"
  top: "conv2/3x3"
}
layer {
  name: "conv2/norm2"
  type: "LRNRistretto"
  bottom: "conv2/3x3"
  top: "conv2/norm2"
  lrn_param {
    local_size: 5
    alpha: 0.0001
    beta: 0.75
  }
  quantization_param {
    bw_layer_in: 8
    bw_layer_out: 8
    fl_layer_in: -3
    fl_layer_out: -1
  }
}
layer {
  name: "pool2/3x3_s2"
  type: "Pooling"
  bottom: "conv2/norm2"
  top: "pool2/3x3_s2"
  pooling_param {
    pool: MAX
    kernel_size: 3
    stride: 2
  }
}
layer {
  name: "inception_3a/1x1"
  type: "Convolution"
  bottom: "pool2/3x3_s2"
  top: "inception_3a/1x1"
  param {
    lr_mult: 1
    decay_mult: 1
  }
  param {
    lr_mult: 2
    decay_mult: 0
  }
  convolution_param {
    num_output: 64
    kernel_size: 1
    weight_filler {
      type: "xavier"
    }
    bias_filler {
      type: "constant"
      value: 0.2
    }
  }
}
layer {
  name: "inception_3a/relu_1x1"
  type: "ReLU"
  bottom: "inception_3a/1x1"
  top: "inception_3a/1x1"
}
layer {
  name: "inception_3a/3x3_reduce"
  type: "Convolution"
  bottom: "pool2/3x3_s2"
  top: "inception_3a/3x3_reduce"
  param {
    lr_mult: 1
    decay_mult: 1
  }
  param {
    lr_mult: 2
    decay_mult: 0
  }
  convolution_param {
    num_output: 96
    kernel_size: 1
    weight_filler {
      type: "xavier"
    }
    bias_filler {
      type: "constant"
      value: 0.2
    }
  }
}
layer {
  name: "inception_3a/relu_3x3_reduce"
  type: "ReLU"
  bottom: "inception_3a/3x3_reduce"
  top: "inception_3a/3x3_reduce"
}
layer {
  name: "inception_3a/3x3"
  type: "Convolution"
  bottom: "inception_3a/3x3_reduce"
  top: "inception_3a/3x3"
  param {
    lr_mult: 1
    decay_mult: 1
  }
  param {
    lr_mult: 2
    decay_mult: 0
  }
  convolution_param {
    num_output: 128
    pad: 1
    kernel_size: 3
    weight_filler {
      type: "xavier"
    }
    bias_filler {
      type: "constant"
      value: 0.2
    }
  }
}
layer {
  name: "inception_3a/relu_3x3"
  type: "ReLU"
  bottom: "inception_3a/3x3"
  top: "inception_3a/3x3"
}
layer {
  name: "inception_3a/5x5_reduce"
  type: "Convolution"
  bottom: "pool2/3x3_s2"
  top: "inception_3a/5x5_reduce"
  param {
    lr_mult: 1
    decay_mult: 1
  }
  param {
    lr_mult: 2
    decay_mult: 0
  }
  convolution_param {
    num_output: 16
    kernel_size: 1
    weight_filler {
      type: "xavier"
    }
    bias_filler {
      type: "constant"
      value: 0.2
    }
  }
}
layer {
  name: "inception_3a/relu_5x5_reduce"
  type: "ReLU"
  bottom: "inception_3a/5x5_reduce"
  top: "inception_3a/5x5_reduce"
}
layer {
  name: "inception_3a/5x5"
  type: "Convolution"
  bottom: "inception_3a/5x5_reduce"
  top: "inception_3a/5x5"
  param {
    lr_mult: 1
    decay_mult: 1
  }
  param {
    lr_mult: 2
    decay_mult: 0
  }
  convolution_param {
    num_output: 32
    pad: 2
    kernel_size: 5
    weight_filler {
      type: "xavier"
    }
    bias_filler {
      type: "constant"
      value: 0.2
    }
  }
}
layer {
  name: "inception_3a/relu_5x5"
  type: "ReLU"
  bottom: "inception_3a/5x5"
  top: "inception_3a/5x5"
}
layer {
  name: "inception_3a/pool"
  type: "Pooling"
  bottom: "pool2/3x3_s2"
  top: "inception_3a/pool"
  pooling_param {
    pool: MAX
    kernel_size: 3
    stride: 1
    pad: 1
  }
}
layer {
  name: "inception_3a/pool_proj"
  type: "Convolution"
  bottom: "inception_3a/pool"
  top: "inception_3a/pool_proj"
  param {
    lr_mult: 1
    decay_mult: 1
  }
  param {
    lr_mult: 2
    decay_mult: 0
  }
  convolution_param {
    num_output: 32
    kernel_size: 1
    weight_filler {
      type: "xavier"
    }
    bias_filler {
      type: "constant"
      value: 0.2
    }
  }
}
layer {
  name: "inception_3a/relu_pool_proj"
  type: "ReLU"
  bottom: "inception_3a/pool_proj"
  top: "inception_3a/pool_proj"
}
layer {
  name: "inception_3a/output"
  type: "Concat"
  bottom: "inception_3a/1x1"
  bottom: "inception_3a/3x3"
  bottom: "inception_3a/5x5"
  bottom: "inception_3a/pool_proj"
  top: "inception_3a/output"
}
layer {
  name: "inception_3b/1x1"
  type: "Convolution"
  bottom: "inception_3a/output"
  top: "inception_3b/1x1"
  param {
    lr_mult: 1
    decay_mult: 1
  }
  param {
    lr_mult: 2
    decay_mult: 0
  }
  convolution_param {
    num_output: 128
    kernel_size: 1
    weight_filler {
      type: "xavier"
    }
    bias_filler {
      type: "constant"
      value: 0.2
    }
  }
}
layer {
  name: "inception_3b/relu_1x1"
  type: "ReLU"
  bottom: "inception_3b/1x1"
  top: "inception_3b/1x1"
}
layer {
  name: "inception_3b/3x3_reduce"
  type: "Convolution"
  bottom: "inception_3a/output"
  top: "inception_3b/3x3_reduce"
  param {
    lr_mult: 1
    decay_mult: 1
  }
  param {
    lr_mult: 2
    decay_mult: 0
  }
  convolution_param {
    num_output: 128
    kernel_size: 1
    weight_filler {
      type: "xavier"
    }
    bias_filler {
      type: "constant"
      value: 0.2
    }
  }
}
layer {
  name: "inception_3b/relu_3x3_reduce"
  type: "ReLU"
  bottom: "inception_3b/3x3_reduce"
  top: "inception_3b/3x3_reduce"
}
layer {
  name: "inception_3b/3x3"
  type: "Convolution"
  bottom: "inception_3b/3x3_reduce"
  top: "inception_3b/3x3"
  param {
    lr_mult: 1
    decay_mult: 1
  }
  param {
    lr_mult: 2
    decay_mult: 0
  }
  convolution_param {
    num_output: 192
    pad: 1
    kernel_size: 3
    weight_filler {
      type: "xavier"
    }
    bias_filler {
      type: "constant"
      value: 0.2
    }
  }
}
layer {
  name: "inception_3b/relu_3x3"
  type: "ReLU"
  bottom: "inception_3b/3x3"
  top: "inception_3b/3x3"
}
layer {
  name: "inception_3b/5x5_reduce"
  type: "Convolution"
  bottom: "inception_3a/output"
  top: "inception_3b/5x5_reduce"
  param {
    lr_mult: 1
    decay_mult: 1
  }
  param {
    lr_mult: 2
    decay_mult: 0
  }
  convolution_param {
    num_output: 32
    kernel_size: 1
    weight_filler {
      type: "xavier"
    }
    bias_filler {
      type: "constant"
      value: 0.2
    }
  }
}
layer {
  name: "inception_3b/relu_5x5_reduce"
  type: "ReLU"
  bottom: "inception_3b/5x5_reduce"
  top: "inception_3b/5x5_reduce"
}
layer {
  name: "inception_3b/5x5"
  type: "Convolution"
  bottom: "inception_3b/5x5_reduce"
  top: "inception_3b/5x5"
  param {
    lr_mult: 1
    decay_mult: 1
  }
  param {
    lr_mult: 2
    decay_mult: 0
  }
  convolution_param {
    num_output: 96
    pad: 2
    kernel_size: 5
    weight_filler {
      type: "xavier"
    }
    bias_filler {
      type: "constant"
      value: 0.2
    }
  }
}
layer {
  name: "inception_3b/relu_5x5"
  type: "ReLU"
  bottom: "inception_3b/5x5"
  top: "inception_3b/5x5"
}
layer {
  name: "inception_3b/pool"
  type: "Pooling"
  bottom: "inception_3a/output"
  top: "inception_3b/pool"
  pooling_param {
    pool: MAX
    kernel_size: 3
    stride: 1
    pad: 1
  }
}
layer {
  name: "inception_3b/pool_proj"
  type: "Convolution"
  bottom: "inception_3b/pool"
  top: "inception_3b/pool_proj"
  param {
    lr_mult: 1
    decay_mult: 1
  }
  param {
    lr_mult: 2
    decay_mult: 0
  }
  convolution_param {
    num_output: 64
    kernel_size: 1
    weight_filler {
      type: "xavier"
    }
    bias_filler {
      type: "constant"
      value: 0.2
    }
  }
}
layer {
  name: "inception_3b/relu_pool_proj"
  type: "ReLU"
  bottom: "inception_3b/pool_proj"
  top: "inception_3b/pool_proj"
}
layer {
  name: "inception_3b/output"
  type: "Concat"
  bottom: "inception_3b/1x1"
  bottom: "inception_3b/3x3"
  bottom: "inception_3b/5x5"
  bottom: "inception_3b/pool_proj"
  top: "inception_3b/output"
}
layer {
  name: "pool3/3x3_s2"
  type: "Pooling"
  bottom: "inception_3b/output"
  top: "pool3/3x3_s2"
  pooling_param {
    pool: MAX
    kernel_size: 3
    stride: 2
  }
}
layer {
  name: "inception_4a/1x1"
  type: "Convolution"
  bottom: "pool3/3x3_s2"
  top: "inception_4a/1x1"
  param {
    lr_mult: 1
    decay_mult: 1
  }
  param {
    lr_mult: 2
    decay_mult: 0
  }
  convolution_param {
    num_output: 192
    kernel_size: 1
    weight_filler {
      type: "xavier"
    }
    bias_filler {
      type: "constant"
      value: 0.2
    }
  }
}
layer {
  name: "inception_4a/relu_1x1"
  type: "ReLU"
  bottom: "inception_4a/1x1"
  top: "inception_4a/1x1"
}
layer {
  name: "inception_4a/3x3_reduce"
  type: "Convolution"
  bottom: "pool3/3x3_s2"
  top: "inception_4a/3x3_reduce"
  param {
    lr_mult: 1
    decay_mult: 1
  }
  param {
    lr_mult: 2
    decay_mult: 0
  }
  convolution_param {
    num_output: 96
    kernel_size: 1
    weight_filler {
      type: "xavier"
    }
    bias_filler {
      type: "constant"
      value: 0.2
    }
  }
}
layer {
  name: "inception_4a/relu_3x3_reduce"
  type: "ReLU"
  bottom: "inception_4a/3x3_reduce"
  top: "inception_4a/3x3_reduce"
}
layer {
  name: "inception_4a/3x3"
  type: "Convolution"
  bottom: "inception_4a/3x3_reduce"
  top: "inception_4a/3x3"
  param {
    lr_mult: 1
    decay_mult: 1
  }
  param {
    lr_mult: 2
    decay_mult: 0
  }
  convolution_param {
    num_output: 208
    pad: 1
    kernel_size: 3
    weight_filler {
      type: "xavier"
    }
    bias_filler {
      type: "constant"
      value: 0.2
    }
  }
}
layer {
  name: "inception_4a/relu_3x3"
  type: "ReLU"
  bottom: "inception_4a/3x3"
  top: "inception_4a/3x3"
}
layer {
  name: "inception_4a/5x5_reduce"
  type: "Convolution"
  bottom: "pool3/3x3_s2"
  top: "inception_4a/5x5_reduce"
  param {
    lr_mult: 1
    decay_mult: 1
  }
  param {
    lr_mult: 2
    decay_mult: 0
  }
  convolution_param {
    num_output: 16
    kernel_size: 1
    weight_filler {
      type: "xavier"
    }
    bias_filler {
      type: "constant"
      value: 0.2
    }
  }
}
layer {
  name: "inception_4a/relu_5x5_reduce"
  type: "ReLU"
  bottom: "inception_4a/5x5_reduce"
  top: "inception_4a/5x5_reduce"
}
layer {
  name: "inception_4a/5x5"
  type: "Convolution"
  bottom: "inception_4a/5x5_reduce"
  top: "inception_4a/5x5"
  param {
    lr_mult: 1
    decay_mult: 1
  }
  param {
    lr_mult: 2
    decay_mult: 0
  }
  convolution_param {
    num_output: 48
    pad: 2
    kernel_size: 5
    weight_filler {
      type: "xavier"
    }
    bias_filler {
      type: "constant"
      value: 0.2
    }
  }
}
layer {
  name: "inception_4a/relu_5x5"
  type: "ReLU"
  bottom: "inception_4a/5x5"
  top: "inception_4a/5x5"
}
layer {
  name: "inception_4a/pool"
  type: "Pooling"
  bottom: "pool3/3x3_s2"
  top: "inception_4a/pool"
  pooling_param {
    pool: MAX
    kernel_size: 3
    stride: 1
    pad: 1
  }
}
layer {
  name: "inception_4a/pool_proj"
  type: "Convolution"
  bottom: "inception_4a/pool"
  top: "inception_4a/pool_proj"
  param {
    lr_mult: 1
    decay_mult: 1
  }
  param {
    lr_mult: 2
    decay_mult: 0
  }
  convolution_param {
    num_output: 64
    kernel_size: 1
    weight_filler {
      type: "xavier"
    }
    bias_filler {
      type: "constant"
      value: 0.2
    }
  }
}
layer {
  name: "inception_4a/relu_pool_proj"
  type: "ReLU"
  bottom: "inception_4a/pool_proj"
  top: "inception_4a/pool_proj"
}
layer {
  name: "inception_4a/output"
  type: "Concat"
  bottom: "inception_4a/1x1"
  bottom: "inception_4a/3x3"
  bottom: "inception_4a/5x5"
  bottom: "inception_4a/pool_proj"
  top: "inception_4a/output"
}
layer {
  name: "loss1/ave_pool"
  type: "Pooling"
  bottom: "inception_4a/output"
  top: "loss1/ave_pool"
  pooling_param {
    pool: AVE
    kernel_size: 5
    stride: 3
  }
}
layer {
  name: "loss1/conv"
  type: "Convolution"
  bottom: "loss1/ave_pool"
  top: "loss1/conv"
  param {
    lr_mult: 1
    decay_mult: 1
  }
  param {
    lr_mult: 2
    decay_mult: 0
  }
  convolution_param {
    num_output: 128
    kernel_size: 1
    weight_filler {
      type: "xavier"
    }
    bias_filler {
      type: "constant"
      value: 0.2
    }
  }
}
layer {
  name: "loss1/relu_conv"
  type: "ReLU"
  bottom: "loss1/conv"
  top: "loss1/conv"
}
layer {
  name: "loss1/fc"
  type: "InnerProduct"
  bottom: "loss1/conv"
  top: "loss1/fc"
  param {
    lr_mult: 1
    decay_mult: 1
  }
  param {
    lr_mult: 2
    decay_mult: 0
  }
  inner_product_param {
    num_output: 1024
    weight_filler {
      type: "xavier"
    }
    bias_filler {
      type: "constant"
      value: 0.2
    }
  }
}
layer {
  name: "loss1/relu_fc"
  type: "ReLU"
  bottom: "loss1/fc"
  top: "loss1/fc"
}
layer {
  name: "loss1/drop_fc"
  type: "Dropout"
  bottom: "loss1/fc"
  top: "loss1/fc"
  dropout_param {
    dropout_ratio: 0.7
  }
}
layer {
  name: "loss1/classifier"
  type: "InnerProduct"
  bottom: "loss1/fc"
  top: "loss1/classifier"
  param {
    lr_mult: 1
    decay_mult: 1
  }
  param {
    lr_mult: 2
    decay_mult: 0
  }
  inner_product_param {
    num_output: 1000
    weight_filler {
      type: "xavier"
    }
    bias_filler {
      type: "constant"
      value: 0
    }
  }
}
layer {
  name: "loss1/loss"
  type: "SoftmaxWithLoss"
  bottom: "loss1/classifier"
  bottom: "label"
  top: "loss1/loss1"
  loss_weight: 0.3
}
layer {
  name: "loss1/top-1"
  type: "Accuracy"
  bottom: "loss1/classifier"
  bottom: "label"
  top: "loss1/top-1"
  include {
    phase: TEST
  }
}
layer {
  name: "loss1/top-5"
  type: "Accuracy"
  bottom: "loss1/classifier"
  bottom: "label"
  top: "loss1/top-5"
  include {
    phase: TEST
  }
  accuracy_param {
    top_k: 5
  }
}
layer {
  name: "inception_4b/1x1"
  type: "Convolution"
  bottom: "inception_4a/output"
  top: "inception_4b/1x1"
  param {
    lr_mult: 1
    decay_mult: 1
  }
  param {
    lr_mult: 2
    decay_mult: 0
  }
  convolution_param {
    num_output: 160
    kernel_size: 1
    weight_filler {
      type: "xavier"
    }
    bias_filler {
      type: "constant"
      value: 0.2
    }
  }
}
layer {
  name: "inception_4b/relu_1x1"
  type: "ReLU"
  bottom: "inception_4b/1x1"
  top: "inception_4b/1x1"
}
layer {
  name: "inception_4b/3x3_reduce"
  type: "Convolution"
  bottom: "inception_4a/output"
  top: "inception_4b/3x3_reduce"
  param {
    lr_mult: 1
    decay_mult: 1
  }
  param {
    lr_mult: 2
    decay_mult: 0
  }
  convolution_param {
    num_output: 112
    kernel_size: 1
    weight_filler {
      type: "xavier"
    }
    bias_filler {
      type: "constant"
      value: 0.2
    }
  }
}
layer {
  name: "inception_4b/relu_3x3_reduce"
  type: "ReLU"
  bottom: "inception_4b/3x3_reduce"
  top: "inception_4b/3x3_reduce"
}
layer {
  name: "inception_4b/3x3"
  type: "Convolution"
  bottom: "inception_4b/3x3_reduce"
  top: "inception_4b/3x3"
  param {
    lr_mult: 1
    decay_mult: 1
  }
  param {
    lr_mult: 2
    decay_mult: 0
  }
  convolution_param {
    num_output: 224
    pad: 1
    kernel_size: 3
    weight_filler {
      type: "xavier"
    }
    bias_filler {
      type: "constant"
      value: 0.2
    }
  }
}
layer {
  name: "inception_4b/relu_3x3"
  type: "ReLU"
  bottom: "inception_4b/3x3"
  top: "inception_4b/3x3"
}
layer {
  name: "inception_4b/5x5_reduce"
  type: "Convolution"
  bottom: "inception_4a/output"
  top: "inception_4b/5x5_reduce"
  param {
    lr_mult: 1
    decay_mult: 1
  }
  param {
    lr_mult: 2
    decay_mult: 0
  }
  convolution_param {
    num_output: 24
    kernel_size: 1
    weight_filler {
      type: "xavier"
    }
    bias_filler {
      type: "constant"
      value: 0.2
    }
  }
}
layer {
  name: "inception_4b/relu_5x5_reduce"
  type: "ReLU"
  bottom: "inception_4b/5x5_reduce"
  top: "inception_4b/5x5_reduce"
}
layer {
  name: "inception_4b/5x5"
  type: "Convolution"
  bottom: "inception_4b/5x5_reduce"
  top: "inception_4b/5x5"
  param {
    lr_mult: 1
    decay_mult: 1
  }
  param {
    lr_mult: 2
    decay_mult: 0
  }
  convolution_param {
    num_output: 64
    pad: 2
    kernel_size: 5
    weight_filler {
      type: "xavier"
    }
    bias_filler {
      type: "constant"
      value: 0.2
    }
  }
}
layer {
  name: "inception_4b/relu_5x5"
  type: "ReLU"
  bottom: "inception_4b/5x5"
  top: "inception_4b/5x5"
}
layer {
  name: "inception_4b/pool"
  type: "Pooling"
  bottom: "inception_4a/output"
  top: "inception_4b/pool"
  pooling_param {
    pool: MAX
    kernel_size: 3
    stride: 1
    pad: 1
  }
}
layer {
  name: "inception_4b/pool_proj"
  type: "Convolution"
  bottom: "inception_4b/pool"
  top: "inception_4b/pool_proj"
  param {
    lr_mult: 1
    decay_mult: 1
  }
  param {
    lr_mult: 2
    decay_mult: 0
  }
  convolution_param {
    num_output: 64
    kernel_size: 1
    weight_filler {
      type: "xavier"
    }
    bias_filler {
      type: "constant"
      value: 0.2
    }
  }
}
layer {
  name: "inception_4b/relu_pool_proj"
  type: "ReLU"
  bottom: "inception_4b/pool_proj"
  top: "inception_4b/pool_proj"
}
layer {
  name: "inception_4b/output"
  type: "Concat"
  bottom: "inception_4b/1x1"
  bottom: "inception_4b/3x3"
  bottom: "inception_4b/5x5"
  bottom: "inception_4b/pool_proj"
  top: "inception_4b/output"
}
layer {
  name: "inception_4c/1x1"
  type: "Convolution"
  bottom: "inception_4b/output"
  top: "inception_4c/1x1"
  param {
    lr_mult: 1
    decay_mult: 1
  }
  param {
    lr_mult: 2
    decay_mult: 0
  }
  convolution_param {
    num_output: 128
    kernel_size: 1
    weight_filler {
      type: "xavier"
    }
    bias_filler {
      type: "constant"
      value: 0.2
    }
  }
}
layer {
  name: "inception_4c/relu_1x1"
  type: "ReLU"
  bottom: "inception_4c/1x1"
  top: "inception_4c/1x1"
}
layer {
  name: "inception_4c/3x3_reduce"
  type: "Convolution"
  bottom: "inception_4b/output"
  top: "inception_4c/3x3_reduce"
  param {
    lr_mult: 1
    decay_mult: 1
  }
  param {
    lr_mult: 2
    decay_mult: 0
  }
  convolution_param {
    num_output: 128
    kernel_size: 1
    weight_filler {
      type: "xavier"
    }
    bias_filler {
      type: "constant"
      value: 0.2
    }
  }
}
layer {
  name: "inception_4c/relu_3x3_reduce"
  type: "ReLU"
  bottom: "inception_4c/3x3_reduce"
  top: "inception_4c/3x3_reduce"
}
layer {
  name: "inception_4c/3x3"
  type: "Convolution"
  bottom: "inception_4c/3x3_reduce"
  top: "inception_4c/3x3"
  param {
    lr_mult: 1
    decay_mult: 1
  }
  param {
    lr_mult: 2
    decay_mult: 0
  }
  convolution_param {
    num_output: 256
    pad: 1
    kernel_size: 3
    weight_filler {
      type: "xavier"
    }
    bias_filler {
      type: "constant"
      value: 0.2
    }
  }
}
layer {
  name: "inception_4c/relu_3x3"
  type: "ReLU"
  bottom: "inception_4c/3x3"
  top: "inception_4c/3x3"
}
layer {
  name: "inception_4c/5x5_reduce"
  type: "Convolution"
  bottom: "inception_4b/output"
  top: "inception_4c/5x5_reduce"
  param {
    lr_mult: 1
    decay_mult: 1
  }
  param {
    lr_mult: 2
    decay_mult: 0
  }
  convolution_param {
    num_output: 24
    kernel_size: 1
    weight_filler {
      type: "xavier"
    }
    bias_filler {
      type: "constant"
      value: 0.2
    }
  }
}
layer {
  name: "inception_4c/relu_5x5_reduce"
  type: "ReLU"
  bottom: "inception_4c/5x5_reduce"
  top: "inception_4c/5x5_reduce"
}
layer {
  name: "inception_4c/5x5"
  type: "Convolution"
  bottom: "inception_4c/5x5_reduce"
  top: "inception_4c/5x5"
  param {
    lr_mult: 1
    decay_mult: 1
  }
  param {
    lr_mult: 2
    decay_mult: 0
  }
  convolution_param {
    num_output: 64
    pad: 2
    kernel_size: 5
    weight_filler {
      type: "xavier"
    }
    bias_filler {
      type: "constant"
      value: 0.2
    }
  }
}
layer {
  name: "inception_4c/relu_5x5"
  type: "ReLU"
  bottom: "inception_4c/5x5"
  top: "inception_4c/5x5"
}
layer {
  name: "inception_4c/pool"
  type: "Pooling"
  bottom: "inception_4b/output"
  top: "inception_4c/pool"
  pooling_param {
    pool: MAX
    kernel_size: 3
    stride: 1
    pad: 1
  }
}
layer {
  name: "inception_4c/pool_proj"
  type: "Convolution"
  bottom: "inception_4c/pool"
  top: "inception_4c/pool_proj"
  param {
    lr_mult: 1
    decay_mult: 1
  }
  param {
    lr_mult: 2
    decay_mult: 0
  }
  convolution_param {
    num_output: 64
    kernel_size: 1
    weight_filler {
      type: "xavier"
    }
    bias_filler {
      type: "constant"
      value: 0.2
    }
  }
}
layer {
  name: "inception_4c/relu_pool_proj"
  type: "ReLU"
  bottom: "inception_4c/pool_proj"
  top: "inception_4c/pool_proj"
}
layer {
  name: "inception_4c/output"
  type: "Concat"
  bottom: "inception_4c/1x1"
  bottom: "inception_4c/3x3"
  bottom: "inception_4c/5x5"
  bottom: "inception_4c/pool_proj"
  top: "inception_4c/output"
}
layer {
  name: "inception_4d/1x1"
  type: "Convolution"
  bottom: "inception_4c/output"
  top: "inception_4d/1x1"
  param {
    lr_mult: 1
    decay_mult: 1
  }
  param {
    lr_mult: 2
    decay_mult: 0
  }
  convolution_param {
    num_output: 112
    kernel_size: 1
    weight_filler {
      type: "xavier"
    }
    bias_filler {
      type: "constant"
      value: 0.2
    }
  }
}
layer {
  name: "inception_4d/relu_1x1"
  type: "ReLU"
  bottom: "inception_4d/1x1"
  top: "inception_4d/1x1"
}
layer {
  name: "inception_4d/3x3_reduce"
  type: "Convolution"
  bottom: "inception_4c/output"
  top: "inception_4d/3x3_reduce"
  param {
    lr_mult: 1
    decay_mult: 1
  }
  param {
    lr_mult: 2
    decay_mult: 0
  }
  convolution_param {
    num_output: 144
    kernel_size: 1
    weight_filler {
      type: "xavier"
    }
    bias_filler {
      type: "constant"
      value: 0.2
    }
  }
}
layer {
  name: "inception_4d/relu_3x3_reduce"
  type: "ReLU"
  bottom: "inception_4d/3x3_reduce"
  top: "inception_4d/3x3_reduce"
}
layer {
  name: "inception_4d/3x3"
  type: "Convolution"
  bottom: "inception_4d/3x3_reduce"
  top: "inception_4d/3x3"
  param {
    lr_mult: 1
    decay_mult: 1
  }
  param {
    lr_mult: 2
    decay_mult: 0
  }
  convolution_param {
    num_output: 288
    pad: 1
    kernel_size: 3
    weight_filler {
      type: "xavier"
    }
    bias_filler {
      type: "constant"
      value: 0.2
    }
  }
}
layer {
  name: "inception_4d/relu_3x3"
  type: "ReLU"
  bottom: "inception_4d/3x3"
  top: "inception_4d/3x3"
}
layer {
  name: "inception_4d/5x5_reduce"
  type: "Convolution"
  bottom: "inception_4c/output"
  top: "inception_4d/5x5_reduce"
  param {
    lr_mult: 1
    decay_mult: 1
  }
  param {
    lr_mult: 2
    decay_mult: 0
  }
  convolution_param {
    num_output: 32
    kernel_size: 1
    weight_filler {
      type: "xavier"
    }
    bias_filler {
      type: "constant"
      value: 0.2
    }
  }
}
layer {
  name: "inception_4d/relu_5x5_reduce"
  type: "ReLU"
  bottom: "inception_4d/5x5_reduce"
  top: "inception_4d/5x5_reduce"
}
layer {
  name: "inception_4d/5x5"
  type: "Convolution"
  bottom: "inception_4d/5x5_reduce"
  top: "inception_4d/5x5"
  param {
    lr_mult: 1
    decay_mult: 1
  }
  param {
    lr_mult: 2
    decay_mult: 0
  }
  convolution_param {
    num_output: 64
    pad: 2
    kernel_size: 5
    weight_filler {
      type: "xavier"
    }
    bias_filler {
      type: "constant"
      value: 0.2
    }
  }
}
layer {
  name: "inception_4d/relu_5x5"
  type: "ReLU"
  bottom: "inception_4d/5x5"
  top: "inception_4d/5x5"
}
layer {
  name: "inception_4d/pool"
  type: "Pooling"
  bottom: "inception_4c/output"
  top: "inception_4d/pool"
  pooling_param {
    pool: MAX
    kernel_size: 3
    stride: 1
    pad: 1
  }
}
layer {
  name: "inception_4d/pool_proj"
  type: "Convolution"
  bottom: "inception_4d/pool"
  top: "inception_4d/pool_proj"
  param {
    lr_mult: 1
    decay_mult: 1
  }
  param {
    lr_mult: 2
    decay_mult: 0
  }
  convolution_param {
    num_output: 64
    kernel_size: 1
    weight_filler {
      type: "xavier"
    }
    bias_filler {
      type: "constant"
      value: 0.2
    }
  }
}
layer {
  name: "inception_4d/relu_pool_proj"
  type: "ReLU"
  bottom: "inception_4d/pool_proj"
  top: "inception_4d/pool_proj"
}
layer {
  name: "inception_4d/output"
  type: "Concat"
  bottom: "inception_4d/1x1"
  bottom: "inception_4d/3x3"
  bottom: "inception_4d/5x5"
  bottom: "inception_4d/pool_proj"
  top: "inception_4d/output"
}
layer {
  name: "loss2/ave_pool"
  type: "Pooling"
  bottom: "inception_4d/output"
  top: "loss2/ave_pool"
  pooling_param {
    pool: AVE
    kernel_size: 5
    stride: 3
  }
}
layer {
  name: "loss2/conv"
  type: "Convolution"
  bottom: "loss2/ave_pool"
  top: "loss2/conv"
  param {
    lr_mult: 1
    decay_mult: 1
  }
  param {
    lr_mult: 2
    decay_mult: 0
  }
  convolution_param {
    num_output: 128
    kernel_size: 1
    weight_filler {
      type: "xavier"
    }
    bias_filler {
      type: "constant"
      value: 0.2
    }
  }
}
layer {
  name: "loss2/relu_conv"
  type: "ReLU"
  bottom: "loss2/conv"
  top: "loss2/conv"
}
layer {
  name: "loss2/fc"
  type: "InnerProduct"
  bottom: "loss2/conv"
  top: "loss2/fc"
  param {
    lr_mult: 1
    decay_mult: 1
  }
  param {
    lr_mult: 2
    decay_mult: 0
  }
  inner_product_param {
    num_output: 1024
    weight_filler {
      type: "xavier"
    }
    bias_filler {
      type: "constant"
      value: 0.2
    }
  }
}
layer {
  name: "loss2/relu_fc"
  type: "ReLU"
  bottom: "loss2/fc"
  top: "loss2/fc"
}
layer {
  name: "loss2/drop_fc"
  type: "Dropout"
  bottom: "loss2/fc"
  top: "loss2/fc"
  dropout_param {
    dropout_ratio: 0.7
  }
}
layer {
  name: "loss2/classifier"
  type: "InnerProduct"
  bottom: "loss2/fc"
  top: "loss2/classifier"
  param {
    lr_mult: 1
    decay_mult: 1
  }
  param {
    lr_mult: 2
    decay_mult: 0
  }
  inner_product_param {
    num_output: 1000
    weight_filler {
      type: "xavier"
    }
    bias_filler {
      type: "constant"
      value: 0
    }
  }
}
layer {
  name: "loss2/loss"
  type: "SoftmaxWithLoss"
  bottom: "loss2/classifier"
  bottom: "label"
  top: "loss2/loss2"
  loss_weight: 0.3
}
layer {
  name: "loss2/top-1"
  type: "Accuracy"
  bottom: "loss2/classifier"
  bottom: "label"
  top: "loss2/top-1"
  include {
    phase: TEST
  }
}
layer {
  name: "loss2/top-5"
  type: "Accuracy"
  bottom: "loss2/classifier"
  bottom: "label"
  top: "loss2/top-5"
  include {
    phase: TEST
  }
  accuracy_param {
    top_k: 5
  }
}
layer {
  name: "inception_4e/1x1"
  type: "Convolution"
  bottom: "inception_4d/output"
  top: "inception_4e/1x1"
  param {
    lr_mult: 1
    decay_mult: 1
  }
  param {
    lr_mult: 2
    decay_mult: 0
  }
  convolution_param {
    num_output: 256
    kernel_size: 1
    weight_filler {
      type: "xavier"
    }
    bias_filler {
      type: "constant"
      value: 0.2
    }
  }
}
layer {
  name: "inception_4e/relu_1x1"
  type: "ReLU"
  bottom: "inception_4e/1x1"
  top: "inception_4e/1x1"
}
layer {
  name: "inception_4e/3x3_reduce"
  type: "Convolution"
  bottom: "inception_4d/output"
  top: "inception_4e/3x3_reduce"
  param {
    lr_mult: 1
    decay_mult: 1
  }
  param {
    lr_mult: 2
    decay_mult: 0
  }
  convolution_param {
    num_output: 160
    kernel_size: 1
    weight_filler {
      type: "xavier"
    }
    bias_filler {
      type: "constant"
      value: 0.2
    }
  }
}
layer {
  name: "inception_4e/relu_3x3_reduce"
  type: "ReLU"
  bottom: "inception_4e/3x3_reduce"
  top: "inception_4e/3x3_reduce"
}
layer {
  name: "inception_4e/3x3"
  type: "Convolution"
  bottom: "inception_4e/3x3_reduce"
  top: "inception_4e/3x3"
  param {
    lr_mult: 1
    decay_mult: 1
  }
  param {
    lr_mult: 2
    decay_mult: 0
  }
  convolution_param {
    num_output: 320
    pad: 1
    kernel_size: 3
    weight_filler {
      type: "xavier"
    }
    bias_filler {
      type: "constant"
      value: 0.2
    }
  }
}
layer {
  name: "inception_4e/relu_3x3"
  type: "ReLU"
  bottom: "inception_4e/3x3"
  top: "inception_4e/3x3"
}
layer {
  name: "inception_4e/5x5_reduce"
  type: "Convolution"
  bottom: "inception_4d/output"
  top: "inception_4e/5x5_reduce"
  param {
    lr_mult: 1
    decay_mult: 1
  }
  param {
    lr_mult: 2
    decay_mult: 0
  }
  convolution_param {
    num_output: 32
    kernel_siz
I0906 16:47:26.812916 19724 layer_factory.hpp:77] Creating layer data
I0906 16:47:26.813524 19724 db_lmdb.cpp:35] Opened lmdb /mllib/imagenet/ilsvrc12/lmdb_resize/ilsvrc12_val_lmdb
I0906 16:47:26.813797 19724 net.cpp:115] Creating Layer data
I0906 16:47:26.813875 19724 net.cpp:490] data -> data
I0906 16:47:26.813976 19724 net.cpp:490] data -> label
I0906 16:47:26.893227 19724 data_layer.cpp:45] output data size: 50,3,224,224
I0906 16:47:27.138777 19724 net.cpp:153] Setting up data
I0906 16:47:27.138965 19724 net.cpp:160] Top shape: 50 3 224 224 (7526400)
I0906 16:47:27.139009 19724 net.cpp:160] Top shape: 50 (50)
I0906 16:47:27.139055 19724 net.cpp:168] Memory required for data: 30105800
I0906 16:47:27.139119 19724 layer_factory.hpp:77] Creating layer label_data_1_split
I0906 16:47:27.139204 19724 net.cpp:115] Creating Layer label_data_1_split
I0906 16:47:27.139279 19724 net.cpp:516] label_data_1_split <- label
I0906 16:47:27.139375 19724 net.cpp:490] label_data_1_split -> label_data_1_split_0
I0906 16:47:27.139479 19724 net.cpp:490] label_data_1_split -> label_data_1_split_1
I0906 16:47:27.139545 19724 net.cpp:490] label_data_1_split -> label_data_1_split_2
I0906 16:47:27.139617 19724 net.cpp:490] label_data_1_split -> label_data_1_split_3
I0906 16:47:27.139694 19724 net.cpp:490] label_data_1_split -> label_data_1_split_4
I0906 16:47:27.139760 19724 net.cpp:490] label_data_1_split -> label_data_1_split_5
I0906 16:47:27.139864 19724 net.cpp:490] label_data_1_split -> label_data_1_split_6
I0906 16:47:27.139992 19724 net.cpp:490] label_data_1_split -> label_data_1_split_7
I0906 16:47:27.140085 19724 net.cpp:490] label_data_1_split -> label_data_1_split_8
I0906 16:47:27.140411 19724 net.cpp:153] Setting up label_data_1_split
I0906 16:47:27.140485 19724 net.cpp:160] Top shape: 50 (50)
I0906 16:47:27.140540 19724 net.cpp:160] Top shape: 50 (50)
I0906 16:47:27.140642 19724 net.cpp:160] Top shape: 50 (50)
I0906 16:47:27.140739 19724 net.cpp:160] Top shape: 50 (50)
I0906 16:47:27.140842 19724 net.cpp:160] Top shape: 50 (50)
I0906 16:47:27.140928 19724 net.cpp:160] Top shape: 50 (50)
I0906 16:47:27.141008 19724 net.cpp:160] Top shape: 50 (50)
I0906 16:47:27.141080 19724 net.cpp:160] Top shape: 50 (50)
I0906 16:47:27.141165 19724 net.cpp:160] Top shape: 50 (50)
I0906 16:47:27.141224 19724 net.cpp:168] Memory required for data: 30107600
I0906 16:47:27.141278 19724 layer_factory.hpp:77] Creating layer conv1/7x7_s2
I0906 16:47:27.145100 19724 net.cpp:115] Creating Layer conv1/7x7_s2
I0906 16:47:27.145220 19724 net.cpp:516] conv1/7x7_s2 <- data
I0906 16:47:27.145449 19724 net.cpp:490] conv1/7x7_s2 -> conv1/7x7_s2
I0906 16:47:27.156819 19724 net.cpp:153] Setting up conv1/7x7_s2
I0906 16:47:27.156997 19724 net.cpp:160] Top shape: 50 64 112 112 (40140800)
I0906 16:47:27.157088 19724 net.cpp:168] Memory required for data: 190670800
I0906 16:47:27.157209 19724 layer_factory.hpp:77] Creating layer conv1/relu_7x7
I0906 16:47:27.157306 19724 net.cpp:115] Creating Layer conv1/relu_7x7
I0906 16:47:27.157379 19724 net.cpp:516] conv1/relu_7x7 <- conv1/7x7_s2
I0906 16:47:27.157433 19724 net.cpp:477] conv1/relu_7x7 -> conv1/7x7_s2 (in-place)
I0906 16:47:27.157526 19724 net.cpp:153] Setting up conv1/relu_7x7
I0906 16:47:27.157574 19724 net.cpp:160] Top shape: 50 64 112 112 (40140800)
I0906 16:47:27.157585 19724 net.cpp:168] Memory required for data: 351234000
I0906 16:47:27.157591 19724 layer_factory.hpp:77] Creating layer pool1/3x3_s2
I0906 16:47:27.157670 19724 net.cpp:115] Creating Layer pool1/3x3_s2
I0906 16:47:27.157727 19724 net.cpp:516] pool1/3x3_s2 <- conv1/7x7_s2
I0906 16:47:27.157779 19724 net.cpp:490] pool1/3x3_s2 -> pool1/3x3_s2
I0906 16:47:27.158063 19724 net.cpp:153] Setting up pool1/3x3_s2
I0906 16:47:27.158119 19724 net.cpp:160] Top shape: 50 64 56 56 (10035200)
I0906 16:47:27.158152 19724 net.cpp:168] Memory required for data: 391374800
I0906 16:47:27.158219 19724 layer_factory.hpp:77] Creating layer pool1/norm1
I0906 16:47:27.158300 19724 net.cpp:115] Creating Layer pool1/norm1
I0906 16:47:27.158341 19724 net.cpp:516] pool1/norm1 <- pool1/3x3_s2
I0906 16:47:27.158391 19724 net.cpp:490] pool1/norm1 -> pool1/norm1
I0906 16:47:27.158540 19724 net.cpp:153] Setting up pool1/norm1
I0906 16:47:27.158622 19724 net.cpp:160] Top shape: 50 64 56 56 (10035200)
I0906 16:47:27.158671 19724 net.cpp:168] Memory required for data: 431515600
I0906 16:47:27.158710 19724 layer_factory.hpp:77] Creating layer conv2/3x3_reduce
I0906 16:47:27.158768 19724 net.cpp:115] Creating Layer conv2/3x3_reduce
I0906 16:47:27.158784 19724 net.cpp:516] conv2/3x3_reduce <- pool1/norm1
I0906 16:47:27.158803 19724 net.cpp:490] conv2/3x3_reduce -> conv2/3x3_reduce
I0906 16:47:27.161065 19724 net.cpp:153] Setting up conv2/3x3_reduce
I0906 16:47:27.161100 19724 net.cpp:160] Top shape: 50 64 56 56 (10035200)
I0906 16:47:27.161108 19724 net.cpp:168] Memory required for data: 471656400
I0906 16:47:27.161124 19724 layer_factory.hpp:77] Creating layer conv2/relu_3x3_reduce
I0906 16:47:27.161137 19724 net.cpp:115] Creating Layer conv2/relu_3x3_reduce
I0906 16:47:27.161151 19724 net.cpp:516] conv2/relu_3x3_reduce <- conv2/3x3_reduce
I0906 16:47:27.161166 19724 net.cpp:477] conv2/relu_3x3_reduce -> conv2/3x3_reduce (in-place)
I0906 16:47:27.161186 19724 net.cpp:153] Setting up conv2/relu_3x3_reduce
I0906 16:47:27.161203 19724 net.cpp:160] Top shape: 50 64 56 56 (10035200)
I0906 16:47:27.161216 19724 net.cpp:168] Memory required for data: 511797200
I0906 16:47:27.161258 19724 layer_factory.hpp:77] Creating layer conv2/3x3
I0906 16:47:27.161306 19724 net.cpp:115] Creating Layer conv2/3x3
I0906 16:47:27.161331 19724 net.cpp:516] conv2/3x3 <- conv2/3x3_reduce
I0906 16:47:27.161350 19724 net.cpp:490] conv2/3x3 -> conv2/3x3
I0906 16:47:27.164911 19724 net.cpp:153] Setting up conv2/3x3
I0906 16:47:27.164990 19724 net.cpp:160] Top shape: 50 192 56 56 (30105600)
I0906 16:47:27.165002 19724 net.cpp:168] Memory required for data: 632219600
I0906 16:47:27.165037 19724 layer_factory.hpp:77] Creating layer conv2/relu_3x3
I0906 16:47:27.165091 19724 net.cpp:115] Creating Layer conv2/relu_3x3
I0906 16:47:27.165110 19724 net.cpp:516] conv2/relu_3x3 <- conv2/3x3
I0906 16:47:27.165136 19724 net.cpp:477] conv2/relu_3x3 -> conv2/3x3 (in-place)
I0906 16:47:27.165184 19724 net.cpp:153] Setting up conv2/relu_3x3
I0906 16:47:27.165215 19724 net.cpp:160] Top shape: 50 192 56 56 (30105600)
I0906 16:47:27.165230 19724 net.cpp:168] Memory required for data: 752642000
I0906 16:47:27.165248 19724 layer_factory.hpp:77] Creating layer conv2/norm2
I0906 16:47:27.165305 19724 net.cpp:115] Creating Layer conv2/norm2
I0906 16:47:27.165326 19724 net.cpp:516] conv2/norm2 <- conv2/3x3
I0906 16:47:27.165415 19724 net.cpp:490] conv2/norm2 -> conv2/norm2
I0906 16:47:27.165498 19724 net.cpp:153] Setting up conv2/norm2
I0906 16:47:27.165534 19724 net.cpp:160] Top shape: 50 192 56 56 (30105600)
I0906 16:47:27.165552 19724 net.cpp:168] Memory required for data: 873064400
I0906 16:47:27.165571 19724 layer_factory.hpp:77] Creating layer pool2/3x3_s2
I0906 16:47:27.165707 19724 net.cpp:115] Creating Layer pool2/3x3_s2
I0906 16:47:27.165760 19724 net.cpp:516] pool2/3x3_s2 <- conv2/norm2
I0906 16:47:27.165808 19724 net.cpp:490] pool2/3x3_s2 -> pool2/3x3_s2
I0906 16:47:27.165944 19724 net.cpp:153] Setting up pool2/3x3_s2
I0906 16:47:27.166007 19724 net.cpp:160] Top shape: 50 192 28 28 (7526400)
I0906 16:47:27.166079 19724 net.cpp:168] Memory required for data: 903170000
I0906 16:47:27.166123 19724 layer_factory.hpp:77] Creating layer pool2/3x3_s2_pool2/3x3_s2_0_split
I0906 16:47:27.166165 19724 net.cpp:115] Creating Layer pool2/3x3_s2_pool2/3x3_s2_0_split
I0906 16:47:27.166208 19724 net.cpp:516] pool2/3x3_s2_pool2/3x3_s2_0_split <- pool2/3x3_s2
I0906 16:47:27.166254 19724 net.cpp:490] pool2/3x3_s2_pool2/3x3_s2_0_split -> pool2/3x3_s2_pool2/3x3_s2_0_split_0
I0906 16:47:27.166314 19724 net.cpp:490] pool2/3x3_s2_pool2/3x3_s2_0_split -> pool2/3x3_s2_pool2/3x3_s2_0_split_1
I0906 16:47:27.166404 19724 net.cpp:490] pool2/3x3_s2_pool2/3x3_s2_0_split -> pool2/3x3_s2_pool2/3x3_s2_0_split_2
I0906 16:47:27.166460 19724 net.cpp:490] pool2/3x3_s2_pool2/3x3_s2_0_split -> pool2/3x3_s2_pool2/3x3_s2_0_split_3
I0906 16:47:27.166627 19724 net.cpp:153] Setting up pool2/3x3_s2_pool2/3x3_s2_0_split
I0906 16:47:27.166692 19724 net.cpp:160] Top shape: 50 192 28 28 (7526400)
I0906 16:47:27.166743 19724 net.cpp:160] Top shape: 50 192 28 28 (7526400)
I0906 16:47:27.166832 19724 net.cpp:160] Top shape: 50 192 28 28 (7526400)
I0906 16:47:27.166959 19724 net.cpp:160] Top shape: 50 192 28 28 (7526400)
I0906 16:47:27.167011 19724 net.cpp:168] Memory required for data: 1023592400
I0906 16:47:27.167060 19724 layer_factory.hpp:77] Creating layer inception_3a/1x1
I0906 16:47:27.167122 19724 net.cpp:115] Creating Layer inception_3a/1x1
I0906 16:47:27.167167 19724 net.cpp:516] inception_3a/1x1 <- pool2/3x3_s2_pool2/3x3_s2_0_split_0
I0906 16:47:27.167275 19724 net.cpp:490] inception_3a/1x1 -> inception_3a/1x1
I0906 16:47:27.171725 19724 net.cpp:153] Setting up inception_3a/1x1
I0906 16:47:27.172058 19724 net.cpp:160] Top shape: 50 64 28 28 (2508800)
I0906 16:47:27.172173 19724 net.cpp:168] Memory required for data: 1033627600
I0906 16:47:27.172246 19724 layer_factory.hpp:77] Creating layer inception_3a/relu_1x1
I0906 16:47:27.172364 19724 net.cpp:115] Creating Layer inception_3a/relu_1x1
I0906 16:47:27.172421 19724 net.cpp:516] inception_3a/relu_1x1 <- inception_3a/1x1
I0906 16:47:27.172510 19724 net.cpp:477] inception_3a/relu_1x1 -> inception_3a/1x1 (in-place)
I0906 16:47:27.172641 19724 net.cpp:153] Setting up inception_3a/relu_1x1
I0906 16:47:27.172732 19724 net.cpp:160] Top shape: 50 64 28 28 (2508800)
I0906 16:47:27.172773 19724 net.cpp:168] Memory required for data: 1043662800
I0906 16:47:27.172859 19724 layer_factory.hpp:77] Creating layer inception_3a/3x3_reduce
I0906 16:47:27.172971 19724 net.cpp:115] Creating Layer inception_3a/3x3_reduce
I0906 16:47:27.173035 19724 net.cpp:516] inception_3a/3x3_reduce <- pool2/3x3_s2_pool2/3x3_s2_0_split_1
I0906 16:47:27.173120 19724 net.cpp:490] inception_3a/3x3_reduce -> inception_3a/3x3_reduce
I0906 16:47:27.176380 19724 net.cpp:153] Setting up inception_3a/3x3_reduce
I0906 16:47:27.176573 19724 net.cpp:160] Top shape: 50 96 28 28 (3763200)
I0906 16:47:27.176664 19724 net.cpp:168] Memory required for data: 1058715600
I0906 16:47:27.176771 19724 layer_factory.hpp:77] Creating layer inception_3a/relu_3x3_reduce
I0906 16:47:27.176865 19724 net.cpp:115] Creating Layer inception_3a/relu_3x3_reduce
I0906 16:47:27.176918 19724 net.cpp:516] inception_3a/relu_3x3_reduce <- inception_3a/3x3_reduce
I0906 16:47:27.176990 19724 net.cpp:477] inception_3a/relu_3x3_reduce -> inception_3a/3x3_reduce (in-place)
I0906 16:47:27.177225 19724 net.cpp:153] Setting up inception_3a/relu_3x3_reduce
I0906 16:47:27.177322 19724 net.cpp:160] Top shape: 50 96 28 28 (3763200)
I0906 16:47:27.177371 19724 net.cpp:168] Memory required for data: 1073768400
I0906 16:47:27.177412 19724 layer_factory.hpp:77] Creating layer inception_3a/3x3
I0906 16:47:27.177462 19724 net.cpp:115] Creating Layer inception_3a/3x3
I0906 16:47:27.177521 19724 net.cpp:516] inception_3a/3x3 <- inception_3a/3x3_reduce
I0906 16:47:27.177588 19724 net.cpp:490] inception_3a/3x3 -> inception_3a/3x3
I0906 16:47:27.179579 19724 net.cpp:153] Setting up inception_3a/3x3
I0906 16:47:27.179690 19724 net.cpp:160] Top shape: 50 128 28 28 (5017600)
I0906 16:47:27.179729 19724 net.cpp:168] Memory required for data: 1093838800
I0906 16:47:27.179781 19724 layer_factory.hpp:77] Creating layer inception_3a/relu_3x3
I0906 16:47:27.179833 19724 net.cpp:115] Creating Layer inception_3a/relu_3x3
I0906 16:47:27.179872 19724 net.cpp:516] inception_3a/relu_3x3 <- inception_3a/3x3
I0906 16:47:27.179918 19724 net.cpp:477] inception_3a/relu_3x3 -> inception_3a/3x3 (in-place)
I0906 16:47:27.179971 19724 net.cpp:153] Setting up inception_3a/relu_3x3
I0906 16:47:27.180040 19724 net.cpp:160] Top shape: 50 128 28 28 (5017600)
I0906 16:47:27.180086 19724 net.cpp:168] Memory required for data: 1113909200
I0906 16:47:27.180124 19724 layer_factory.hpp:77] Creating layer inception_3a/5x5_reduce
I0906 16:47:27.180179 19724 net.cpp:115] Creating Layer inception_3a/5x5_reduce
I0906 16:47:27.180220 19724 net.cpp:516] inception_3a/5x5_reduce <- pool2/3x3_s2_pool2/3x3_s2_0_split_2
I0906 16:47:27.180274 19724 net.cpp:490] inception_3a/5x5_reduce -> inception_3a/5x5_reduce
I0906 16:47:27.180925 19724 net.cpp:153] Setting up inception_3a/5x5_reduce
I0906 16:47:27.181026 19724 net.cpp:160] Top shape: 50 16 28 28 (627200)
I0906 16:47:27.181087 19724 net.cpp:168] Memory required for data: 1116418000
I0906 16:47:27.181169 19724 layer_factory.hpp:77] Creating layer inception_3a/relu_5x5_reduce
I0906 16:47:27.181267 19724 net.cpp:115] Creating Layer inception_3a/relu_5x5_reduce
I0906 16:47:27.181381 19724 net.cpp:516] inception_3a/relu_5x5_reduce <- inception_3a/5x5_reduce
I0906 16:47:27.181455 19724 net.cpp:477] inception_3a/relu_5x5_reduce -> inception_3a/5x5_reduce (in-place)
I0906 16:47:27.181515 19724 net.cpp:153] Setting up inception_3a/relu_5x5_reduce
I0906 16:47:27.181568 19724 net.cpp:160] Top shape: 50 16 28 28 (627200)
I0906 16:47:27.181612 19724 net.cpp:168] Memory required for data: 1118926800
I0906 16:47:27.181648 19724 layer_factory.hpp:77] Creating layer inception_3a/5x5
I0906 16:47:27.181710 19724 net.cpp:115] Creating Layer inception_3a/5x5
I0906 16:47:27.181762 19724 net.cpp:516] inception_3a/5x5 <- inception_3a/5x5_reduce
I0906 16:47:27.181871 19724 net.cpp:490] inception_3a/5x5 -> inception_3a/5x5
I0906 16:47:27.182916 19724 net.cpp:153] Setting up inception_3a/5x5
I0906 16:47:27.182994 19724 net.cpp:160] Top shape: 50 32 28 28 (1254400)
I0906 16:47:27.183056 19724 net.cpp:168] Memory required for data: 1123944400
I0906 16:47:27.183128 19724 layer_factory.hpp:77] Creating layer inception_3a/relu_5x5
I0906 16:47:27.183188 19724 net.cpp:115] Creating Layer inception_3a/relu_5x5
I0906 16:47:27.183245 19724 net.cpp:516] inception_3a/relu_5x5 <- inception_3a/5x5
I0906 16:47:27.183300 19724 net.cpp:477] inception_3a/relu_5x5 -> inception_3a/5x5 (in-place)
I0906 16:47:27.183357 19724 net.cpp:153] Setting up inception_3a/relu_5x5
I0906 16:47:27.183413 19724 net.cpp:160] Top shape: 50 32 28 28 (1254400)
I0906 16:47:27.183451 19724 net.cpp:168] Memory required for data: 1128962000
I0906 16:47:27.183540 19724 layer_factory.hpp:77] Creating layer inception_3a/pool
I0906 16:47:27.183609 19724 net.cpp:115] Creating Layer inception_3a/pool
I0906 16:47:27.183670 19724 net.cpp:516] inception_3a/pool <- pool2/3x3_s2_pool2/3x3_s2_0_split_3
I0906 16:47:27.183730 19724 net.cpp:490] inception_3a/pool -> inception_3a/pool
I0906 16:47:27.183961 19724 net.cpp:153] Setting up inception_3a/pool
I0906 16:47:27.184046 19724 net.cpp:160] Top shape: 50 192 28 28 (7526400)
I0906 16:47:27.184144 19724 net.cpp:168] Memory required for data: 1159067600
I0906 16:47:27.184260 19724 layer_factory.hpp:77] Creating layer inception_3a/pool_proj
I0906 16:47:27.184406 19724 net.cpp:115] Creating Layer inception_3a/pool_proj
I0906 16:47:27.184481 19724 net.cpp:516] inception_3a/pool_proj <- inception_3a/pool
I0906 16:47:27.184541 19724 net.cpp:490] inception_3a/pool_proj -> inception_3a/pool_proj
I0906 16:47:27.185075 19724 net.cpp:153] Setting up inception_3a/pool_proj
I0906 16:47:27.185109 19724 net.cpp:160] Top shape: 50 32 28 28 (1254400)
I0906 16:47:27.185127 19724 net.cpp:168] Memory required for data: 1164085200
I0906 16:47:27.185164 19724 layer_factory.hpp:77] Creating layer inception_3a/relu_pool_proj
I0906 16:47:27.185184 19724 net.cpp:115] Creating Layer inception_3a/relu_pool_proj
I0906 16:47:27.185206 19724 net.cpp:516] inception_3a/relu_pool_proj <- inception_3a/pool_proj
I0906 16:47:27.185246 19724 net.cpp:477] inception_3a/relu_pool_proj -> inception_3a/pool_proj (in-place)
I0906 16:47:27.185282 19724 net.cpp:153] Setting up inception_3a/relu_pool_proj
I0906 16:47:27.185315 19724 net.cpp:160] Top shape: 50 32 28 28 (1254400)
I0906 16:47:27.185335 19724 net.cpp:168] Memory required for data: 1169102800
I0906 16:47:27.185349 19724 layer_factory.hpp:77] Creating layer inception_3a/output
I0906 16:47:27.185379 19724 net.cpp:115] Creating Layer inception_3a/output
I0906 16:47:27.185391 19724 net.cpp:516] inception_3a/output <- inception_3a/1x1
I0906 16:47:27.185405 19724 net.cpp:516] inception_3a/output <- inception_3a/3x3
I0906 16:47:27.185422 19724 net.cpp:516] inception_3a/output <- inception_3a/5x5
I0906 16:47:27.185441 19724 net.cpp:516] inception_3a/output <- inception_3a/pool_proj
I0906 16:47:27.185467 19724 net.cpp:490] inception_3a/output -> inception_3a/output
I0906 16:47:27.185536 19724 net.cpp:153] Setting up inception_3a/output
I0906 16:47:27.185567 19724 net.cpp:160] Top shape: 50 256 28 28 (10035200)
I0906 16:47:27.185582 19724 net.cpp:168] Memory required for data: 1209243600
I0906 16:47:27.185600 19724 layer_factory.hpp:77] Creating layer inception_3a/output_inception_3a/output_0_split
I0906 16:47:27.185665 19724 net.cpp:115] Creating Layer inception_3a/output_inception_3a/output_0_split
I0906 16:47:27.185684 19724 net.cpp:516] inception_3a/output_inception_3a/output_0_split <- inception_3a/output
I0906 16:47:27.185719 19724 net.cpp:490] inception_3a/output_inception_3a/output_0_split -> inception_3a/output_inception_3a/output_0_split_0
I0906 16:47:27.185751 19724 net.cpp:490] inception_3a/output_inception_3a/output_0_split -> inception_3a/output_inception_3a/output_0_split_1
I0906 16:47:27.185784 19724 net.cpp:490] inception_3a/output_inception_3a/output_0_split -> inception_3a/output_inception_3a/output_0_split_2
I0906 16:47:27.185830 19724 net.cpp:490] inception_3a/output_inception_3a/output_0_split -> inception_3a/output_inception_3a/output_0_split_3
I0906 16:47:27.185956 19724 net.cpp:153] Setting up inception_3a/output_inception_3a/output_0_split
I0906 16:47:27.185984 19724 net.cpp:160] Top shape: 50 256 28 28 (10035200)
I0906 16:47:27.185999 19724 net.cpp:160] Top shape: 50 256 28 28 (10035200)
I0906 16:47:27.186017 19724 net.cpp:160] Top shape: 50 256 28 28 (10035200)
I0906 16:47:27.186060 19724 net.cpp:160] Top shape: 50 256 28 28 (10035200)
I0906 16:47:27.186076 19724 net.cpp:168] Memory required for data: 1369806800
I0906 16:47:27.186094 19724 layer_factory.hpp:77] Creating layer inception_3b/1x1
I0906 16:47:27.186128 19724 net.cpp:115] Creating Layer inception_3b/1x1
I0906 16:47:27.186148 19724 net.cpp:516] inception_3b/1x1 <- inception_3a/output_inception_3a/output_0_split_0
I0906 16:47:27.186172 19724 net.cpp:490] inception_3b/1x1 -> inception_3b/1x1
I0906 16:47:27.186715 19724 net.cpp:153] Setting up inception_3b/1x1
I0906 16:47:27.186744 19724 net.cpp:160] Top shape: 50 128 28 28 (5017600)
I0906 16:47:27.186755 19724 net.cpp:168] Memory required for data: 1389877200
I0906 16:47:27.186779 19724 layer_factory.hpp:77] Creating layer inception_3b/relu_1x1
I0906 16:47:27.186846 19724 net.cpp:115] Creating Layer inception_3b/relu_1x1
I0906 16:47:27.186875 19724 net.cpp:516] inception_3b/relu_1x1 <- inception_3b/1x1
I0906 16:47:27.186928 19724 net.cpp:477] inception_3b/relu_1x1 -> inception_3b/1x1 (in-place)
I0906 16:47:27.186954 19724 net.cpp:153] Setting up inception_3b/relu_1x1
I0906 16:47:27.186995 19724 net.cpp:160] Top shape: 50 128 28 28 (5017600)
I0906 16:47:27.187011 19724 net.cpp:168] Memory required for data: 1409947600
I0906 16:47:27.187026 19724 layer_factory.hpp:77] Creating layer inception_3b/3x3_reduce
I0906 16:47:27.187062 19724 net.cpp:115] Creating Layer inception_3b/3x3_reduce
I0906 16:47:27.187080 19724 net.cpp:516] inception_3b/3x3_reduce <- inception_3a/output_inception_3a/output_0_split_1
I0906 16:47:27.187098 19724 net.cpp:490] inception_3b/3x3_reduce -> inception_3b/3x3_reduce
I0906 16:47:27.187621 19724 net.cpp:153] Setting up inception_3b/3x3_reduce
I0906 16:47:27.187652 19724 net.cpp:160] Top shape: 50 128 28 28 (5017600)
I0906 16:47:27.187664 19724 net.cpp:168] Memory required for data: 1430018000
I0906 16:47:27.187682 19724 layer_factory.hpp:77] Creating layer inception_3b/relu_3x3_reduce
I0906 16:47:27.187716 19724 net.cpp:115] Creating Layer inception_3b/relu_3x3_reduce
I0906 16:47:27.187742 19724 net.cpp:516] inception_3b/relu_3x3_reduce <- inception_3b/3x3_reduce
I0906 16:47:27.187772 19724 net.cpp:477] inception_3b/relu_3x3_reduce -> inception_3b/3x3_reduce (in-place)
I0906 16:47:27.187803 19724 net.cpp:153] Setting up inception_3b/relu_3x3_reduce
I0906 16:47:27.187834 19724 net.cpp:160] Top shape: 50 128 28 28 (5017600)
I0906 16:47:27.187856 19724 net.cpp:168] Memory required for data: 1450088400
I0906 16:47:27.187876 19724 layer_factory.hpp:77] Creating layer inception_3b/3x3
I0906 16:47:27.187933 19724 net.cpp:115] Creating Layer inception_3b/3x3
I0906 16:47:27.187958 19724 net.cpp:516] inception_3b/3x3 <- inception_3b/3x3_reduce
I0906 16:47:27.187994 19724 net.cpp:490] inception_3b/3x3 -> inception_3b/3x3
I0906 16:47:27.190093 19724 net.cpp:153] Setting up inception_3b/3x3
I0906 16:47:27.190152 19724 net.cpp:160] Top shape: 50 192 28 28 (7526400)
I0906 16:47:27.190167 19724 net.cpp:168] Memory required for data: 1480194000
I0906 16:47:27.190198 19724 layer_factory.hpp:77] Creating layer inception_3b/relu_3x3
I0906 16:47:27.190228 19724 net.cpp:115] Creating Layer inception_3b/relu_3x3
I0906 16:47:27.190254 19724 net.cpp:516] inception_3b/relu_3x3 <- inception_3b/3x3
I0906 16:47:27.190295 19724 net.cpp:477] inception_3b/relu_3x3 -> inception_3b/3x3 (in-place)
I0906 16:47:27.190325 19724 net.cpp:153] Setting up inception_3b/relu_3x3
I0906 16:47:27.190348 19724 net.cpp:160] Top shape: 50 192 28 28 (7526400)
I0906 16:47:27.190363 19724 net.cpp:168] Memory required for data: 1510299600
I0906 16:47:27.190387 19724 layer_factory.hpp:77] Creating layer inception_3b/5x5_reduce
I0906 16:47:27.190433 19724 net.cpp:115] Creating Layer inception_3b/5x5_reduce
I0906 16:47:27.190456 19724 net.cpp:516] inception_3b/5x5_reduce <- inception_3a/output_inception_3a/output_0_split_2
I0906 16:47:27.190482 19724 net.cpp:490] inception_3b/5x5_reduce -> inception_3b/5x5_reduce
I0906 16:47:27.190843 19724 net.cpp:153] Setting up inception_3b/5x5_reduce
I0906 16:47:27.190861 19724 net.cpp:160] Top shape: 50 32 28 28 (1254400)
I0906 16:47:27.190871 19724 net.cpp:168] Memory required for data: 1515317200
I0906 16:47:27.190884 19724 layer_factory.hpp:77] Creating layer inception_3b/relu_5x5_reduce
I0906 16:47:27.190897 19724 net.cpp:115] Creating Layer inception_3b/relu_5x5_reduce
I0906 16:47:27.190910 19724 net.cpp:516] inception_3b/relu_5x5_reduce <- inception_3b/5x5_reduce
I0906 16:47:27.190928 19724 net.cpp:477] inception_3b/relu_5x5_reduce -> inception_3b/5x5_reduce (in-place)
I0906 16:47:27.190945 19724 net.cpp:153] Setting up inception_3b/relu_5x5_reduce
I0906 16:47:27.190960 19724 net.cpp:160] Top shape: 50 32 28 28 (1254400)
I0906 16:47:27.190971 19724 net.cpp:168] Memory required for data: 1520334800
I0906 16:47:27.191009 19724 layer_factory.hpp:77] Creating layer inception_3b/5x5
I0906 16:47:27.191027 19724 net.cpp:115] Creating Layer inception_3b/5x5
I0906 16:47:27.191040 19724 net.cpp:516] inception_3b/5x5 <- inception_3b/5x5_reduce
I0906 16:47:27.191058 19724 net.cpp:490] inception_3b/5x5 -> inception_3b/5x5
I0906 16:47:27.191810 19724 net.cpp:153] Setting up inception_3b/5x5
I0906 16:47:27.191835 19724 net.cpp:160] Top shape: 50 96 28 28 (3763200)
I0906 16:47:27.191846 19724 net.cpp:168] Memory required for data: 1535387600
I0906 16:47:27.191861 19724 layer_factory.hpp:77] Creating layer inception_3b/relu_5x5
I0906 16:47:27.191881 19724 net.cpp:115] Creating Layer inception_3b/relu_5x5
I0906 16:47:27.191900 19724 net.cpp:516] inception_3b/relu_5x5 <- inception_3b/5x5
I0906 16:47:27.191916 19724 net.cpp:477] inception_3b/relu_5x5 -> inception_3b/5x5 (in-place)
I0906 16:47:27.191942 19724 net.cpp:153] Setting up inception_3b/relu_5x5
I0906 16:47:27.191985 19724 net.cpp:160] Top shape: 50 96 28 28 (3763200)
I0906 16:47:27.192013 19724 net.cpp:168] Memory required for data: 1550440400
I0906 16:47:27.192061 19724 layer_factory.hpp:77] Creating layer inception_3b/pool
I0906 16:47:27.192106 19724 net.cpp:115] Creating Layer inception_3b/pool
I0906 16:47:27.192127 19724 net.cpp:516] inception_3b/pool <- inception_3a/output_inception_3a/output_0_split_3
I0906 16:47:27.192152 19724 net.cpp:490] inception_3b/pool -> inception_3b/pool
I0906 16:47:27.192242 19724 net.cpp:153] Setting up inception_3b/pool
I0906 16:47:27.192271 19724 net.cpp:160] Top shape: 50 256 28 28 (10035200)
I0906 16:47:27.192284 19724 net.cpp:168] Memory required for data: 1590581200
I0906 16:47:27.192297 19724 layer_factory.hpp:77] Creating layer inception_3b/pool_proj
I0906 16:47:27.192337 19724 net.cpp:115] Creating Layer inception_3b/pool_proj
I0906 16:47:27.192364 19724 net.cpp:516] inception_3b/pool_proj <- inception_3b/pool
I0906 16:47:27.192396 19724 net.cpp:490] inception_3b/pool_proj -> inception_3b/pool_proj
I0906 16:47:27.192875 19724 net.cpp:153] Setting up inception_3b/pool_proj
I0906 16:47:27.192905 19724 net.cpp:160] Top shape: 50 64 28 28 (2508800)
I0906 16:47:27.192919 19724 net.cpp:168] Memory required for data: 1600616400
I0906 16:47:27.192939 19724 layer_factory.hpp:77] Creating layer inception_3b/relu_pool_proj
I0906 16:47:27.192965 19724 net.cpp:115] Creating Layer inception_3b/relu_pool_proj
I0906 16:47:27.192984 19724 net.cpp:516] inception_3b/relu_pool_proj <- inception_3b/pool_proj
I0906 16:47:27.193051 19724 net.cpp:477] inception_3b/relu_pool_proj -> inception_3b/pool_proj (in-place)
I0906 16:47:27.193070 19724 net.cpp:153] Setting up inception_3b/relu_pool_proj
I0906 16:47:27.193090 19724 net.cpp:160] Top shape: 50 64 28 28 (2508800)
I0906 16:47:27.193104 19724 net.cpp:168] Memory required for data: 1610651600
I0906 16:47:27.193117 19724 layer_factory.hpp:77] Creating layer inception_3b/output
I0906 16:47:27.193133 19724 net.cpp:115] Creating Layer inception_3b/output
I0906 16:47:27.193150 19724 net.cpp:516] inception_3b/output <- inception_3b/1x1
I0906 16:47:27.193166 19724 net.cpp:516] inception_3b/output <- inception_3b/3x3
I0906 16:47:27.193183 19724 net.cpp:516] inception_3b/output <- inception_3b/5x5
I0906 16:47:27.193200 19724 net.cpp:516] inception_3b/output <- inception_3b/pool_proj
I0906 16:47:27.193248 19724 net.cpp:490] inception_3b/output -> inception_3b/output
I0906 16:47:27.193331 19724 net.cpp:153] Setting up inception_3b/output
I0906 16:47:27.193383 19724 net.cpp:160] Top shape: 50 480 28 28 (18816000)
I0906 16:47:27.193405 19724 net.cpp:168] Memory required for data: 1685915600
I0906 16:47:27.193423 19724 layer_factory.hpp:77] Creating layer pool3/3x3_s2
I0906 16:47:27.193488 19724 net.cpp:115] Creating Layer pool3/3x3_s2
I0906 16:47:27.193509 19724 net.cpp:516] pool3/3x3_s2 <- inception_3b/output
I0906 16:47:27.193532 19724 net.cpp:490] pool3/3x3_s2 -> pool3/3x3_s2
I0906 16:47:27.193615 19724 net.cpp:153] Setting up pool3/3x3_s2
I0906 16:47:27.193645 19724 net.cpp:160] Top shape: 50 480 14 14 (4704000)
I0906 16:47:27.193719 19724 net.cpp:168] Memory required for data: 1704731600
I0906 16:47:27.193739 19724 layer_factory.hpp:77] Creating layer pool3/3x3_s2_pool3/3x3_s2_0_split
I0906 16:47:27.193761 19724 net.cpp:115] Creating Layer pool3/3x3_s2_pool3/3x3_s2_0_split
I0906 16:47:27.193778 19724 net.cpp:516] pool3/3x3_s2_pool3/3x3_s2_0_split <- pool3/3x3_s2
I0906 16:47:27.193802 19724 net.cpp:490] pool3/3x3_s2_pool3/3x3_s2_0_split -> pool3/3x3_s2_pool3/3x3_s2_0_split_0
I0906 16:47:27.193830 19724 net.cpp:490] pool3/3x3_s2_pool3/3x3_s2_0_split -> pool3/3x3_s2_pool3/3x3_s2_0_split_1
I0906 16:47:27.193850 19724 net.cpp:490] pool3/3x3_s2_pool3/3x3_s2_0_split -> pool3/3x3_s2_pool3/3x3_s2_0_split_2
I0906 16:47:27.193868 19724 net.cpp:490] pool3/3x3_s2_pool3/3x3_s2_0_split -> pool3/3x3_s2_pool3/3x3_s2_0_split_3
I0906 16:47:27.193948 19724 net.cpp:153] Setting up pool3/3x3_s2_pool3/3x3_s2_0_split
I0906 16:47:27.193985 19724 net.cpp:160] Top shape: 50 480 14 14 (4704000)
I0906 16:47:27.194006 19724 net.cpp:160] Top shape: 50 480 14 14 (4704000)
I0906 16:47:27.194023 19724 net.cpp:160] Top shape: 50 480 14 14 (4704000)
I0906 16:47:27.194042 19724 net.cpp:160] Top shape: 50 480 14 14 (4704000)
I0906 16:47:27.194059 19724 net.cpp:168] Memory required for data: 1779995600
I0906 16:47:27.194078 19724 layer_factory.hpp:77] Creating layer inception_4a/1x1
I0906 16:47:27.194139 19724 net.cpp:115] Creating Layer inception_4a/1x1
I0906 16:47:27.194162 19724 net.cpp:516] inception_4a/1x1 <- pool3/3x3_s2_pool3/3x3_s2_0_split_0
I0906 16:47:27.194196 19724 net.cpp:490] inception_4a/1x1 -> inception_4a/1x1
I0906 16:47:27.197105 19724 net.cpp:153] Setting up inception_4a/1x1
I0906 16:47:27.197173 19724 net.cpp:160] Top shape: 50 192 14 14 (1881600)
I0906 16:47:27.197192 19724 net.cpp:168] Memory required for data: 1787522000
I0906 16:47:27.197232 19724 layer_factory.hpp:77] Creating layer inception_4a/relu_1x1
I0906 16:47:27.197286 19724 net.cpp:115] Creating Layer inception_4a/relu_1x1
I0906 16:47:27.197316 19724 net.cpp:516] inception_4a/relu_1x1 <- inception_4a/1x1
I0906 16:47:27.197345 19724 net.cpp:477] inception_4a/relu_1x1 -> inception_4a/1x1 (in-place)
I0906 16:47:27.197388 19724 net.cpp:153] Setting up inception_4a/relu_1x1
I0906 16:47:27.197417 19724 net.cpp:160] Top shape: 50 192 14 14 (1881600)
I0906 16:47:27.197435 19724 net.cpp:168] Memory required for data: 1795048400
I0906 16:47:27.197455 19724 layer_factory.hpp:77] Creating layer inception_4a/3x3_reduce
I0906 16:47:27.197510 19724 net.cpp:115] Creating Layer inception_4a/3x3_reduce
I0906 16:47:27.197540 19724 net.cpp:516] inception_4a/3x3_reduce <- pool3/3x3_s2_pool3/3x3_s2_0_split_1
I0906 16:47:27.197577 19724 net.cpp:490] inception_4a/3x3_reduce -> inception_4a/3x3_reduce
I0906 16:47:27.198320 19724 net.cpp:153] Setting up inception_4a/3x3_reduce
I0906 16:47:27.198365 19724 net.cpp:160] Top shape: 50 96 14 14 (940800)
I0906 16:47:27.198384 19724 net.cpp:168] Memory required for data: 1798811600
I0906 16:47:27.198457 19724 layer_factory.hpp:77] Creating layer inception_4a/relu_3x3_reduce
I0906 16:47:27.198501 19724 net.cpp:115] Creating Layer inception_4a/relu_3x3_reduce
I0906 16:47:27.198534 19724 net.cpp:516] inception_4a/relu_3x3_reduce <- inception_4a/3x3_reduce
I0906 16:47:27.198566 19724 net.cpp:477] inception_4a/relu_3x3_reduce -> inception_4a/3x3_reduce (in-place)
I0906 16:47:27.198606 19724 net.cpp:153] Setting up inception_4a/relu_3x3_reduce
I0906 16:47:27.198639 19724 net.cpp:160] Top shape: 50 96 14 14 (940800)
I0906 16:47:27.198662 19724 net.cpp:168] Memory required for data: 1802574800
I0906 16:47:27.198680 19724 layer_factory.hpp:77] Creating layer inception_4a/3x3
I0906 16:47:27.198717 19724 net.cpp:115] Creating Layer inception_4a/3x3
I0906 16:47:27.198734 19724 net.cpp:516] inception_4a/3x3 <- inception_4a/3x3_reduce
I0906 16:47:27.198760 19724 net.cpp:490] inception_4a/3x3 -> inception_4a/3x3
I0906 16:47:27.200557 19724 net.cpp:153] Setting up inception_4a/3x3
I0906 16:47:27.200593 19724 net.cpp:160] Top shape: 50 208 14 14 (2038400)
I0906 16:47:27.200603 19724 net.cpp:168] Memory required for data: 1810728400
I0906 16:47:27.200664 19724 layer_factory.hpp:77] Creating layer inception_4a/relu_3x3
I0906 16:47:27.200692 19724 net.cpp:115] Creating Layer inception_4a/relu_3x3
I0906 16:47:27.200723 19724 net.cpp:516] inception_4a/relu_3x3 <- inception_4a/3x3
I0906 16:47:27.200779 19724 net.cpp:477] inception_4a/relu_3x3 -> inception_4a/3x3 (in-place)
I0906 16:47:27.200836 19724 net.cpp:153] Setting up inception_4a/relu_3x3
I0906 16:47:27.200871 19724 net.cpp:160] Top shape: 50 208 14 14 (2038400)
I0906 16:47:27.200891 19724 net.cpp:168] Memory required for data: 1818882000
I0906 16:47:27.200911 19724 layer_factory.hpp:77] Creating layer inception_4a/5x5_reduce
I0906 16:47:27.200956 19724 net.cpp:115] Creating Layer inception_4a/5x5_reduce
I0906 16:47:27.200981 19724 net.cpp:516] inception_4a/5x5_reduce <- pool3/3x3_s2_pool3/3x3_s2_0_split_2
I0906 16:47:27.201015 19724 net.cpp:490] inception_4a/5x5_reduce -> inception_4a/5x5_reduce
I0906 16:47:27.201400 19724 net.cpp:153] Setting up inception_4a/5x5_reduce
I0906 16:47:27.201436 19724 net.cpp:160] Top shape: 50 16 14 14 (156800)
I0906 16:47:27.201450 19724 net.cpp:168] Memory required for data: 1819509200
I0906 16:47:27.201474 19724 layer_factory.hpp:77] Creating layer inception_4a/relu_5x5_reduce
I0906 16:47:27.201511 19724 net.cpp:115] Creating Layer inception_4a/relu_5x5_reduce
I0906 16:47:27.201534 19724 net.cpp:516] inception_4a/relu_5x5_reduce <- inception_4a/5x5_reduce
I0906 16:47:27.201562 19724 net.cpp:477] inception_4a/relu_5x5_reduce -> inception_4a/5x5_reduce (in-place)
I0906 16:47:27.201584 19724 net.cpp:153] Setting up inception_4a/relu_5x5_reduce
I0906 16:47:27.201603 19724 net.cpp:160] Top shape: 50 16 14 14 (156800)
I0906 16:47:27.201625 19724 net.cpp:168] Memory required for data: 1820136400
I0906 16:47:27.201681 19724 layer_factory.hpp:77] Creating layer inception_4a/5x5
I0906 16:47:27.201735 19724 net.cpp:115] Creating Layer inception_4a/5x5
I0906 16:47:27.201756 19724 net.cpp:516] inception_4a/5x5 <- inception_4a/5x5_reduce
I0906 16:47:27.201783 19724 net.cpp:490] inception_4a/5x5 -> inception_4a/5x5
I0906 16:47:27.202234 19724 net.cpp:153] Setting up inception_4a/5x5
I0906 16:47:27.202275 19724 net.cpp:160] Top shape: 50 48 14 14 (470400)
I0906 16:47:27.202291 19724 net.cpp:168] Memory required for data: 1822018000
I0906 16:47:27.202316 19724 layer_factory.hpp:77] Creating layer inception_4a/relu_5x5
I0906 16:47:27.202345 19724 net.cpp:115] Creating Layer inception_4a/relu_5x5
I0906 16:47:27.202364 19724 net.cpp:516] inception_4a/relu_5x5 <- inception_4a/5x5
I0906 16:47:27.202394 19724 net.cpp:477] inception_4a/relu_5x5 -> inception_4a/5x5 (in-place)
I0906 16:47:27.202425 19724 net.cpp:153] Setting up inception_4a/relu_5x5
I0906 16:47:27.202447 19724 net.cpp:160] Top shape: 50 48 14 14 (470400)
I0906 16:47:27.202461 19724 net.cpp:168] Memory required for data: 1823899600
I0906 16:47:27.202473 19724 layer_factory.hpp:77] Creating layer inception_4a/pool
I0906 16:47:27.202499 19724 net.cpp:115] Creating Layer inception_4a/pool
I0906 16:47:27.202524 19724 net.cpp:516] inception_4a/pool <- pool3/3x3_s2_pool3/3x3_s2_0_split_3
I0906 16:47:27.202555 19724 net.cpp:490] inception_4a/pool -> inception_4a/pool
I0906 16:47:27.202656 19724 net.cpp:153] Setting up inception_4a/pool
I0906 16:47:27.202692 19724 net.cpp:160] Top shape: 50 480 14 14 (4704000)
I0906 16:47:27.202708 19724 net.cpp:168] Memory required for data: 1842715600
I0906 16:47:27.202721 19724 layer_factory.hpp:77] Creating layer inception_4a/pool_proj
I0906 16:47:27.202765 19724 net.cpp:115] Creating Layer inception_4a/pool_proj
I0906 16:47:27.202783 19724 net.cpp:516] inception_4a/pool_proj <- inception_4a/pool
I0906 16:47:27.202812 19724 net.cpp:490] inception_4a/pool_proj -> inception_4a/pool_proj
I0906 16:47:27.203377 19724 net.cpp:153] Setting up inception_4a/pool_proj
I0906 16:47:27.203399 19724 net.cpp:160] Top shape: 50 64 14 14 (627200)
I0906 16:47:27.203411 19724 net.cpp:168] Memory required for data: 1845224400
I0906 16:47:27.203433 19724 layer_factory.hpp:77] Creating layer inception_4a/relu_pool_proj
I0906 16:47:27.203501 19724 net.cpp:115] Creating Layer inception_4a/relu_pool_proj
I0906 16:47:27.203519 19724 net.cpp:516] inception_4a/relu_pool_proj <- inception_4a/pool_proj
I0906 16:47:27.203532 19724 net.cpp:477] inception_4a/relu_pool_proj -> inception_4a/pool_proj (in-place)
I0906 16:47:27.203554 19724 net.cpp:153] Setting up inception_4a/relu_pool_proj
I0906 16:47:27.203570 19724 net.cpp:160] Top shape: 50 64 14 14 (627200)
I0906 16:47:27.203582 19724 net.cpp:168] Memory required for data: 1847733200
I0906 16:47:27.203591 19724 layer_factory.hpp:77] Creating layer inception_4a/output
I0906 16:47:27.203609 19724 net.cpp:115] Creating Layer inception_4a/output
I0906 16:47:27.203621 19724 net.cpp:516] inception_4a/output <- inception_4a/1x1
I0906 16:47:27.203634 19724 net.cpp:516] inception_4a/output <- inception_4a/3x3
I0906 16:47:27.203645 19724 net.cpp:516] inception_4a/output <- inception_4a/5x5
I0906 16:47:27.203658 19724 net.cpp:516] inception_4a/output <- inception_4a/pool_proj
I0906 16:47:27.203671 19724 net.cpp:490] inception_4a/output -> inception_4a/output
I0906 16:47:27.203713 19724 net.cpp:153] Setting up inception_4a/output
I0906 16:47:27.203728 19724 net.cpp:160] Top shape: 50 512 14 14 (5017600)
I0906 16:47:27.203737 19724 net.cpp:168] Memory required for data: 1867803600
I0906 16:47:27.203747 19724 layer_factory.hpp:77] Creating layer inception_4a/output_inception_4a/output_0_split
I0906 16:47:27.203773 19724 net.cpp:115] Creating Layer inception_4a/output_inception_4a/output_0_split
I0906 16:47:27.203793 19724 net.cpp:516] inception_4a/output_inception_4a/output_0_split <- inception_4a/output
I0906 16:47:27.203806 19724 net.cpp:490] inception_4a/output_inception_4a/output_0_split -> inception_4a/output_inception_4a/output_0_split_0
I0906 16:47:27.203832 19724 net.cpp:490] inception_4a/output_inception_4a/output_0_split -> inception_4a/output_inception_4a/output_0_split_1
I0906 16:47:27.203869 19724 net.cpp:490] inception_4a/output_inception_4a/output_0_split -> inception_4a/output_inception_4a/output_0_split_2
I0906 16:47:27.203910 19724 net.cpp:490] inception_4a/output_inception_4a/output_0_split -> inception_4a/output_inception_4a/output_0_split_3
I0906 16:47:27.203948 19724 net.cpp:490] inception_4a/output_inception_4a/output_0_split -> inception_4a/output_inception_4a/output_0_split_4
I0906 16:47:27.204083 19724 net.cpp:153] Setting up inception_4a/output_inception_4a/output_0_split
I0906 16:47:27.204109 19724 net.cpp:160] Top shape: 50 512 14 14 (5017600)
I0906 16:47:27.204125 19724 net.cpp:160] Top shape: 50 512 14 14 (5017600)
I0906 16:47:27.204138 19724 net.cpp:160] Top shape: 50 512 14 14 (5017600)
I0906 16:47:27.204149 19724 net.cpp:160] Top shape: 50 512 14 14 (5017600)
I0906 16:47:27.204165 19724 net.cpp:160] Top shape: 50 512 14 14 (5017600)
I0906 16:47:27.204179 19724 net.cpp:168] Memory required for data: 1968155600
I0906 16:47:27.204200 19724 layer_factory.hpp:77] Creating layer loss1/ave_pool
I0906 16:47:27.204254 19724 net.cpp:115] Creating Layer loss1/ave_pool
I0906 16:47:27.204280 19724 net.cpp:516] loss1/ave_pool <- inception_4a/output_inception_4a/output_0_split_0
I0906 16:47:27.204319 19724 net.cpp:490] loss1/ave_pool -> loss1/ave_pool
I0906 16:47:27.204418 19724 net.cpp:153] Setting up loss1/ave_pool
I0906 16:47:27.204442 19724 net.cpp:160] Top shape: 50 512 4 4 (409600)
I0906 16:47:27.204452 19724 net.cpp:168] Memory required for data: 1969794000
I0906 16:47:27.204464 19724 layer_factory.hpp:77] Creating layer loss1/conv
I0906 16:47:27.204497 19724 net.cpp:115] Creating Layer loss1/conv
I0906 16:47:27.204519 19724 net.cpp:516] loss1/conv <- loss1/ave_pool
I0906 16:47:27.204546 19724 net.cpp:490] loss1/conv -> loss1/conv
I0906 16:47:27.205277 19724 net.cpp:153] Setting up loss1/conv
I0906 16:47:27.205317 19724 net.cpp:160] Top shape: 50 128 4 4 (102400)
I0906 16:47:27.205333 19724 net.cpp:168] Memory required for data: 1970203600
I0906 16:47:27.205363 19724 layer_factory.hpp:77] Creating layer loss1/relu_conv
I0906 16:47:27.205436 19724 net.cpp:115] Creating Layer loss1/relu_conv
I0906 16:47:27.205469 19724 net.cpp:516] loss1/relu_conv <- loss1/conv
I0906 16:47:27.205510 19724 net.cpp:477] loss1/relu_conv -> loss1/conv (in-place)
I0906 16:47:27.205574 19724 net.cpp:153] Setting up loss1/relu_conv
I0906 16:47:27.205600 19724 net.cpp:160] Top shape: 50 128 4 4 (102400)
I0906 16:47:27.205621 19724 net.cpp:168] Memory required for data: 1970613200
I0906 16:47:27.205637 19724 layer_factory.hpp:77] Creating layer loss1/fc
I0906 16:47:27.205679 19724 net.cpp:115] Creating Layer loss1/fc
I0906 16:47:27.205700 19724 net.cpp:516] loss1/fc <- loss1/conv
I0906 16:47:27.205737 19724 net.cpp:490] loss1/fc -> loss1/fc
I0906 16:47:27.234627 19724 net.cpp:153] Setting up loss1/fc
I0906 16:47:27.234789 19724 net.cpp:160] Top shape: 50 1024 (51200)
I0906 16:47:27.234802 19724 net.cpp:168] Memory required for data: 1970818000
I0906 16:47:27.234817 19724 layer_factory.hpp:77] Creating layer loss1/relu_fc
I0906 16:47:27.234836 19724 net.cpp:115] Creating Layer loss1/relu_fc
I0906 16:47:27.234848 19724 net.cpp:516] loss1/relu_fc <- loss1/fc
I0906 16:47:27.234859 19724 net.cpp:477] loss1/relu_fc -> loss1/fc (in-place)
I0906 16:47:27.234876 19724 net.cpp:153] Setting up loss1/relu_fc
I0906 16:47:27.234884 19724 net.cpp:160] Top shape: 50 1024 (51200)
I0906 16:47:27.234887 19724 net.cpp:168] Memory required for data: 1971022800
I0906 16:47:27.234894 19724 layer_factory.hpp:77] Creating layer loss1/drop_fc
I0906 16:47:27.234978 19724 net.cpp:115] Creating Layer loss1/drop_fc
I0906 16:47:27.235041 19724 net.cpp:516] loss1/drop_fc <- loss1/fc
I0906 16:47:27.235064 19724 net.cpp:477] loss1/drop_fc -> loss1/fc (in-place)
I0906 16:47:27.235138 19724 net.cpp:153] Setting up loss1/drop_fc
I0906 16:47:27.235159 19724 net.cpp:160] Top shape: 50 1024 (51200)
I0906 16:47:27.235170 19724 net.cpp:168] Memory required for data: 1971227600
I0906 16:47:27.235185 19724 layer_factory.hpp:77] Creating layer loss1/classifier
I0906 16:47:27.235250 19724 net.cpp:115] Creating Layer loss1/classifier
I0906 16:47:27.235266 19724 net.cpp:516] loss1/classifier <- loss1/fc
I0906 16:47:27.235291 19724 net.cpp:490] loss1/classifier -> loss1/classifier
I0906 16:47:27.253581 19724 net.cpp:153] Setting up loss1/classifier
I0906 16:47:27.253738 19724 net.cpp:160] Top shape: 50 1000 (50000)
I0906 16:47:27.253799 19724 net.cpp:168] Memory required for data: 1971427600
I0906 16:47:27.253854 19724 layer_factory.hpp:77] Creating layer loss1/classifier_loss1/classifier_0_split
I0906 16:47:27.253921 19724 net.cpp:115] Creating Layer loss1/classifier_loss1/classifier_0_split
I0906 16:47:27.254005 19724 net.cpp:516] loss1/classifier_loss1/classifier_0_split <- loss1/classifier
I0906 16:47:27.254196 19724 net.cpp:490] loss1/classifier_loss1/classifier_0_split -> loss1/classifier_loss1/classifier_0_split_0
I0906 16:47:27.254320 19724 net.cpp:490] loss1/classifier_loss1/classifier_0_split -> loss1/classifier_loss1/classifier_0_split_1
I0906 16:47:27.254449 19724 net.cpp:490] loss1/classifier_loss1/classifier_0_split -> loss1/classifier_loss1/classifier_0_split_2
I0906 16:47:27.254583 19724 net.cpp:153] Setting up loss1/classifier_loss1/classifier_0_split
I0906 16:47:27.254633 19724 net.cpp:160] Top shape: 50 1000 (50000)
I0906 16:47:27.254688 19724 net.cpp:160] Top shape: 50 1000 (50000)
I0906 16:47:27.254745 19724 net.cpp:160] Top shape: 50 1000 (50000)
I0906 16:47:27.254817 19724 net.cpp:168] Memory required for data: 1972027600
I0906 16:47:27.254889 19724 layer_factory.hpp:77] Creating layer loss1/loss
I0906 16:47:27.254990 19724 net.cpp:115] Creating Layer loss1/loss
I0906 16:47:27.255075 19724 net.cpp:516] loss1/loss <- loss1/classifier_loss1/classifier_0_split_0
I0906 16:47:27.255136 19724 net.cpp:516] loss1/loss <- label_data_1_split_0
…
I0906 16:47:27.257369 19724 net.cpp:153] Setting up loss1/top-5
I0906 16:47:27.257416 19724 net.cpp:160] Top shape: (1)
I0906 16:47:27.257508 19724 net.cpp:168] Memory required for data: 1972027612
I0906 16:47:27.257573 19724 layer_factory.hpp:77] Creating layer inception_4b/1x1
I0906 16:47:27.257657 19724 net.cpp:115] Creating Layer inception_4b/1x1
I0906 16:47:27.257702 19724 net.cpp:516] inception_4b/1x1 <- inception_4a/output_inception_4a/output_0_split_1
I0906 16:47:27.257751 19724 net.cpp:490] inception_4b/1x1 -> inception_4b/1x1
I0906 16:47:27.258831 19724 net.cpp:153] Setting up inception_4b/1x1
I0906 16:47:27.258872 19724 net.cpp:160] Top shape: 50 160 14 14 (1568000)
I0906 16:47:27.258883 19724 net.cpp:168] Memory required for data: 1978299612
I0906 16:47:27.258903 19724 layer_factory.hpp:77] Creating layer inception_4b/relu_1x1
I0906 16:47:27.258920 19724 net.cpp:115] Creating Layer inception_4b/relu_1x1
I0906 16:47:27.258934 19724 net.cpp:516] inception_4b/relu_1x1 <- inception_4b/1x1
I0906 16:47:27.258949 19724 net.cpp:477] inception_4b/relu_1x1 -> inception_4b/1x1 (in-place)
I0906 16:47:27.258960 19724 net.cpp:153] Setting up inception_4b/relu_1x1
I0906 16:47:27.258967 19724 net.cpp:160] Top shape: 50 160 14 14 (1568000)
I0906 16:47:27.258972 19724 net.cpp:168] Memory required for data: 1984571612
I0906 16:47:27.258985 19724 layer_factory.hpp:77] Creating layer inception_4b/3x3_reduce
I0906 16:47:27.258998 19724 net.cpp:115] Creating Layer inception_4b/3x3_reduce
I0906 16:47:27.259004 19724 net.cpp:516] inception_4b/3x3_reduce <- inception_4a/output_inception_4a/output_0_split_2
I0906 16:47:27.259014 19724 net.cpp:490] inception_4b/3x3_reduce -> inception_4b/3x3_reduce
I0906 16:47:27.259706 19724 net.cpp:153] Setting up inception_4b/3x3_reduce
I0906 16:47:27.259747 19724 net.cpp:160] Top shape: 50 112 14 14 (1097600)
I0906 16:47:27.259763 19724 net.cpp:168] Memory required for data: 1988962012
I0906 16:47:27.259788 19724 layer_factory.hpp:77] Creating layer inception_4b/relu_3x3_reduce
I0906 16:47:27.259817 19724 net.cpp:115] Creating Layer inception_4b/relu_3x3_reduce
I0906 16:47:27.259833 19724 net.cpp:516] inception_4b/relu_3x3_reduce <- inception_4b/3x3_reduce
I0906 16:47:27.259869 19724 net.cpp:477] inception_4b/relu_3x3_reduce -> inception_4b/3x3_reduce (in-place)
I0906 16:47:27.259887 19724 net.cpp:153] Setting up inception_4b/relu_3x3_reduce
I0906 16:47:27.259930 19724 net.cpp:160] Top shape: 50 112 14 14 (1097600)
I0906 16:47:27.259948 19724 net.cpp:168] Memory required for data: 1993352412
I0906 16:47:27.259964 19724 layer_factory.hpp:77] Creating layer inception_4b/3x3
I0906 16:47:27.260001 19724 net.cpp:115] Creating Layer inception_4b/3x3
I0906 16:47:27.260028 19724 net.cpp:516] inception_4b/3x3 <- inception_4b/3x3_reduce
I0906 16:47:27.260072 19724 net.cpp:490] inception_4b/3x3 -> inception_4b/3x3
I0906 16:47:27.264160 19724 net.cpp:153] Setting up inception_4b/3x3
I0906 16:47:27.264245 19724 net.cpp:160] Top shape: 50 224 14 14 (2195200)
I0906 16:47:27.264313 19724 net.cpp:168] Memory required for data: 2002133212
I0906 16:47:27.264365 19724 layer_factory.hpp:77] Creating layer inception_4b/relu_3x3
I0906 16:47:27.264417 19724 net.cpp:115] Creating Layer inception_4b/relu_3x3
I0906 16:47:27.264443 19724 net.cpp:516] inception_4b/relu_3x3 <- inception_4b/3x3
I0906 16:47:27.264472 19724 net.cpp:477] inception_4b/relu_3x3 -> inception_4b/3x3 (in-place)
I0906 16:47:27.264499 19724 net.cpp:153] Setting up inception_4b/relu_3x3
I0906 16:47:27.264515 19724 net.cpp:160] Top shape: 50 224 14 14 (2195200)
I0906 16:47:27.264528 19724 net.cpp:168] Memory required for data: 2010914012
I0906 16:47:27.264545 19724 layer_factory.hpp:77] Creating layer inception_4b/5x5_reduce
I0906 16:47:27.264608 19724 net.cpp:115] Creating Layer inception_4b/5x5_reduce
I0906 16:47:27.264629 19724 net.cpp:516] inception_4b/5x5_reduce <- inception_4a/output_inception_4a/output_0_split_3
I0906 16:47:27.264649 19724 net.cpp:490] inception_4b/5x5_reduce -> inception_4b/5x5_reduce
I0906 16:47:27.265110 19724 net.cpp:153] Setting up inception_4b/5x5_reduce
I0906 16:47:27.265143 19724 net.cpp:160] Top shape: 50 24 14 14 (235200)
I0906 16:47:27.265154 19724 net.cpp:168] Memory required for data: 2011854812
I0906 16:47:27.265172 19724 layer_factory.hpp:77] Creating layer inception_4b/relu_5x5_reduce
I0906 16:47:27.265192 19724 net.cpp:115] Creating Layer inception_4b/relu_5x5_reduce
I0906 16:47:27.265214 19724 net.cpp:516] inception_4b/relu_5x5_reduce <- inception_4b/5x5_reduce
I0906 16:47:27.265254 19724 net.cpp:477] inception_4b/relu_5x5_reduce -> inception_4b/5x5_reduce (in-place)
I0906 16:47:27.265277 19724 net.cpp:153] Setting up inception_4b/relu_5x5_reduce
I0906 16:47:27.265303 19724 net.cpp:160] Top shape: 50 24 14 14 (235200)
I0906 16:47:27.265323 19724 net.cpp:168] Memory required for data: 2012795612
I0906 16:47:27.265344 19724 layer_factory.hpp:77] Creating layer inception_4b/5x5
I0906 16:47:27.265393 19724 net.cpp:115] Creating Layer inception_4b/5x5
I0906 16:47:27.265417 19724 net.cpp:516] inception_4b/5x5 <- inception_4b/5x5_reduce
I0906 16:47:27.265449 19724 net.cpp:490] inception_4b/5x5 -> inception_4b/5x5
I0906 16:47:27.266116 19724 net.cpp:153] Setting up inception_4b/5x5
I0906 16:47:27.266156 19724 net.cpp:160] Top shape: 50 64 14 14 (627200)
I0906 16:47:27.266170 19724 net.cpp:168] Memory required for data: 2015304412
I0906 16:47:27.266199 19724 layer_factory.hpp:77] Creating layer inception_4b/relu_5x5
I0906 16:47:27.266228 19724 net.cpp:115] Creating Layer inception_4b/relu_5x5
I0906 16:47:27.266263 19724 net.cpp:516] inception_4b/relu_5x5 <- inception_4b/5x5
I0906 16:47:27.266280 19724 net.cpp:477] inception_4b/relu_5x5 -> inception_4b/5x5 (in-place)
I0906 16:47:27.266299 19724 net.cpp:153] Setting up inception_4b/relu_5x5
I0906 16:47:27.266314 19724 net.cpp:160] Top shape: 50 64 14 14 (627200)
I0906 16:47:27.266324 19724 net.cpp:168] Memory required for data: 2017813212
I0906 16:47:27.266335 19724 layer_factory.hpp:77] Creating layer inception_4b/pool
I0906 16:47:27.266360 19724 net.cpp:115] Creating Layer inception_4b/pool
I0906 16:47:27.266379 19724 net.cpp:516] inception_4b/pool <- inception_4a/output_inception_4a/output_0_split_4
I0906 16:47:27.266407 19724 net.cpp:490] inception_4b/pool -> inception_4b/pool
I0906 16:47:27.266506 19724 net.cpp:153] Setting up inception_4b/pool
I0906 16:47:27.266556 19724 net.cpp:160] Top shape: 50 512 14 14 (5017600)
I0906 16:47:27.266567 19724 net.cpp:168] Memory required for data: 2037883612
I0906 16:47:27.266582 19724 layer_factory.hpp:77] Creating layer inception_4b/pool_proj
I0906 16:47:27.266611 19724 net.cpp:115] Creating Layer inception_4b/pool_proj
I0906 16:47:27.266629 19724 net.cpp:516] inception_4b/pool_proj <- inception_4b/pool
I0906 16:47:27.266670 19724 net.cpp:490] inception_4b/pool_proj -> inception_4b/pool_proj
I0906 16:47:27.267307 19724 net.cpp:153] Setting up inception_4b/pool_proj
I0906 16:47:27.267351 19724 net.cpp:160] Top shape: 50 64 14 14 (627200)
I0906 16:47:27.267366 19724 net.cpp:168] Memory required for data: 2040392412
I0906 16:47:27.267459 19724 layer_factory.hpp:77] Creating layer inception_4b/relu_pool_proj
I0906 16:47:27.267482 19724 net.cpp:115] Creating Layer inception_4b/relu_pool_proj
I0906 16:47:27.267496 19724 net.cpp:516] inception_4b/relu_pool_proj <- inception_4b/pool_proj
I0906 16:47:27.267515 19724 net.cpp:477] inception_4b/relu_pool_proj -> inception_4b/pool_proj (in-place)
I0906 16:47:27.267550 19724 net.cpp:153] Setting up inception_4b/relu_pool_proj
I0906 16:47:27.267567 19724 net.cpp:160] Top shape: 50 64 14 14 (627200)
I0906 16:47:27.267583 19724 net.cpp:168] Memory required for data: 2042901212
I0906 16:47:27.267627 19724 layer_factory.hpp:77] Creating layer inception_4b/output
I0906 16:47:27.267665 19724 net.cpp:115] Creating Layer inception_4b/output
I0906 16:47:27.267693 19724 net.cpp:516] inception_4b/output <- inception_4b/1x1
I0906 16:47:27.267729 19724 net.cpp:516] inception_4b/output <- inception_4b/3x3
I0906 16:47:27.267742 19724 net.cpp:516] inception_4b/output <- inception_4b/5x5
I0906 16:47:27.267755 19724 net.cpp:516] inception_4b/output <- inception_4b/pool_proj
I0906 16:47:27.267771 19724 net.cpp:490] inception_4b/output -> inception_4b/output
I0906 16:47:27.267829 19724 net.cpp:153] Setting up inception_4b/output
I0906 16:47:27.267863 19724 net.cpp:160] Top shape: 50 512 14 14 (5017600)
I0906 16:47:27.267879 19724 net.cpp:168] Memory required for data: 2062971612
I0906 16:47:27.267895 19724 layer_factory.hpp:77] Creating layer inception_4b/output_inception_4b/output_0_split
I0906 16:47:27.267946 19724 net.cpp:115] Creating Layer inception_4b/output_inception_4b/output_0_split
I0906 16:47:27.267966 19724 net.cpp:516] inception_4b/output_inception_4b/output_0_split <- inception_4b/output
I0906 16:47:27.267987 19724 net.cpp:490] inception_4b/output_inception_4b/output_0_split -> inception_4b/output_inception_4b/output_0_split_0
I0906 16:47:27.268007 19724 net.cpp:490] inception_4b/output_inception_4b/output_0_split -> inception_4b/output_inception_4b/output_0_split_1
I0906 16:47:27.268044 19724 net.cpp:490] inception_4b/output_inception_4b/output_0_split -> inception_4b/output_inception_4b/output_0_split_2
I0906 16:47:27.268086 19724 net.cpp:490] inception_4b/output_inception_4b/output_0_split -> inception_4b/output_inception_4b/output_0_split_3
I0906 16:47:27.268221 19724 net.cpp:153] Setting up inception_4b/output_inception_4b/output_0_split
I0906 16:47:27.268240 19724 net.cpp:160] Top shape: 50 512 14 14 (5017600)
I0906 16:47:27.268254 19724 net.cpp:160] Top shape: 50 512 14 14 (5017600)
I0906 16:47:27.268283 19724 net.cpp:160] Top shape: 50 512 14 14 (5017600)
I0906 16:47:27.268297 19724 net.cpp:160] Top shape: 50 512 14 14 (5017600)
I0906 16:47:27.268308 19724 net.cpp:168] Memory required for data: 2143253212
I0906 16:47:27.268321 19724 layer_factory.hpp:77] Creating layer inception_4c/1x1
I0906 16:47:27.268360 19724 net.cpp:115] Creating Layer inception_4c/1x1
I0906 16:47:27.268383 19724 net.cpp:516] inception_4c/1x1 <- inception_4b/output_inception_4b/output_0_split_0
I0906 16:47:27.268409 19724 net.cpp:490] inception_4c/1x1 -> inception_4c/1x1
I0906 16:47:27.269229 19724 net.cpp:153] Setting up inception_4c/1x1
I0906 16:47:27.269253 19724 net.cpp:160] Top shape: 50 128 14 14 (1254400)
I0906 16:47:27.269263 19724 net.cpp:168] Memory required for data: 2148270812
I0906 16:47:27.269279 19724 layer_factory.hpp:77] Creating layer inception_4c/relu_1x1
I0906 16:47:27.269306 19724 net.cpp:115] Creating Layer inception_4c/relu_1x1
I0906 16:47:27.269328 19724 net.cpp:516] inception_4c/relu_1x1 <- inception_4c/1x1
I0906 16:47:27.269361 19724 net.cpp:477] inception_4c/relu_1x1 -> inception_4c/1x1 (in-place)
I0906 16:47:27.269393 19724 net.cpp:153] Setting up inception_4c/relu_1x1
I0906 16:47:27.269421 19724 net.cpp:160] Top shape: 50 128 14 14 (1254400)
I0906 16:47:27.269438 19724 net.cpp:168] Memory required for data: 2153288412
I0906 16:47:27.269460 19724 layer_factory.hpp:77] Creating layer inception_4c/3x3_reduce
I0906 16:47:27.269503 19724 net.cpp:115] Creating Layer inception_4c/3x3_reduce
I0906 16:47:27.269562 19724 net.cpp:516] inception_4c/3x3_reduce <- inception_4b/output_inception_4b/output_0_split_1
I0906 16:47:27.269606 19724 net.cpp:490] inception_4c/3x3_reduce -> inception_4c/3x3_reduce
I0906 16:47:27.272351 19724 net.cpp:153] Setting up inception_4c/3x3_reduce
I0906 16:47:27.272472 19724 net.cpp:160] Top shape: 50 128 14 14 (1254400)
I0906 16:47:27.272502 19724 net.cpp:168] Memory required for data: 2158306012
I0906 16:47:27.272542 19724 layer_factory.hpp:77] Creating layer inception_4c/relu_3x3_reduce
I0906 16:47:27.272586 19724 net.cpp:115] Creating Layer inception_4c/relu_3x3_reduce
I0906 16:47:27.272622 19724 net.cpp:516] inception_4c/relu_3x3_reduce <- inception_4c/3x3_reduce
I0906 16:47:27.272663 19724 net.cpp:477] inception_4c/relu_3x3_reduce -> inception_4c/3x3_reduce (in-place)
I0906 16:47:27.272711 19724 net.cpp:153] Setting up inception_4c/relu_3x3_reduce
I0906 16:47:27.272740 19724 net.cpp:160] Top shape: 50 128 14 14 (1254400)
I0906 16:47:27.272756 19724 net.cpp:168] Memory required for data: 2163323612
I0906 16:47:27.272819 19724 layer_factory.hpp:77] Creating layer inception_4c/3x3
I0906 16:47:27.272868 19724 net.cpp:115] Creating Layer inception_4c/3x3
I0906 16:47:27.272891 19724 net.cpp:516] inception_4c/3x3 <- inception_4c/3x3_reduce
I0906 16:47:27.272920 19724 net.cpp:490] inception_4c/3x3 -> inception_4c/3x3
I0906 16:47:27.275281 19724 net.cpp:153] Setting up inception_4c/3x3
I0906 16:47:27.275336 19724 net.cpp:160] Top shape: 50 256 14 14 (2508800)
I0906 16:47:27.275365 19724 net.cpp:168] Memory required for data: 2173358812
I0906 16:47:27.275487 19724 layer_factory.hpp:77] Creating layer inception_4c/relu_3x3
I0906 16:47:27.275529 19724 net.cpp:115] Creating Layer inception_4c/relu_3x3
I0906 16:47:27.275555 19724 net.cpp:516] inception_4c/relu_3x3 <- inception_4c/3x3
I0906 16:47:27.275602 19724 net.cpp:477] inception_4c/relu_3x3 -> inception_4c/3x3 (in-place)
I0906 16:47:27.275655 19724 net.cpp:153] Setting up inception_4c/relu_3x3
I0906 16:47:27.275691 19724 net.cpp:160] Top shape: 50 256 14 14 (2508800)
I0906 16:47:27.275714 19724 net.cpp:168] Memory required for data: 2183394012
I0906 16:47:27.275733 19724 layer_factory.hpp:77] Creating layer inception_4c/5x5_reduce
I0906 16:47:27.275775 19724 net.cpp:115] Creating Layer inception_4c/5x5_reduce
I0906 16:47:27.275799 19724 net.cpp:516] inception_4c/5x5_reduce <- inception_4b/output_inception_4b/output_0_split_2
I0906 16:47:27.275841 19724 net.cpp:490] inception_4c/5x5_reduce -> inception_4c/5x5_reduce
I0906 16:47:27.276293 19724 net.cpp:153] Setting up inception_4c/5x5_reduce
I0906 16:47:27.276315 19724 net.cpp:160] Top shape: 50 24 14 14 (235200)
I0906 16:47:27.276327 19724 net.cpp:168] Memory required for data: 2184334812
I0906 16:47:27.276343 19724 layer_factory.hpp:77] Creating layer inception_4c/relu_5x5_reduce
I0906 16:47:27.276365 19724 net.cpp:115] Creating Layer inception_4c/relu_5x5_reduce
I0906 16:47:27.276386 19724 net.cpp:516] inception_4c/relu_5x5_reduce <- inception_4c/5x5_reduce
I0906 16:47:27.276412 19724 net.cpp:477] inception_4c/relu_5x5_reduce -> inception_4c/5x5_reduce (in-place)
I0906 16:47:27.276463 19724 net.cpp:153] Setting up inception_4c/relu_5x5_reduce
I0906 16:47:27.276496 19724 net.cpp:160] Top shape: 50 24 14 14 (235200)
I0906 16:47:27.276517 19724 net.cpp:168] Memory required for data: 2185275612
I0906 16:47:27.276542 19724 layer_factory.hpp:77] Creating layer inception_4c/5x5
I0906 16:47:27.276585 19724 net.cpp:115] Creating Layer inception_4c/5x5
I0906 16:47:27.276609 19724 net.cpp:516] inception_4c/5x5 <- inception_4c/5x5_reduce
I0906 16:47:27.276651 19724 net.cpp:490] inception_4c/5x5 -> inception_4c/5x5
I0906 16:47:27.277375 19724 net.cpp:153] Setting up inception_4c/5x5
I0906 16:47:27.277422 19724 net.cpp:160] Top shape: 50 64 14 14 (627200)
I0906 16:47:27.277442 19724 net.cpp:168] Memory required for data: 2187784412
I0906 16:47:27.277472 19724 layer_factory.hpp:77] Creating layer inception_4c/relu_5x5
I0906 16:47:27.277510 19724 net.cpp:115] Creating Layer inception_4c/relu_5x5
I0906 16:47:27.277571 19724 net.cpp:516] inception_4c/relu_5x5 <- inception_4c/5x5
I0906 16:47:27.277595 19724 net.cpp:477] inception_4c/relu_5x5 -> inception_4c/5x5 (in-place)
I0906 16:47:27.277629 19724 net.cpp:153] Setting up inception_4c/relu_5x5
I0906 16:47:27.277647 19724 net.cpp:160] Top shape: 50 64 14 14 (627200)
I0906 16:47:27.277662 19724 net.cpp:168] Memory required for data: 2190293212
I0906 16:47:27.277701 19724 layer_factory.hpp:77] Creating layer inception_4c/pool
I0906 16:47:27.277737 19724 net.cpp:115] Creating Layer inception_4c/pool
I0906 16:47:27.277755 19724 net.cpp:516] inception_4c/pool <- inception_4b/output_inception_4b/output_0_split_3
I0906 16:47:27.277792 19724 net.cpp:490] inception_4c/pool -> inception_4c/pool
I0906 16:47:27.277889 19724 net.cpp:153] Setting up inception_4c/pool
I0906 16:47:27.277910 19724 net.cpp:160] Top shape: 50 512 14 14 (5017600)
I0906 16:47:27.277926 19724 net.cpp:168] Memory required for data: 2210363612
I0906 16:47:27.277941 19724 layer_factory.hpp:77] Creating layer inception_4c/pool_proj
I0906 16:47:27.278012 19724 net.cpp:115] Creating Layer inception_4c/pool_proj
I0906 16:47:27.278039 19724 net.cpp:516] inception_4c/pool_proj <- inception_4c/pool
I0906 16:47:27.278074 19724 net.cpp:490] inception_4c/pool_proj -> inception_4c/pool_proj
I0906 16:47:27.278722 19724 net.cpp:153] Setting up inception_4c/pool_proj
I0906 16:47:27.278762 19724 net.cpp:160] Top shape: 50 64 14 14 (627200)
I0906 16:47:27.278779 19724 net.cpp:168] Memory required for data: 2212872412
I0906 16:47:27.278805 19724 layer_factory.hpp:77] Creating layer inception_4c/relu_pool_proj
I0906 16:47:27.278852 19724 net.cpp:115] Creating Layer inception_4c/relu_pool_proj
I0906 16:47:27.278882 19724 net.cpp:516] inception_4c/relu_pool_proj <- inception_4c/pool_proj
I0906 16:47:27.278915 19724 net.cpp:477] inception_4c/relu_pool_proj -> inception_4c/pool_proj (in-place)
I0906 16:47:27.278959 19724 net.cpp:153] Setting up inception_4c/relu_pool_proj
I0906 16:47:27.278993 19724 net.cpp:160] Top shape: 50 64 14 14 (627200)
I0906 16:47:27.279039 19724 net.cpp:168] Memory required for data: 2215381212
I0906 16:47:27.279058 19724 layer_factory.hpp:77] Creating layer inception_4c/output
I0906 16:47:27.279088 19724 net.cpp:115] Creating Layer inception_4c/output
I0906 16:47:27.279114 19724 net.cpp:516] inception_4c/output <- inception_4c/1x1
I0906 16:47:27.279145 19724 net.cpp:516] inception_4c/output <- inception_4c/3x3
I0906 16:47:27.279177 19724 net.cpp:516] inception_4c/output <- inception_4c/5x5
I0906 16:47:27.279211 19724 net.cpp:516] inception_4c/output <- inception_4c/pool_proj
I0906 16:47:27.279243 19724 net.cpp:490] inception_4c/output -> inception_4c/output
I0906 16:47:27.279331 19724 net.cpp:153] Setting up inception_4c/output
I0906 16:47:27.279351 19724 net.cpp:160] Top shape: 50 512 14 14 (5017600)
I0906 16:47:27.279364 19724 net.cpp:168] Memory required for data: 2235451612
I0906 16:47:27.279376 19724 layer_factory.hpp:77] Creating layer inception_4c/output_inception_4c/output_0_split
I0906 16:47:27.279419 19724 net.cpp:115] Creating Layer inception_4c/output_inception_4c/output_0_split
I0906 16:47:27.279435 19724 net.cpp:516] inception_4c/output_inception_4c/output_0_split <- inception_4c/output
I0906 16:47:27.279453 19724 net.cpp:490] inception_4c/output_inception_4c/output_0_split -> inception_4c/output_inception_4c/output_0_split_0
I0906 16:47:27.279475 19724 net.cpp:490] inception_4c/output_inception_4c/output_0_split -> inception_4c/output_inception_4c/output_0_split_1
I0906 16:47:27.279505 19724 net.cpp:490] inception_4c/output_inception_4c/output_0_split -> inception_4c/output_inception_4c/output_0_split_2
I0906 16:47:27.279525 19724 net.cpp:490] inception_4c/output_inception_4c/output_0_split -> inception_4c/output_inception_4c/output_0_split_3
I0906 16:47:27.279616 19724 net.cpp:153] Setting up inception_4c/output_inception_4c/output_0_split
I0906 16:47:27.279652 19724 net.cpp:160] Top shape: 50 512 14 14 (5017600)
I0906 16:47:27.279673 19724 net.cpp:160] Top shape: 50 512 14 14 (5017600)
I0906 16:47:27.279754 19724 net.cpp:160] Top shape: 50 512 14 14 (5017600)
I0906 16:47:27.279774 19724 net.cpp:160] Top shape: 50 512 14 14 (5017600)
I0906 16:47:27.279786 19724 net.cpp:168] Memory required for data: 2315733212
I0906 16:47:27.279803 19724 layer_factory.hpp:77] Creating layer inception_4d/1x1
I0906 16:47:27.279860 19724 net.cpp:115] Creating Layer inception_4d/1x1
I0906 16:47:27.279886 19724 net.cpp:516] inception_4d/1x1 <- inception_4c/output_inception_4c/output_0_split_0
I0906 16:47:27.279932 19724 net.cpp:490] inception_4d/1x1 -> inception_4d/1x1
I0906 16:47:27.280735 19724 net.cpp:153] Setting up inception_4d/1x1
I0906 16:47:27.280766 19724 net.cpp:160] Top shape: 50 112 14 14 (1097600)
I0906 16:47:27.280781 19724 net.cpp:168] Memory required for data: 2320123612
I0906 16:47:27.280835 19724 layer_factory.hpp:77] Creating layer inception_4d/relu_1x1
I0906 16:47:27.280864 19724 net.cpp:115] Creating Layer inception_4d/relu_1x1
I0906 16:47:27.280881 19724 net.cpp:516] inception_4d/relu_1x1 <- inception_4d/1x1
I0906 16:47:27.280900 19724 net.cpp:477] inception_4d/relu_1x1 -> inception_4d/1x1 (in-place)
I0906 16:47:27.280939 19724 net.cpp:153] Setting up inception_4d/relu_1x1
I0906 16:47:27.280966 19724 net.cpp:160] Top shape: 50 112 14 14 (1097600)
I0906 16:47:27.280982 19724 net.cpp:168] Memory required for data: 2324514012
I0906 16:47:27.280995 19724 layer_factory.hpp:77] Creating layer inception_4d/3x3_reduce
I0906 16:47:27.281026 19724 net.cpp:115] Creating Layer inception_4d/3x3_reduce
I0906 16:47:27.281045 19724 net.cpp:516] inception_4d/3x3_reduce <- inception_4c/output_inception_4c/output_0_split_1
I0906 16:47:27.281066 19724 net.cpp:490] inception_4d/3x3_reduce -> inception_4d/3x3_reduce
I0906 16:47:27.282032 19724 net.cpp:153] Setting up inception_4d/3x3_reduce
I0906 16:47:27.282085 19724 net.cpp:160] Top shape: 50 144 14 14 (1411200)
I0906 16:47:27.282104 19724 net.cpp:168] Memory required for data: 2330158812
I0906 16:47:27.282135 19724 layer_factory.hpp:77] Creating layer inception_4d/relu_3x3_reduce
I0906 16:47:27.282181 19724 net.cpp:115] Creating Layer inception_4d/relu_3x3_reduce
I0906 16:47:27.282229 19724 net.cpp:516] inception_4d/relu_3x3_reduce <- inception_4d/3x3_reduce
I0906 16:47:27.282248 19724 net.cpp:477] inception_4d/relu_3x3_reduce -> inception_4d/3x3_reduce (in-place)
I0906 16:47:27.282261 19724 net.cpp:153] Setting up inception_4d/relu_3x3_reduce
I0906 16:47:27.282270 19724 net.cpp:160] Top shape: 50 144 14 14 (1411200)
I0906 16:47:27.282276 19724 net.cpp:168] Memory required for data: 2335803612
I0906 16:47:27.282282 19724 layer_factory.hpp:77] Creating layer inception_4d/3x3
I0906 16:47:27.282306 19724 net.cpp:115] Creating Layer inception_4d/3x3
I0906 16:47:27.282315 19724 net.cpp:516] inception_4d/3x3 <- inception_4d/3x3_reduce
I0906 16:47:27.282325 19724 net.cpp:490] inception_4d/3x3 -> inception_4d/3x3
I0906 16:47:27.297385 19724 net.cpp:153] Setting up inception_4d/3x3
I0906 16:47:27.297500 19724 net.cpp:160] Top shape: 50 288 14 14 (2822400)
I0906 16:47:27.297513 19724 net.cpp:168] Memory required for data: 2347093212
I0906 16:47:27.297535 19724 layer_factory.hpp:77] Creating layer inception_4d/relu_3x3
I0906 16:47:27.297556 19724 net.cpp:115] Creating Layer inception_4d/relu_3x3
I0906 16:47:27.297569 19724 net.cpp:516] inception_4d/relu_3x3 <- inception_4d/3x3
I0906 16:47:27.297580 19724 net.cpp:477] inception_4d/relu_3x3 -> inception_4d/3x3 (in-place)
I0906 16:47:27.297601 19724 net.cpp:153] Setting up inception_4d/relu_3x3
I0906 16:47:27.297621 19724 net.cpp:160] Top shape: 50 288 14 14 (2822400)
I0906 16:47:27.297642 19724 net.cpp:168] Memory required for data: 2358382812
I0906 16:47:27.297665 19724 layer_factory.hpp:77] Creating layer inception_4d/5x5_reduce
I0906 16:47:27.297750 19724 net.cpp:115] Creating Layer inception_4d/5x5_reduce
I0906 16:47:27.297804 19724 net.cpp:516] inception_4d/5x5_reduce <- inception_4c/output_inception_4c/output_0_split_2
I0906 16:47:27.297876 19724 net.cpp:490] inception_4d/5x5_reduce -> inception_4d/5x5_reduce
I0906 16:47:27.298784 19724 net.cpp:153] Setting up inception_4d/5x5_reduce
I0906 16:47:27.298830 19724 net.cpp:160] Top shape: 50 32 14 14 (313600)
I0906 16:47:27.298841 19724 net.cpp:168] Memory required for data: 2359637212
I0906 16:47:27.298856 19724 layer_factory.hpp:77] Creating layer inception_4d/relu_5x5_reduce
I0906 16:47:27.298877 19724 net.cpp:115] Creating Layer inception_4d/relu_5x5_reduce
I0906 16:47:27.298889 19724 net.cpp:516] inception_4d/relu_5x5_reduce <- inception_4d/5x5_reduce
I0906 16:47:27.298904 19724 net.cpp:477] inception_4d/relu_5x5_reduce -> inception_4d/5x5_reduce (in-place)
I0906 16:47:27.298923 19724 net.cpp:153] Setting up inception_4d/relu_5x5_reduce
I0906 16:47:27.298936 19724 net.cpp:160] Top shape: 50 32 14 14 (313600)
I0906 16:47:27.298944 19724 net.cpp:168] Memory required for data: 2360891612
I0906 16:47:27.298954 19724 layer_factory.hpp:77] Creating layer inception_4d/5x5
I0906 16:47:27.298982 19724 net.cpp:115] Creating Layer inception_4d/5x5
I0906 16:47:27.299003 19724 net.cpp:516] inception_4d/5x5 <- inception_4d/5x5_reduce
I0906 16:47:27.299033 19724 net.cpp:490] inception_4d/5x5 -> inception_4d/5x5
I0906 16:47:27.300387 19724 net.cpp:153] Setting up inception_4d/5x5
I0906 16:47:27.300434 19724 net.cpp:160] Top shape: 50 64 14 14 (627200)
I0906 16:47:27.300441 19724 net.cpp:168] Memory required for data: 2363400412
I0906 16:47:27.300460 19724 layer_factory.hpp:77] Creating layer inception_4d/relu_5x5
I0906 16:47:27.300477 19724 net.cpp:115] Creating Layer inception_4d/relu_5x5
I0906 16:47:27.300493 19724 net.cpp:516] inception_4d/relu_5x5 <- inception_4d/5x5
I0906 16:47:27.300510 19724 net.cpp:477] inception_4d/relu_5x5 -> inception_4d/5x5 (in-place)
I0906 16:47:27.300550 19724 net.cpp:153] Setting up inception_4d/relu_5x5
I0906 16:47:27.300570 19724 net.cpp:160] Top shape: 50 64 14 14 (627200)
I0906 16:47:27.300577 19724 net.cpp:168] Memory required for data: 2365909212
I0906 16:47:27.300590 19724 layer_factory.hpp:77] Creating layer inception_4d/pool
I0906 16:47:27.300603 19724 net.cpp:115] Creating Layer inception_4d/pool
I0906 16:47:27.300613 19724 net.cpp:516] inception_4d/pool <- inception_4c/output_inception_4c/output_0_split_3
I0906 16:47:27.300675 19724 net.cpp:490] inception_4d/pool -> inception_4d/pool
I0906 16:47:27.300801 19724 net.cpp:153] Setting up inception_4d/pool
I0906 16:47:27.300817 19724 net.cpp:160] Top shape: 50 512 14 14 (5017600)
I0906 16:47:27.300822 19724 net.cpp:168] Memory required for data: 2385979612
I0906 16:47:27.300828 19724 layer_factory.hpp:77] Creating layer inception_4d/pool_proj
I0906 16:47:27.300849 19724 net.cpp:115] Creating Layer inception_4d/pool_proj
I0906 16:47:27.300858 19724 net.cpp:516] inception_4d/pool_proj <- inception_4d/pool
I0906 16:47:27.300868 19724 net.cpp:490] inception_4d/pool_proj -> inception_4d/pool_proj
I0906 16:47:27.302062 19724 net.cpp:153] Setting up inception_4d/pool_proj
I0906 16:47:27.302089 19724 net.cpp:160] Top shape: 50 64 14 14 (627200)
I0906 16:47:27.302098 19724 net.cpp:168] Memory required for data: 2388488412
I0906 16:47:27.302114 19724 layer_factory.hpp:77] Creating layer inception_4d/relu_pool_proj
I0906 16:47:27.302129 19724 net.cpp:115] Creating Layer inception_4d/relu_pool_proj
I0906 16:47:27.302139 19724 net.cpp:516] inception_4d/relu_pool_proj <- inception_4d/pool_proj
I0906 16:47:27.302155 19724 net.cpp:477] inception_4d/relu_pool_proj -> inception_4d/pool_proj (in-place)
I0906 16:47:27.302173 19724 net.cpp:153] Setting up inception_4d/relu_pool_proj
I0906 16:47:27.302188 19724 net.cpp:160] Top shape: 50 64 14 14 (627200)
I0906 16:47:27.302197 19724 net.cpp:168] Memory required for data: 2390997212
I0906 16:47:27.302211 19724 layer_factory.hpp:77] Creating layer inception_4d/output
I0906 16:47:27.302229 19724 net.cpp:115] Creating Layer inception_4d/output
I0906 16:47:27.302242 19724 net.cpp:516] inception_4d/output <- inception_4d/1x1
I0906 16:47:27.302258 19724 net.cpp:516] inception_4d/output <- inception_4d/3x3
I0906 16:47:27.302276 19724 net.cpp:516] inception_4d/output <- inception_4d/5x5
I0906 16:47:27.302445 19724 net.cpp:516] inception_4d/output <- inception_4d/pool_proj
I0906 16:47:27.302520 19724 net.cpp:490] inception_4d/output -> inception_4d/output
I0906 16:47:27.302652 19724 net.cpp:153] Setting up inception_4d/output
I0906 16:47:27.302682 19724 net.cpp:160] Top shape: 50 528 14 14 (5174400)
I0906 16:47:27.302691 19724 net.cpp:168] Memory required for data: 2411694812
I0906 16:47:27.302700 19724 layer_factory.hpp:77] Creating layer inception_4d/output_inception_4d/output_0_split
I0906 16:47:27.302718 19724 net.cpp:115] Creating Layer inception_4d/output_inception_4d/output_0_split
I0906 16:47:27.302731 19724 net.cpp:516] inception_4d/output_inception_4d/output_0_split <- inception_4d/output
I0906 16:47:27.302762 19724 net.cpp:490] inception_4d/output_inception_4d/output_0_split -> inception_4d/output_inception_4d/output_0_split_0
I0906 16:47:27.302778 19724 net.cpp:490] inception_4d/output_inception_4d/output_0_split -> inception_4d/output_inception_4d/output_0_split_1
I0906 16:47:27.302793 19724 net.cpp:490] inception_4d/output_inception_4d/output_0_split -> inception_4d/output_inception_4d/output_0_split_2
I0906 16:47:27.302809 19724 net.cpp:490] inception_4d/output_inception_4d/output_0_split -> inception_4d/output_inception_4d/output_0_split_3
I0906 16:47:27.302821 19724 net.cpp:490] inception_4d/output_inception_4d/output_0_split -> inception_4d/output_inception_4d/output_0_split_4
I0906 16:47:27.302953 19724 net.cpp:153] Setting up inception_4d/output_inception_4d/output_0_split
I0906 16:47:27.302983 19724 net.cpp:160] Top shape: 50 528 14 14 (5174400)
I0906 16:47:27.302994 19724 net.cpp:160] Top shape: 50 528 14 14 (5174400)
I0906 16:47:27.303004 19724 net.cpp:160] Top shape: 50 528 14 14 (5174400)
I0906 16:47:27.303016 19724 net.cpp:160] Top shape: 50 528 14 14 (5174400)
I0906 16:47:27.303035 19724 net.cpp:160] Top shape: 50 528 14 14 (5174400)
I0906 16:47:27.303048 19724 net.cpp:168] Memory required for data: 2515182812
I0906 16:47:27.303061 19724 layer_factory.hpp:77] Creating layer loss2/ave_pool
I0906 16:47:27.303092 19724 net.cpp:115] Creating Layer loss2/ave_pool
I0906 16:47:27.303103 19724 net.cpp:516] loss2/ave_pool <- inception_4d/output_inception_4d/output_0_split_0
I0906 16:47:27.303169 19724 net.cpp:490] loss2/ave_pool -> loss2/ave_pool
I0906 16:47:27.303228 19724 net.cpp:153] Setting up loss2/ave_pool
I0906 16:47:27.303246 19724 net.cpp:160] Top shape: 50 528 4 4 (422400)
I0906 16:47:27.303254 19724 net.cpp:168] Memory required for data: 2516872412
I0906 16:47:27.303264 19724 layer_factory.hpp:77] Creating layer loss2/conv
I0906 16:47:27.303290 19724 net.cpp:115] Creating Layer loss2/conv
I0906 16:47:27.303305 19724 net.cpp:516] loss2/conv <- loss2/ave_pool
I0906 16:47:27.303326 19724 net.cpp:490] loss2/conv -> loss2/conv
I0906 16:47:27.304625 19724 net.cpp:153] Setting up loss2/conv
I0906 16:47:27.304651 19724 net.cpp:160] Top shape: 50 128 4 4 (102400)
I0906 16:47:27.304661 19724 net.cpp:168] Memory required for data: 2517282012
I0906 16:47:27.304677 19724 layer_factory.hpp:77] Creating layer loss2/relu_conv
I0906 16:47:27.304695 19724 net.cpp:115] Creating Layer loss2/relu_conv
I0906 16:47:27.304708 19724 net.cpp:516] loss2/relu_conv <- loss2/conv
I0906 16:47:27.304721 19724 net.cpp:477] loss2/relu_conv -> loss2/conv (in-place)
I0906 16:47:27.304738 19724 net.cpp:153] Setting up loss2/relu_conv
I0906 16:47:27.304749 19724 net.cpp:160] Top shape: 50 128 4 4 (102400)
I0906 16:47:27.304757 19724 net.cpp:168] Memory required for data: 2517691612
I0906 16:47:27.304765 19724 layer_factory.hpp:77] Creating layer loss2/fc
I0906 16:47:27.304785 19724 net.cpp:115] Creating Layer loss2/fc
I0906 16:47:27.304812 19724 net.cpp:516] loss2/fc <- loss2/conv
I0906 16:47:27.304827 19724 net.cpp:490] loss2/fc -> loss2/fc
I0906 16:47:27.343708 19724 net.cpp:153] Setting up loss2/fc
I0906 16:47:27.343792 19724 net.cpp:160] Top shape: 50 1024 (51200)
I0906 16:47:27.343821 19724 net.cpp:168] Memory required for data: 2517896412
I0906 16:47:27.343873 19724 layer_factory.hpp:77] Creating layer loss2/relu_fc
I0906 16:47:27.344034 19724 net.cpp:115] Creating Layer loss2/relu_fc
I0906 16:47:27.344070 19724 net.cpp:516] loss2/relu_fc <- loss2/fc
I0906 16:47:27.344106 19724 net.cpp:477] loss2/relu_fc -> loss2/fc (in-place)
I0906 16:47:27.344141 19724 net.cpp:153] Setting up loss2/relu_fc
I0906 16:47:27.344156 19724 net.cpp:160] Top shape: 50 1024 (51200)
I0906 16:47:27.344167 19724 net.cpp:168] Memory required for data: 2518101212
I0906 16:47:27.344185 19724 layer_factory.hpp:77] Creating layer loss2/drop_fc
I0906 16:47:27.344205 19724 net.cpp:115] Creating Layer loss2/drop_fc
I0906 16:47:27.344215 19724 net.cpp:516] loss2/drop_fc <- loss2/fc
I0906 16:47:27.344228 19724 net.cpp:477] loss2/drop_fc -> loss2/fc (in-place)
I0906 16:47:27.344269 19724 net.cpp:153] Setting up loss2/drop_fc
I0906 16:47:27.344285 19724 net.cpp:160] Top shape: 50 1024 (51200)
I0906 16:47:27.344292 19724 net.cpp:168] Memory required for data: 2518306012
I0906 16:47:27.344300 19724 layer_factory.hpp:77] Creating layer loss2/classifier
I0906 16:47:27.344329 19724 net.cpp:115] Creating Layer loss2/classifier
I0906 16:47:27.344337 19724 net.cpp:516] loss2/classifier <- loss2/fc
I0906 16:47:27.344350 19724 net.cpp:490] loss2/classifier -> loss2/classifier
I0906 16:47:27.365169 19724 net.cpp:153] Setting up loss2/classifier
I0906 16:47:27.365268 19724 net.cpp:160] Top shape: 50 1000 (50000)
I0906 16:47:27.365293 19724 net.cpp:168] Memory required for data: 2518506012
I0906 16:47:27.365330 19724 layer_factory.hpp:77] Creating layer loss2/classifier_loss2/classifier_0_split
I0906 16:47:27.365399 19724 net.cpp:115] Creating Layer loss2/classifier_loss2/classifier_0_split
I0906 16:47:27.365443 19724 net.cpp:516] loss2/classifier_loss2/classifier_0_split <- loss2/classifier
I0906 16:47:27.365479 19724 net.cpp:490] loss2/classifier_loss2/classifier_0_split -> loss2/classifier_loss2/classifier_0_split_0
I0906 16:47:27.365520 19724 net.cpp:490] loss2/classifier_loss2/classifier_0_split -> loss2/classifier_loss2/classifier_0_split_1
I0906 16:47:27.365561 19724 net.cpp:490] loss2/classifier_loss2/classifier_0_split -> loss2/classifier_loss2/classifier_0_split_2
I0906 16:47:27.365731 19724 net.cpp:153] Setting up loss2/classifier_loss2/classifier_0_split
I0906 16:47:27.365767 19724 net.cpp:160] Top shape: 50 1000 (50000)
I0906 16:47:27.365782 19724 net.cpp:160] Top shape: 50 1000 (50000)
I0906 16:47:27.365795 19724 net.cpp:160] Top shape: 50 1000 (50000)
I0906 16:47:27.365811 19724 net.cpp:168] Memory required for data: 2519106012
I0906 16:47:27.365828 19724 layer_factory.hpp:77] Creating layer loss2/loss
I0906 16:47:27.365846 19724 net.cpp:115] Creating Layer loss2/loss
I0906 16:47:27.365856 19724 net.cpp:516] loss2/loss <- loss2/classifier_loss2/classifier_0_split_0
I0906 16:47:27.365872 19724 net.cpp:516] loss2/loss <- label_data_1_split_3
…
I0906 16:47:27.367171 19724 net.cpp:153] Setting up loss2/top-5
I0906 16:47:27.367184 19724 net.cpp:160] Top shape: (1)
I0906 16:47:27.367192 19724 net.cpp:168] Memory required for data: 2519106024
I0906 16:47:27.367202 19724 layer_factory.hpp:77] Creating layer inception_4e/1x1
I0906 16:47:27.367228 19724 net.cpp:115] Creating Layer inception_4e/1x1
I0906 16:47:27.367242 19724 net.cpp:516] inception_4e/1x1 <- inception_4d/output_inception_4d/output_0_split_1
I0906 16:47:27.367259 19724 net.cpp:490] inception_4e/1x1 -> inception_4e/1x1
I0906 16:47:27.384060 19724 net.cpp:153] Setting up inception_4e/1x1
I0906 16:47:27.384192 19724 net.cpp:160] Top shape: 50 256 14 14 (2508800)
I0906 16:47:27.384207 19724 net.cpp:168] Memory required for data: 2529141224
I0906 16:47:27.384233 19724 layer_factory.hpp:77] Creating layer inception_4e/relu_1x1
I0906 16:47:27.384263 19724 net.cpp:115] Creating Layer inception_4e/relu_1x1
I0906 16:47:27.384284 19724 net.cpp:516] inception_4e/relu_1x1 <- inception_4e/1x1
I0906 16:47:27.384307 19724 net.cpp:477] inception_4e/relu_1x1 -> inception_4e/1x1 (in-place)
I0906 16:47:27.384346 19724 net.cpp:153] Setting up inception_4e/relu_1x1
I0906 16:47:27.384363 19724 net.cpp:160] Top shape: 50 256 14 14 (2508800)
I0906 16:47:27.384377 19724 net.cpp:168] Memory required for data: 2539176424
I0906 16:47:27.384389 19724 layer_factory.hpp:77] Creating layer inception_4e/3x3_reduce
I0906 16:47:27.384462 19724 net.cpp:115] Creating Layer inception_4e/3x3_reduce
I0906 16:47:27.384486 19724 net.cpp:516] inception_4e/3x3_reduce <- inception_4d/output_inception_4d/output_0_split_2
I0906 16:47:27.384507 19724 net.cpp:490] inception_4e/3x3_reduce -> inception_4e/3x3_reduce
I0906 16:47:27.386065 19724 net.cpp:153] Setting up inception_4e/3x3_reduce
I0906 16:47:27.386096 19724 net.cpp:160] Top shape: 50 160 14 14 (1568000)
I0906 16:47:27.386107 19724 net.cpp:168] Memory required for data: 2545448424
I0906 16:47:27.386124 19724 layer_factory.hpp:77] Creating layer inception_4e/relu_3x3_reduce
I0906 16:47:27.386142 19724 net.cpp:115] Creating Layer inception_4e/relu_3x3_reduce
I0906 16:47:27.386154 19724 net.cpp:516] inception_4e/relu_3x3_reduce <- inception_4e/3x3_reduce
I0906 16:47:27.386173 19724 net.cpp:477] inception_4e/relu_3x3_reduce -> inception_4e/3x3_reduce (in-place)
I0906 16:47:27.386194 19724 net.cpp:153] Setting up inception_4e/relu_3x3_reduce
I0906 16:47:27.386209 19724 net.cpp:160] Top shape: 50 160 14 14 (1568000)
I0906 16:47:27.386217 19724 net.cpp:168] Memory required for data: 2551720424
I0906 16:47:27.386227 19724 layer_factory.hpp:77] Creating layer inception_4e/3x3
I0906 16:47:27.386256 19724 net.cpp:115] Creating Layer inception_4e/3x3
I0906 16:47:27.386270 19724 net.cpp:516] inception_4e/3x3 <- inception_4e/3x3_reduce
I0906 16:47:27.386302 19724 net.cpp:490] inception_4e/3x3 -> inception_4e/3x3
I0906 16:47:27.394793 19724 net.cpp:153] Setting up inception_4e/3x3
I0906 16:47:27.394865 19724 net.cpp:160] Top shape: 50 320 14 14 (3136000)
I0906 16:47:27.394877 19724 net.cpp:168] Memory required for data: 2564264424
I0906 16:47:27.394898 19724 layer_factory.hpp:77] Creating layer inception_4e/relu_3x3
I0906 16:47:27.394922 19724 net.cpp:115] Creating Layer inception_4e/relu_3x3
I0906 16:47:27.394938 19724 net.cpp:516] inception_4e/relu_3x3 <- inception_4e/3x3
I0906 16:47:27.394960 19724 net.cpp:477] inception_4e/relu_3x3 -> inception_4e/3x3 (in-place)
I0906 16:47:27.394987 19724 net.cpp:153] Setting up inception_4e/relu_3x3
I0906 16:47:27.395002 19724 net.cpp:160] Top shape: 50 320 14 14 (3136000)
I0906 16:47:27.395010 19724 net.cpp:168] Memory required for data: 2576808424
I0906 16:47:27.395021 19724 layer_factory.hpp:77] Creating layer inception_4e/5x5_reduce
I0906 16:47:27.395048 19724 net.cpp:115] Creating Layer inception_4e/5x5_reduce
I0906 16:47:27.395061 19724 net.cpp:516] inception_4e/5x5_reduce <- inception_4d/output_inception_4d/output_0_split_3
I0906 16:47:27.395155 19724 net.cpp:490] inception_4e/5x5_reduce -> inception_4e/5x5_reduce
I0906 16:47:27.396118 19724 net.cpp:153] Setting up inception_4e/5x5_reduce
I0906 16:47:27.396168 19724 net.cpp:160] Top shape: 50 32 14 14 (313600)
I0906 16:47:27.396183 19724 net.cpp:168] Memory required for data: 2578062824
I0906 16:47:27.396200 19724 layer_factory.hpp:77] Creating layer inception_4e/relu_5x5_reduce
I0906 16:47:27.396220 19724 net.cpp:115] Creating Layer inception_4e/relu_5x5_reduce
I0906 16:47:27.396232 19724 net.cpp:516] inception_4e/relu_5x5_reduce <- inception_4e/5x5_reduce
I0906 16:47:27.396245 19724 net.cpp:477] inception_4e/relu_5x5_reduce -> inception_4e/5x5_reduce (in-place)
I0906 16:47:27.396270 19724 net.cpp:153] Setting up inception_4e/relu_5x5_reduce
I0906 16:47:27.396287 19724 net.cpp:160] Top shape: 50 32 14 14 (313600)
I0906 16:47:27.396296 19724 net.cpp:168] Memory required for data: 2579317224
I0906 16:47:27.396306 19724 layer_factory.hpp:77] Creating layer inception_4e/5x5
I0906 16:47:27.396323 19724 net.cpp:115] Creating Layer inception_4e/5x5
I0906 16:47:27.396332 19724 net.cpp:516] inception_4e/5x5 <- inception_4e/5x5_reduce
I0906 16:47:27.396347 19724 net.cpp:490] inception_4e/5x5 -> inception_4e/5x5
I0906 16:47:27.397603 19724 net.cpp:153] Setting up inception_4e/5x5
I0906 16:47:27.397620 19724 net.cpp:160] Top shape: 50 128 14 14 (1254400)
I0906 16:47:27.397626 19724 net.cpp:168] Memory required for data: 2584334824
I0906 16:47:27.397640 19724 layer_factory.hpp:77] Creating layer inception_4e/relu_5x5
I0906 16:47:27.397666 19724 net.cpp:115] Creating Layer inception_4e/relu_5x5
I0906 16:47:27.397723 19724 net.cpp:516] inception_4e/relu_5x5 <- inception_4e/5x5
I0906 16:47:27.397756 19724 net.cpp:477] inception_4e/relu_5x5 -> inception_4e/5x5 (in-place)
I0906 16:47:27.397779 19724 net.cpp:153] Setting up inception_4e/relu_5x5
I0906 16:47:27.397792 19724 net.cpp:160] Top shape: 50 128 14 14 (1254400)
I0906 16:47:27.397804 19724 net.cpp:168] Memory required for data: 2589352424
I0906 16:47:27.397821 19724 layer_factory.hpp:77] Creating layer inception_4e/pool
I0906 16:47:27.397881 19724 net.cpp:115] Creating Layer inception_4e/pool
I0906 16:47:27.397909 19724 net.cpp:516] inception_4e/pool <- inception_4d/output_inception_4d/output_0_split_4
I0906 16:47:27.397949 19724 net.cpp:490] inception_4e/pool -> inception_4e/pool
I0906 16:47:27.398128 19724 net.cpp:153] Setting up inception_4e/pool
I0906 16:47:27.398169 19724 net.cpp:160] Top shape: 50 528 14 14 (5174400)
I0906 16:47:27.398191 19724 net.cpp:168] Memory required for data: 2610050024
I0906 16:47:27.398213 19724 layer_factory.hpp:77] Creating layer inception_4e/pool_proj
I0906 16:47:27.398255 19724 net.cpp:115] Creating Layer inception_4e/pool_proj
I0906 16:47:27.398283 19724 net.cpp:516] inception_4e/pool_proj <- inception_4e/pool
I0906 16:47:27.398306 19724 net.cpp:490] inception_4e/pool_proj -> inception_4e/pool_proj
I0906 16:47:27.399530 19724 net.cpp:153] Setting up inception_4e/pool_proj
I0906 16:47:27.399598 19724 net.cpp:160] Top shape: 50 128 14 14 (1254400)
I0906 16:47:27.399619 19724 net.cpp:168] Memory required for data: 2615067624
I0906 16:47:27.399646 19724 layer_factory.hpp:77] Creating layer inception_4e/relu_pool_proj
I0906 16:47:27.399669 19724 net.cpp:115] Creating Layer inception_4e/relu_pool_proj
I0906 16:47:27.399688 19724 net.cpp:516] inception_4e/relu_pool_proj <- inception_4e/pool_proj
I0906 16:47:27.399703 19724 net.cpp:477] inception_4e/relu_pool_proj -> inception_4e/pool_proj (in-place)
I0906 16:47:27.399726 19724 net.cpp:153] Setting up inception_4e/relu_pool_proj
I0906 16:47:27.399749 19724 net.cpp:160] Top shape: 50 128 14 14 (1254400)
I0906 16:47:27.399756 19724 net.cpp:168] Memory required for data: 2620085224
I0906 16:47:27.399770 19724 layer_factory.hpp:77] Creating layer inception_4e/output
I0906 16:47:27.399798 19724 net.cpp:115] Creating Layer inception_4e/output
I0906 16:47:27.399814 19724 net.cpp:516] inception_4e/output <- inception_4e/1x1
I0906 16:47:27.399830 19724 net.cpp:516] inception_4e/output <- inception_4e/3x3
I0906 16:47:27.399919 19724 net.cpp:516] inception_4e/output <- inception_4e/5x5
I0906 16:47:27.400019 19724 net.cpp:516] inception_4e/output <- inception_4e/pool_proj
I0906 16:47:27.400045 19724 net.cpp:490] inception_4e/output -> inception_4e/output
I0906 16:47:27.400111 19724 net.cpp:153] Setting up inception_4e/output
I0906 16:47:27.400138 19724 net.cpp:160] Top shape: 50 832 14 14 (8153600)
I0906 16:47:27.400151 19724 net.cpp:168] Memory required for data: 2652699624
I0906 16:47:27.400162 19724 layer_factory.hpp:77] Creating layer pool4/3x3_s2
I0906 16:47:27.400182 19724 net.cpp:115] Creating Layer pool4/3x3_s2
I0906 16:47:27.400199 19724 net.cpp:516] pool4/3x3_s2 <- inception_4e/output
I0906 16:47:27.400220 19724 net.cpp:490] pool4/3x3_s2 -> pool4/3x3_s2
I0906 16:47:27.400377 19724 net.cpp:153] Setting up pool4/3x3_s2
I0906 16:47:27.400413 19724 net.cpp:160] Top shape: 50 832 7 7 (2038400)
I0906 16:47:27.400431 19724 net.cpp:168] Memory required for data: 2660853224
I0906 16:47:27.400445 19724 layer_factory.hpp:77] Creating layer pool4/3x3_s2_pool4/3x3_s2_0_split
I0906 16:47:27.400467 19724 net.cpp:115] Creating Layer pool4/3x3_s2_pool4/3x3_s2_0_split
I0906 16:47:27.400485 19724 net.cpp:516] pool4/3x3_s2_pool4/3x3_s2_0_split <- pool4/3x3_s2
I0906 16:47:27.400514 19724 net.cpp:490] pool4/3x3_s2_pool4/3x3_s2_0_split -> pool4/3x3_s2_pool4/3x3_s2_0_split_0
I0906 16:47:27.400547 19724 net.cpp:490] pool4/3x3_s2_pool4/3x3_s2_0_split -> pool4/3x3_s2_pool4/3x3_s2_0_split_1
I0906 16:47:27.400563 19724 net.cpp:490] pool4/3x3_s2_pool4/3x3_s2_0_split -> pool4/3x3_s2_pool4/3x3_s2_0_split_2
I0906 16:47:27.400642 19724 net.cpp:490] pool4/3x3_s2_pool4/3x3_s2_0_split -> pool4/3x3_s2_pool4/3x3_s2_0_split_3
I0906 16:47:27.400771 19724 net.cpp:153] Setting up pool4/3x3_s2_pool4/3x3_s2_0_split
I0906 16:47:27.400813 19724 net.cpp:160] Top shape: 50 832 7 7 (2038400)
I0906 16:47:27.400827 19724 net.cpp:160] Top shape: 50 832 7 7 (2038400)
I0906 16:47:27.400846 19724 net.cpp:160] Top shape: 50 832 7 7 (2038400)
I0906 16:47:27.400857 19724 net.cpp:160] Top shape: 50 832 7 7 (2038400)
I0906 16:47:27.400866 19724 net.cpp:168] Memory required for data: 2693467624
I0906 16:47:27.400876 19724 layer_factory.hpp:77] Creating layer inception_5a/1x1
I0906 16:47:27.400920 19724 net.cpp:115] Creating Layer inception_5a/1x1
I0906 16:47:27.400936 19724 net.cpp:516] inception_5a/1x1 <- pool4/3x3_s2_pool4/3x3_s2_0_split_0
I0906 16:47:27.400959 19724 net.cpp:490] inception_5a/1x1 -> inception_5a/1x1
I0906 16:47:27.407236 19724 net.cpp:153] Setting up inception_5a/1x1
I0906 16:47:27.407420 19724 net.cpp:160] Top shape: 50 256 7 7 (627200)
I0906 16:47:27.407447 19724 net.cpp:168] Memory required for data: 2695976424
I0906 16:47:27.407485 19724 layer_factory.hpp:77] Creating layer inception_5a/relu_1x1
I0906 16:47:27.407523 19724 net.cpp:115] Creating Layer inception_5a/relu_1x1
I0906 16:47:27.407548 19724 net.cpp:516] inception_5a/relu_1x1 <- inception_5a/1x1
I0906 16:47:27.407573 19724 net.cpp:477] inception_5a/relu_1x1 -> inception_5a/1x1 (in-place)
I0906 16:47:27.407600 19724 net.cpp:153] Setting up inception_5a/relu_1x1
I0906 16:47:27.407615 19724 net.cpp:160] Top shape: 50 256 7 7 (627200)
I0906 16:47:27.407625 19724 net.cpp:168] Memory required for data: 2698485224
I0906 16:47:27.407634 19724 layer_factory.hpp:77] Creating layer inception_5a/3x3_reduce
I0906 16:47:27.407670 19724 net.cpp:115] Creating Layer inception_5a/3x3_reduce
I0906 16:47:27.407687 19724 net.cpp:516] inception_5a/3x3_reduce <- pool4/3x3_s2_pool4/3x3_s2_0_split_1
I0906 16:47:27.407707 19724 net.cpp:490] inception_5a/3x3_reduce -> inception_5a/3x3_reduce
I0906 16:47:27.409976 19724 net.cpp:153] Setting up inception_5a/3x3_reduce
I0906 16:47:27.410063 19724 net.cpp:160] Top shape: 50 160 7 7 (392000)
I0906 16:47:27.410075 19724 net.cpp:168] Memory required for data: 2700053224
I0906 16:47:27.410096 19724 layer_factory.hpp:77] Creating layer inception_5a/relu_3x3_reduce
I0906 16:47:27.410120 19724 net.cpp:115] Creating Layer inception_5a/relu_3x3_reduce
I0906 16:47:27.410198 19724 net.cpp:516] inception_5a/relu_3x3_reduce <- inception_5a/3x3_reduce
I0906 16:47:27.410218 19724 net.cpp:477] inception_5a/relu_3x3_reduce -> inception_5a/3x3_reduce (in-place)
I0906 16:47:27.410240 19724 net.cpp:153] Setting up inception_5a/relu_3x3_reduce
I0906 16:47:27.410254 19724 net.cpp:160] Top shape: 50 160 7 7 (392000)
I0906 16:47:27.410262 19724 net.cpp:168] Memory required for data: 2701621224
I0906 16:47:27.410270 19724 layer_factory.hpp:77] Creating layer inception_5a/3x3
I0906 16:47:27.410298 19724 net.cpp:115] Creating Layer inception_5a/3x3
I0906 16:47:27.410316 19724 net.cpp:516] inception_5a/3x3 <- inception_5a/3x3_reduce
I0906 16:47:27.410343 19724 net.cpp:490] inception_5a/3x3 -> inception_5a/3x3
I0906 16:47:27.419880 19724 net.cpp:153] Setting up inception_5a/3x3
I0906 16:47:27.419983 19724 net.cpp:160] Top shape: 50 320 7 7 (784000)
I0906 16:47:27.420004 19724 net.cpp:168] Memory required for data: 2704757224
I0906 16:47:27.420037 19724 layer_factory.hpp:77] Creating layer inception_5a/relu_3x3
I0906 16:47:27.420069 19724 net.cpp:115] Creating Layer inception_5a/relu_3x3
I0906 16:47:27.420089 19724 net.cpp:516] inception_5a/relu_3x3 <- inception_5a/3x3
I0906 16:47:27.420112 19724 net.cpp:477] inception_5a/relu_3x3 -> inception_5a/3x3 (in-place)
I0906 16:47:27.420136 19724 net.cpp:153] Setting up inception_5a/relu_3x3
I0906 16:47:27.420153 19724 net.cpp:160] Top shape: 50 320 7 7 (784000)
I0906 16:47:27.420163 19724 net.cpp:168] Memory required for data: 2707893224
I0906 16:47:27.420176 19724 layer_factory.hpp:77] Creating layer inception_5a/5x5_reduce
I0906 16:47:27.420213 19724 net.cpp:115] Creating Layer inception_5a/5x5_reduce
I0906 16:47:27.420259 19724 net.cpp:516] inception_5a/5x5_reduce <- pool4/3x3_s2_pool4/3x3_s2_0_split_2
I0906 16:47:27.420307 19724 net.cpp:490] inception_5a/5x5_reduce -> inception_5a/5x5_reduce
I0906 16:47:27.421280 19724 net.cpp:153] Setting up inception_5a/5x5_reduce
I0906 16:47:27.421315 19724 net.cpp:160] Top shape: 50 32 7 7 (78400)
I0906 16:47:27.421330 19724 net.cpp:168] Memory required for data: 2708206824
I0906 16:47:27.421350 19724 layer_factory.hpp:77] Creating layer inception_5a/relu_5x5_reduce
I0906 16:47:27.421365 19724 net.cpp:115] Creating Layer inception_5a/relu_5x5_reduce
I0906 16:47:27.421381 19724 net.cpp:516] inception_5a/relu_5x5_reduce <- inception_5a/5x5_reduce
I0906 16:47:27.421401 19724 net.cpp:477] inception_5a/relu_5x5_reduce -> inception_5a/5x5_reduce (in-place)
I0906 16:47:27.421427 19724 net.cpp:153] Setting up inception_5a/relu_5x5_reduce
I0906 16:47:27.421445 19724 net.cpp:160] Top shape: 50 32 7 7 (78400)
I0906 16:47:27.421459 19724 net.cpp:168] Memory required for data: 2708520424
I0906 16:47:27.421473 19724 layer_factory.hpp:77] Creating layer inception_5a/5x5
I0906 16:47:27.421548 19724 net.cpp:115] Creating Layer inception_5a/5x5
I0906 16:47:27.421586 19724 net.cpp:516] inception_5a/5x5 <- inception_5a/5x5_reduce
I0906 16:47:27.421608 19724 net.cpp:490] inception_5a/5x5 -> inception_5a/5x5
I0906 16:47:27.423920 19724 net.cpp:153] Setting up inception_5a/5x5
I0906 16:47:27.423995 19724 net.cpp:160] Top shape: 50 128 7 7 (313600)
I0906 16:47:27.424010 19724 net.cpp:168] Memory required for data: 2709774824
I0906 16:47:27.424041 19724 layer_factory.hpp:77] Creating layer inception_5a/relu_5x5
I0906 16:47:27.424077 19724 net.cpp:115] Creating Layer inception_5a/relu_5x5
I0906 16:47:27.424093 19724 net.cpp:516] inception_5a/relu_5x5 <- inception_5a/5x5
I0906 16:47:27.424118 19724 net.cpp:477] inception_5a/relu_5x5 -> inception_5a/5x5 (in-place)
I0906 16:47:27.424139 19724 net.cpp:153] Setting up inception_5a/relu_5x5
I0906 16:47:27.424156 19724 net.cpp:160] Top shape: 50 128 7 7 (313600)
I0906 16:47:27.424165 19724 net.cpp:168] Memory required for data: 2711029224
I0906 16:47:27.424176 19724 layer_factory.hpp:77] Creating layer inception_5a/pool
I0906 16:47:27.424208 19724 net.cpp:115] Creating Layer inception_5a/pool
I0906 16:47:27.424222 19724 net.cpp:516] inception_5a/pool <- pool4/3x3_s2_pool4/3x3_s2_0_split_3
I0906 16:47:27.424326 19724 net.cpp:490] inception_5a/pool -> inception_5a/pool
I0906 16:47:27.424474 19724 net.cpp:153] Setting up inception_5a/pool
I0906 16:47:27.424494 19724 net.cpp:160] Top shape: 50 832 7 7 (2038400)
I0906 16:47:27.424504 19724 net.cpp:168] Memory required for data: 2719182824
I0906 16:47:27.424513 19724 layer_factory.hpp:77] Creating layer inception_5a/pool_proj
I0906 16:47:27.424567 19724 net.cpp:115] Creating Layer inception_5a/pool_proj
I0906 16:47:27.424598 19724 net.cpp:516] inception_5a/pool_proj <- inception_5a/pool
I0906 16:47:27.424643 19724 net.cpp:490] inception_5a/pool_proj -> inception_5a/pool_proj
I0906 16:47:27.429150 19724 net.cpp:153] Setting up inception_5a/pool_proj
I0906 16:47:27.429276 19724 net.cpp:160] Top shape: 50 128 7 7 (313600)
I0906 16:47:27.429293 19724 net.cpp:168] Memory required for data: 2720437224
I0906 16:47:27.429323 19724 layer_factory.hpp:77] Creating layer inception_5a/relu_pool_proj
I0906 16:47:27.429364 19724 net.cpp:115] Creating Layer inception_5a/relu_pool_proj
I0906 16:47:27.429409 19724 net.cpp:516] inception_5a/relu_pool_proj <- inception_5a/pool_proj
I0906 16:47:27.429443 19724 net.cpp:477] inception_5a/relu_pool_proj -> inception_5a/pool_proj (in-place)
I0906 16:47:27.429487 19724 net.cpp:153] Setting up inception_5a/relu_pool_proj
I0906 16:47:27.429505 19724 net.cpp:160] Top shape: 50 128 7 7 (313600)
I0906 16:47:27.429514 19724 net.cpp:168] Memory required for data: 2721691624
I0906 16:47:27.429527 19724 layer_factory.hpp:77] Creating layer inception_5a/output
I0906 16:47:27.429553 19724 net.cpp:115] Creating Layer inception_5a/output
I0906 16:47:27.429569 19724 net.cpp:516] inception_5a/output <- inception_5a/1x1
I0906 16:47:27.429615 19724 net.cpp:516] inception_5a/output <- inception_5a/3x3
I0906 16:47:27.429638 19724 net.cpp:516] inception_5a/output <- inception_5a/5x5
I0906 16:47:27.429658 19724 net.cpp:516] inception_5a/output <- inception_5a/pool_proj
I0906 16:47:27.429682 19724 net.cpp:490] inception_5a/output -> inception_5a/output
I0906 16:47:27.429816 19724 net.cpp:153] Setting up inception_5a/output
I0906 16:47:27.429862 19724 net.cpp:160] Top shape: 50 832 7 7 (2038400)
I0906 16:47:27.429873 19724 net.cpp:168] Memory required for data: 2729845224
I0906 16:47:27.429886 19724 layer_factory.hpp:77] Creating layer inception_5a/output_inception_5a/output_0_split
I0906 16:47:27.429929 19724 net.cpp:115] Creating Layer inception_5a/output_inception_5a/output_0_split
I0906 16:47:27.429940 19724 net.cpp:516] inception_5a/output_inception_5a/output_0_split <- inception_5a/output
I0906 16:47:27.429960 19724 net.cpp:490] inception_5a/output_inception_5a/output_0_split -> inception_5a/output_inception_5a/output_0_split_0
I0906 16:47:27.429978 19724 net.cpp:490] inception_5a/output_inception_5a/output_0_split -> inception_5a/output_inception_5a/output_0_split_1
I0906 16:47:27.430003 19724 net.cpp:490] inception_5a/output_inception_5a/output_0_split -> inception_5a/output_inception_5a/output_0_split_2
I0906 16:47:27.430043 19724 net.cpp:490] inception_5a/output_inception_5a/output_0_split -> inception_5a/output_inception_5a/output_0_split_3
I0906 16:47:27.430162 19724 net.cpp:153] Setting up inception_5a/output_inception_5a/output_0_split
I0906 16:47:27.430176 19724 net.cpp:160] Top shape: 50 832 7 7 (2038400)
I0906 16:47:27.430181 19724 net.cpp:160] Top shape: 50 832 7 7 (2038400)
I0906 16:47:27.430187 19724 net.cpp:160] Top shape: 50 832 7 7 (2038400)
I0906 16:47:27.430192 19724 net.cpp:160] Top shape: 50 832 7 7 (2038400)
I0906 16:47:27.430197 19724 net.cpp:168] Memory required for data: 2762459624
I0906 16:47:27.430202 19724 layer_factory.hpp:77] Creating layer inception_5b/1x1
I0906 16:47:27.430229 19724 net.cpp:115] Creating Layer inception_5b/1x1
I0906 16:47:27.430246 19724 net.cpp:516] inception_5b/1x1 <- inception_5a/output_inception_5a/output_0_split_0
I0906 16:47:27.430307 19724 net.cpp:490] inception_5b/1x1 -> inception_5b/1x1
I0906 16:47:27.438055 19724 net.cpp:153] Setting up inception_5b/1x1
I0906 16:47:27.438191 19724 net.cpp:160] Top shape: 50 384 7 7 (940800)
I0906 16:47:27.438207 19724 net.cpp:168] Memory required for data: 2766222824
I0906 16:47:27.438244 19724 layer_factory.hpp:77] Creating layer inception_5b/relu_1x1
I0906 16:47:27.438282 19724 net.cpp:115] Creating Layer inception_5b/relu_1x1
I0906 16:47:27.438318 19724 net.cpp:516] inception_5b/relu_1x1 <- inception_5b/1x1
I0906 16:47:27.438362 19724 net.cpp:477] inception_5b/relu_1x1 -> inception_5b/1x1 (in-place)
I0906 16:47:27.438403 19724 net.cpp:153] Setting up inception_5b/relu_1x1
I0906 16:47:27.438431 19724 net.cpp:160] Top shape: 50 384 7 7 (940800)
I0906 16:47:27.438444 19724 net.cpp:168] Memory required for data: 2769986024
I0906 16:47:27.438460 19724 layer_factory.hpp:77] Creating layer inception_5b/3x3_reduce
I0906 16:47:27.438494 19724 net.cpp:115] Creating Layer inception_5b/3x3_reduce
I0906 16:47:27.438513 19724 net.cpp:516] inception_5b/3x3_reduce <- inception_5a/output_inception_5a/output_0_split_1
I0906 16:47:27.438532 19724 net.cpp:490] inception_5b/3x3_reduce -> inception_5b/3x3_reduce
I0906 16:47:27.441308 19724 net.cpp:153] Setting up inception_5b/3x3_reduce
I0906 16:47:27.441411 19724 net.cpp:160] Top shape: 50 192 7 7 (470400)
I0906 16:47:27.441433 19724 net.cpp:168] Memory required for data: 2771867624
I0906 16:47:27.441478 19724 layer_factory.hpp:77] Creating layer inception_5b/relu_3x3_reduce
I0906 16:47:27.441520 19724 net.cpp:115] Creating Layer inception_5b/relu_3x3_reduce
I0906 16:47:27.441555 19724 net.cpp:516] inception_5b/relu_3x3_reduce <- inception_5b/3x3_reduce
I0906 16:47:27.441602 19724 net.cpp:477] inception_5b/relu_3x3_reduce -> inception_5b/3x3_reduce (in-place)
I0906 16:47:27.441653 19724 net.cpp:153] Setting up inception_5b/relu_3x3_reduce
I0906 16:47:27.441674 19724 net.cpp:160] Top shape: 50 192 7 7 (470400)
I0906 16:47:27.441686 19724 net.cpp:168] Memory required for data: 2773749224
I0906 16:47:27.441697 19724 layer_factory.hpp:77] Creating layer inception_5b/3x3
I0906 16:47:27.441730 19724 net.cpp:115] Creating Layer inception_5b/3x3
I0906 16:47:27.441745 19724 net.cpp:516] inception_5b/3x3 <- inception_5b/3x3_reduce
I0906 16:47:27.441759 19724 net.cpp:490] inception_5b/3x3 -> inception_5b/3x3
I0906 16:47:27.456008 19724 net.cpp:153] Setting up inception_5b/3x3
I0906 16:47:27.456089 19724 net.cpp:160] Top shape: 50 384 7 7 (940800)
I0906 16:47:27.456096 19724 net.cpp:168] Memory required for data: 2777512424
I0906 16:47:27.456110 19724 layer_factory.hpp:77] Creating layer inception_5b/relu_3x3
I0906 16:47:27.456126 19724 net.cpp:115] Creating Layer inception_5b/relu_3x3
I0906 16:47:27.456137 19724 net.cpp:516] inception_5b/relu_3x3 <- inception_5b/3x3
I0906 16:47:27.456152 19724 net.cpp:477] inception_5b/relu_3x3 -> inception_5b/3x3 (in-place)
I0906 16:47:27.456169 19724 net.cpp:153] Setting up inception_5b/relu_3x3
I0906 16:47:27.456176 19724 net.cpp:160] Top shape: 50 384 7 7 (940800)
I0906 16:47:27.456181 19724 net.cpp:168] Memory required for data: 2781275624
I0906 16:47:27.456185 19724 layer_factory.hpp:77] Creating layer inception_5b/5x5_reduce
I0906 16:47:27.456199 19724 net.cpp:115] Creating Layer inception_5b/5x5_reduce
I0906 16:47:27.456207 19724 net.cpp:516] inception_5b/5x5_reduce <- inception_5a/output_inception_5a/output_0_split_2
I0906 16:47:27.456218 19724 net.cpp:490] inception_5b/5x5_reduce -> inception_5b/5x5_reduce
I0906 16:47:27.457072 19724 net.cpp:153] Setting up inception_5b/5x5_reduce
I0906 16:47:27.457110 19724 net.cpp:160] Top shape: 50 48 7 7 (117600)
I0906 16:47:27.457124 19724 net.cpp:168] Memory required for data: 2781746024
I0906 16:47:27.457139 19724 layer_factory.hpp:77] Creating layer inception_5b/relu_5x5_reduce
I0906 16:47:27.457151 19724 net.cpp:115] Creating Layer inception_5b/relu_5x5_reduce
I0906 16:47:27.457164 19724 net.cpp:516] inception_5b/relu_5x5_reduce <- inception_5b/5x5_reduce
I0906 16:47:27.457176 19724 net.cpp:477] inception_5b/relu_5x5_reduce -> inception_5b/5x5_reduce (in-place)
I0906 16:47:27.457191 19724 net.cpp:153] Setting up inception_5b/relu_5x5_reduce
I0906 16:47:27.457269 19724 net.cpp:160] Top shape: 50 48 7 7 (117600)
I0906 16:47:27.457280 19724 net.cpp:168] Memory required for data: 2782216424
I0906 16:47:27.457286 19724 layer_factory.hpp:77] Creating layer inception_5b/5x5
I0906 16:47:27.457303 19724 net.cpp:115] Creating Layer inception_5b/5x5
I0906 16:47:27.457311 19724 net.cpp:516] inception_5b/5x5 <- inception_5b/5x5_reduce
I0906 16:47:27.457324 19724 net.cpp:490] inception_5b/5x5 -> inception_5b/5x5
I0906 16:47:27.463241 19724 net.cpp:153] Setting up inception_5b/5x5
I0906 16:47:27.463321 19724 net.cpp:160] Top shape: 50 128 7 7 (313600)
I0906 16:47:27.463335 19724 net.cpp:168] Memory required for data: 2783470824
I0906 16:47:27.463354 19724 layer_factory.hpp:77] Creating layer inception_5b/relu_5x5
I0906 16:47:27.463378 19724 net.cpp:115] Creating Layer inception_5b/relu_5x5
I0906 16:47:27.463397 19724 net.cpp:516] inception_5b/relu_5x5 <- inception_5b/5x5
I0906 16:47:27.463418 19724 net.cpp:477] inception_5b/relu_5x5 -> inception_5b/5x5 (in-place)
I0906 16:47:27.463441 19724 net.cpp:153] Setting up inception_5b/relu_5x5
I0906 16:47:27.463452 19724 net.cpp:160] Top shape: 50 128 7 7 (313600)
I0906 16:47:27.463460 19724 net.cpp:168] Memory required for data: 2784725224
I0906 16:47:27.463470 19724 layer_factory.hpp:77] Creating layer inception_5b/pool
I0906 16:47:27.463507 19724 net.cpp:115] Creating Layer inception_5b/pool
I0906 16:47:27.463538 19724 net.cpp:516] inception_5b/pool <- inception_5a/output_inception_5a/output_0_split_3
I0906 16:47:27.463568 19724 net.cpp:490] inception_5b/pool -> inception_5b/pool
I0906 16:47:27.463737 19724 net.cpp:153] Setting up inception_5b/pool
I0906 16:47:27.463764 19724 net.cpp:160] Top shape: 50 832 7 7 (2038400)
I0906 16:47:27.463773 19724 net.cpp:168] Memory required for data: 2792878824
I0906 16:47:27.463785 19724 layer_factory.hpp:77] Creating layer inception_5b/pool_proj
I0906 16:47:27.463841 19724 net.cpp:115] Creating Layer inception_5b/pool_proj
I0906 16:47:27.463861 19724 net.cpp:516] inception_5b/pool_proj <- inception_5b/pool
I0906 16:47:27.463894 19724 net.cpp:490] inception_5b/pool_proj -> inception_5b/pool_proj
I0906 16:47:27.465888 19724 net.cpp:153] Setting up inception_5b/pool_proj
I0906 16:47:27.465981 19724 net.cpp:160] Top shape: 50 128 7 7 (313600)
I0906 16:47:27.466001 19724 net.cpp:168] Memory required for data: 2794133224
I0906 16:47:27.466033 19724 layer_factory.hpp:77] Creating layer inception_5b/relu_pool_proj
I0906 16:47:27.466053 19724 net.cpp:115] Creating Layer inception_5b/relu_pool_proj
I0906 16:47:27.466066 19724 net.cpp:516] inception_5b/relu_pool_proj <- inception_5b/pool_proj
I0906 16:47:27.466080 19724 net.cpp:477] inception_5b/relu_pool_proj -> inception_5b/pool_proj (in-place)
I0906 16:47:27.466101 19724 net.cpp:153] Setting up inception_5b/relu_pool_proj
I0906 16:47:27.466114 19724 net.cpp:160] Top shape: 50 128 7 7 (313600)
I0906 16:47:27.466121 19724 net.cpp:168] Memory required for data: 2795387624
I0906 16:47:27.466131 19724 layer_factory.hpp:77] Creating layer inception_5b/output
I0906 16:47:27.466146 19724 net.cpp:115] Creating Layer inception_5b/output
I0906 16:47:27.466161 19724 net.cpp:516] inception_5b/output <- inception_5b/1x1
I0906 16:47:27.466187 19724 net.cpp:516] inception_5b/output <- inception_5b/3x3
I0906 16:47:27.466218 19724 net.cpp:516] inception_5b/output <- inception_5b/5x5
I0906 16:47:27.466248 19724 net.cpp:516] inception_5b/output <- inception_5b/pool_proj
I0906 16:47:27.466272 19724 net.cpp:490] inception_5b/output -> inception_5b/output
I0906 16:47:27.466392 19724 net.cpp:153] Setting up inception_5b/output
I0906 16:47:27.466433 19724 net.cpp:160] Top shape: 50 1024 7 7 (2508800)
I0906 16:47:27.466445 19724 net.cpp:168] Memory required for data: 2805422824
I0906 16:47:27.466457 19724 layer_factory.hpp:77] Creating layer pool5/7x7_s1
I0906 16:47:27.466493 19724 net.cpp:115] Creating Layer pool5/7x7_s1
I0906 16:47:27.466562 19724 net.cpp:516] pool5/7x7_s1 <- inception_5b/output
I0906 16:47:27.466629 19724 net.cpp:490] pool5/7x7_s1 -> pool5/7x7_s1
I0906 16:47:27.466879 19724 net.cpp:153] Setting up pool5/7x7_s1
I0906 16:47:27.466907 19724 net.cpp:160] Top shape: 50 1024 1 1 (51200)
I0906 16:47:27.466917 19724 net.cpp:168] Memory required for data: 2805627624
I0906 16:47:27.466925 19724 layer_factory.hpp:77] Creating layer pool5/drop_7x7_s1
I0906 16:47:27.466943 19724 net.cpp:115] Creating Layer pool5/drop_7x7_s1
I0906 16:47:27.466956 19724 net.cpp:516] pool5/drop_7x7_s1 <- pool5/7x7_s1
I0906 16:47:27.466977 19724 net.cpp:477] pool5/drop_7x7_s1 -> pool5/7x7_s1 (in-place)
I0906 16:47:27.467041 19724 net.cpp:153] Setting up pool5/drop_7x7_s1
I0906 16:47:27.467062 19724 net.cpp:160] Top shape: 50 1024 1 1 (51200)
I0906 16:47:27.467070 19724 net.cpp:168] Memory required for data: 2805832424
I0906 16:47:27.467082 19724 layer_factory.hpp:77] Creating layer loss3/classifier
I0906 16:47:27.467108 19724 net.cpp:115] Creating Layer loss3/classifier
I0906 16:47:27.467119 19724 net.cpp:516] loss3/classifier <- pool5/7x7_s1
I0906 16:47:27.467141 19724 net.cpp:490] loss3/classifier -> loss3/classifier
I0906 16:47:27.480526 19724 net.cpp:153] Setting up loss3/classifier
I0906 16:47:27.480587 19724 net.cpp:160] Top shape: 50 1000 (50000)
I0906 16:47:27.480592 19724 net.cpp:168] Memory required for data: 2806032424
I0906 16:47:27.480608 19724 layer_factory.hpp:77] Creating layer loss3/classifier_loss3/classifier_0_split
I0906 16:47:27.480625 19724 net.cpp:115] Creating Layer loss3/classifier_loss3/classifier_0_split
I0906 16:47:27.480635 19724 net.cpp:516] loss3/classifier_loss3/classifier_0_split <- loss3/classifier
I0906 16:47:27.480651 19724 net.cpp:490] loss3/classifier_loss3/classifier_0_split -> loss3/classifier_loss3/classifier_0_split_0
I0906 16:47:27.480666 19724 net.cpp:490] loss3/classifier_loss3/classifier_0_split -> loss3/classifier_loss3/classifier_0_split_1
I0906 16:47:27.480674 19724 net.cpp:490] loss3/classifier_loss3/classifier_0_split -> loss3/classifier_loss3/classifier_0_split_2
I0906 16:47:27.480741 19724 net.cpp:153] Setting up loss3/classifier_loss3/classifier_0_split
I0906 16:47:27.480752 19724 net.cpp:160] Top shape: 50 1000 (50000)
I0906 16:47:27.480758 19724 net.cpp:160] Top shape: 50 1000 (50000)
I0906 16:47:27.480764 19724 net.cpp:160] Top shape: 50 1000 (50000)
I0906 16:47:27.480768 19724 net.cpp:168] Memory required for data: 2806632424
I0906 16:47:27.480774 19724 layer_factory.hpp:77] Creating layer loss3/loss3
I0906 16:47:27.480783 19724 net.cpp:115] Creating Layer loss3/loss3
I0906 16:47:27.480808 19724 net.cpp:516] loss3/loss3 <- loss3/classifier_loss3/classifier_0_split_0
I0906 16:47:27.480815 19724 net.cpp:516] loss3/loss3 <- label_data_1_split_6
…
